model_eta.pth.tar (torch, 181264 bytes, 37 tensors)

conv1.bias f4 [64]
0.0 0.0 0.0 0.0 0.0 0.0 0.0 0.0
0.0 0.0 0.0 0.0 0.0 0.0 0.0 0.0
0.0 0.0 0.0 0.0 0.0 0.0 0.0 0.0
0.0 0.0 0.0 0.0 0.0 0.0 0.0 0.0
0.0 0.0 0.0 0.0 0.0 0.0 0.0 0.0
0.0 0.0 0.0 0.0 0.0 0.0 0.0 0.0
0.0 0.0 0.0 0.0 0.0 0.0 0.0 0.0
0.0 0.0 0.0 0.0 0.0 0.0 0.0 0.0
00000000: 0000 0000 0000 0000 0000 0000 0000 0000
00000010: 0000 0000 0000 0000 0000 0000 0000 0000
00000020: 0000 0000 0000 0000 0000 0000 0000 0000
00000030: 0000 0000 0000 0000 0000 0000 0000 0000
00000040: 0000 0000 0000 0000 0000 0000 0000 0000
00000050: 0000 0000 0000 0000 0000 0000 0000 0000
00000060: 0000 0000 0000 0000 0000 0000 0000 0000
00000070: 0000 0000 0000 0000 0000 0000 0000 0000
00000080: 0000 0000 0000 0000 0000 0000 0000 0000
00000090: 0000 0000 0000 0000 0000 0000 0000 0000
000000a0: 0000 0000 0000 0000 0000 0000 0000 0000
000000b0: 0000 0000 0000 0000 0000 0000 0000 0000
000000c0: 0000 0000 0000 0000 0000 0000 0000 0000
000000d0: 0000 0000 0000 0000 0000 0000 0000 0000
000000e0: 0000 0000 0000 0000 0000 0000 0000 0000
000000f0: 0000 0000 0000 0000 0000 0000 0000 0000

conv1.lin.weight f4 [64, 7]
0.049254227 0.08646764 0.19775891 -0.26309037 -0.24037814 -0.1861483 -0.19107881 -0.05105453
-0.14678754 0.10237446 -0.22670163 -0.17875634 -0.26080444 0.17343406 0.12975702 -0.10601365
0.011991565 -0.10979504 0.11979876 -0.044711724 0.15955386 -0.20384766 -0.22708689 0.20539178
0.14812034 -0.17821653 0.13165371 -0.17117725 0.16928028 0.11690824 0.27289543 -0.09604192
-0.09566416 -0.00963617 0.018120999 0.12674238 -0.06843201 0.08054759 0.061867993 -0.28751266
0.07993613 -0.11385073 0.25022176 -0.2329844 -0.029899852 -0.085991114 -0.19215892 -0.12478483
-0.07086053 0.12807806 -0.020829994 -0.23247842 -0.049668718 0.2534404 0.21838516 0.23435771
0.16846992 -0.2679523 -0.03651153 -0.20129742 0.07718817 -0.11617389 -0.21291436 0.12837712
0.19286186 0.016739316 0.13518278 0.22719726 -0.2067219 0.13307863 -0.28533006 0.20248872
0.15708129 -0.0073977746 0.20605126 -0.10150461 0.09984373 -0.1103621 -0.24816282 -0.02485302
-0.14662604 0.05530415 -0.029829035 0.26001802 -0.045583513 0.11504354 0.025098246 -0.2688825
-0.21501118 0.09812413 -0.16952994 -0.00935446 0.2064908 -0.15490009 0.22780626 0.20146404
0.14645396 -0.03794975 -0.2135028 -0.25795043 -0.064363725 -0.14524643 0.0709648 0.17156772
-0.14823858 -0.19681674 0.26700976 -0.17095843 -0.122115895 -0.05810173 0.20258194 -0.16557842
0.11505704 0.18512465 -0.20942535 0.18309581 -0.15833224 0.023638032 -0.2282373 0.09003596
0.21989943 0.27312422 0.0077337567 0.12967269 -0.26938614 0.036244977 -0.19900255 0.22549012
-0.0058019306 0.21569178 -0.13728482 0.08249209 -0.2529752 0.11436901 0.17754962 0.07309043
-0.16983578 -0.28110325 0.10619572 -0.23675215 0.007964626 -0.012402934 0.016251745 0.019258915
0.23113376 0.25801834 -0.26032567 -0.2625404 0.07134583 -0.21048631 0.12585919 0.010950647
0.016254313 -0.14207657 0.26775888 -0.14682315 0.13684033 -0.04793476 0.047210064 -0.010453276
0.022759251 -0.17926943 -0.16636671 0.089328974 -0.25425786 -0.27280423 -0.2425684 0.16032235
0.22493963 -0.13435735 0.009254321 0.1266488 -0.11860869 0.1767478 -0.049029596 -0.0070033986
0.15784809 0.18783645 0.100237615 0.20733279 0.019266736 -0.008087385 -0.20186213 0.21036087
0.0063397423 -0.26676917 -0.24339512 -0.024101328 0.22494294 -0.08071625 -0.25936916 -0.16044457
-0.13325678 0.21156678 0.20846453 0.005578615 -0.091370605 0.17347479 -0.26904526 0.089972995
-0.11197714 -0.22736004 -0.10406044 -0.23325673 0.01855411 0.21045342 0.17747118 -0.23203067
-0.28535336 -0.080956064 0.11500523 -0.28367954 -0.027551174 -0.0813088 0.17454128 -0.1930783
0.28708518 0.06919632 -0.019624468 0.015975926 0.12575725 0.08661123 0.16861153 -0.2722711
0.1355866 0.19591206 -0.04384643 0.16975231 0.10349092 -0.031703506 0.18959033 0.29043224
-0.12650011 -0.107472986 0.08699712 -0.058866937 0.11726975 0.26648688 -0.17537427 -0.19234298
-0.1172854 -0.011981763 0.18536188 -0.1802794 -0.17606346 -0.032807242 -0.25462404 0.16981621
-0.260947 0.273822 -0.031382736 0.28940055 -0.14650401 0.16238196 -0.18800624 0.13159636
00000000: cdbe 493d f215 b13d 5081 4a3e c8b3 86be
00000010: b025 76be a99d 3ebe 2aaa 43be 8e1e 51bd
00000020: 794f 16be b3a9 d13d 7924 68be e70b 37be
00000030: 2988 85be b398 313e 06df 043e af1d d9bd
00000040: 4578 443c 39dc e0bd 0d59 f53d a423 37bd
00000050: 1662 233e 71bd 50be 7789 68be 3952 523e
00000060: dcac 173e 657e 36be 3bd0 063e 1749 2fbe
00000070: cf57 2d3e 966d ef3d f3b8 8b3e a0b1 c4bd
00000080: 92eb c3bd 07e1 1dbc 7d72 943c c1c8 013e
00000090: 1526 8cbd 23f6 a43d 4b69 7d3d dc34 93be
000000a0: 8eb5 a33d 922a e9bd 111d 803e 7693 6ebe
000000b0: 89f0 f4bc 1c1c b0bd 4fc5 44be 308f ffbd
000000c0: 531f 91bd e526 033e aaa3 aabc d30e 6ebe
000000d0: 6d71 4bbd f1c2 813e 5ca0 5f3e 78fb 6f3e
000000e0: 6183 2c3e 0b31 89be 1d8d 15bd e920 4ebe
000000f0: d514 9e3d 94ec edbd 3906 5abe 4b75 033e
00000100: 947d 453e e420 893c 5b6d 0a3e 66a6 683e
00000110: e8ae 53be c445 083e c816 92be 3459 4f3e
00000120: ebd9 203e 0869 f2bb 1aff 523e a6e1 cfbd
00000130: df7a cc3d 8605 e2bd 651e 7ebe 9098 cbbc
00000140: 2325 16be 9b86 623d 055c f4bc 1521 853e
00000150: c7b5 3abd f39b eb3d d69a cd3c f8aa 89be
00000160: e42b 5cbe 4ef5 c83d 4299 2dbe 7343 19bc
00000170: 5372 533e 219e 1ebe 0b46 693e 974c 4e3e
00000180: 07f8 153e 3271 1bbd 7aa0 5abe 1412 84be
00000190: 21d1 83bd 7bbb 14be fe55 913d 73af 2f3e
000001a0: dbcb 17be 548a 49be 81b5 883e ba0f 2fbe
000001b0: e617 fabd 14fc 6dbd a471 4f3e 648d 29be
000001c0: 06a3 eb3d 5191 3d3e 9973 56be 787d 3b3e
000001d0: d921 22be 8ca4 c13c 0ab7 69be c664 b83d
000001e0: 512d 613e f0d6 8b3e 746b fd3b ebc8 043e
000001f0: fbec 89be 9d75 143d 53c7 4bbe e2e6 663e
00000200: 1f1e bebb 4ede 5c3e 6494 0cbe 9df1 a83d
00000210: f785 81be 4d3a ea3d 91cf 353e 6fb0 953d
00000220: 6ee9 2dbe c4ec 8fbe 247d d93d 286f 72be
00000230: 107e 023c ad35 4bbc 6122 853c dfc4 9d3c
00000240: 54ae 6c3e fb1a 843e 6849 85be b26b 86be
00000250: c31d 923d b989 57be 3be1 003e 586a 333c
00000260: c427 853c 857c 11be b117 893e cf58 16be
00000270: df1f 0c3e 3d57 44bd 575f 413d 3844 2bbc
00000280: 9c71 ba3c 6892 37be 095c 2abe 1cf2 b63d
00000290: 162e 82be ffac 8bbe da63 78be 8b2b 243e
000002a0: 9356 663e f994 09be 709f 173c 39b0 013e
000002b0: 1de9 f2bd 60fd 343e 42d3 48bd c47c e5bb
000002c0: eea2 213e 3358 403e 6149 cd3d 0c4f 543e
000002d0: 46d5 9d3c f480 04bc f2b4 4ebe d768 573e
000002e0: 9dbd cf3b f895 88be 923c 79be 2670 c5bc
000002f0: 7157 663e 904e a5bd 09cc 84be 954b 24be
00000300: 7774 08be f6a4 583e ba77 553e d0cc b63b
00000310: 8320 bbbd 60a3 313e 4dc0 89be c343 b83d
00000320: 4554 e5bd 12d1 68be a41d d5bd dada 6ebe
00000330: cafe 973c 1a81 573e 01bb 353e 7399 6dbe
00000340: d619 92be 4bcc a5bd dd87 eb3d 723e 91be
00000350: 00b3 e1bc 3a85 a6bd f3ba 323e 51b6 45be
00000360: d4fc 923e cdb6 8d3d 7ec3 a0bc f2df 823c
00000370: 82c6 003e 3b61 b13d 80a8 2c3e 1e67 8bbe
00000380: 37d7 0a3e 2c9d 483e 5098 33bd 8dd3 2d3e
00000390: 0cf3 d33d 89db 01bd f823 423e 89b3 943e
000003a0: 3f89 01be cc1a dcbd 8c2b b23d 751e 71bd
000003b0: 1f2b f03d f870 883e 5095 33be 8ff5 44be
000003c0: 5433 f0bd 284f 44bc 81cf 3d3e 2a9b 38be
000003d0: fb49 34be e360 06bd 155e 82be 4de4 2d3e
000003e0: d89a 85be 6632 8c3e 2f8b 00bd 4f2c 943e
000003f0: 2605 16be 7547 263e b584 40be 32c1 063e

conv2.bias f4 [64]
0.0 0.0 0.0 0.0 0.0 0.0 0.0 0.0
0.0 0.0 0.0 0.0 0.0 0.0 0.0 0.0
0.0 0.0 0.0 0.0 0.0 0.0 0.0 0.0
0.0 0.0 0.0 0.0 0.0 0.0 0.0 0.0
0.0 0.0 0.0 0.0 0.0 0.0 0.0 0.0
0.0 0.0 0.0 0.0 0.0 0.0 0.0 0.0
0.0 0.0 0.0 0.0 0.0 0.0 0.0 0.0
0.0 0.0 0.0 0.0 0.0 0.0 0.0 0.0
00000000: 0000 0000 0000 0000 0000 0000 0000 0000
00000010: 0000 0000 0000 0000 0000 0000 0000 0000
00000020: 0000 0000 0000 0000 0000 0000 0000 0000
00000030: 0000 0000 0000 0000 0000 0000 0000 0000
00000040: 0000 0000 0000 0000 0000 0000 0000 0000
00000050: 0000 0000 0000 0000 0000 0000 0000 0000
00000060: 0000 0000 0000 0000 0000 0000 0000 0000
00000070: 0000 0000 0000 0000 0000 0000 0000 0000
00000080: 0000 0000 0000 0000 0000 0000 0000 0000
00000090: 0000 0000 0000 0000 0000 0000 0000 0000
000000a0: 0000 0000 0000 0000 0000 0000 0000 0000
000000b0: 0000 0000 0000 0000 0000 0000 0000 0000
000000c0: 0000 0000 0000 0000 0000 0000 0000 0000
000000d0: 0000 0000 0000 0000 0000 0000 0000 0000
000000e0: 0000 0000 0000 0000 0000 0000 0000 0000
000000f0: 0000 0000 0000 0000 0000 0000 0000 0000

conv2.lin.weight f4 [64, 64]
-0.06957704 -0.07023472 -0.03445114 0.15616323 -0.18890847 -0.040205028 0.106219955 -0.19496596
0.105077356 0.03467936 -0.055555314 -0.20974964 -0.17041507 -0.08763208 -0.08895888 -0.12138912
0.20842025 0.060243666 0.18247421 -0.036995802 -0.16561638 0.16262853 -0.010227572 0.017668683
-0.18935575 0.11935561 -0.0061535616 0.18150252 0.012131497 -0.21401457 0.14059837 -0.16214496
-0.07592895 -0.114822924 0.00044564286 -0.10800337 0.10771154 0.030822018 0.1889916 -0.097027995
-0.019295158 0.10603186 -0.13646086 0.035672814 -0.20683612 0.024491543 -0.21269074 -0.19470537
0.014127033 0.09573563 -0.1696907 -0.20091179 -0.029362475 -0.17336118 -0.023305649 -0.21258722
-0.16417193 -0.10808887 -0.1479924 0.009210881 0.039252363 0.19522749 -0.20806864 0.06555929
0.09119761 -0.21240167 -0.0067264633 -0.14584118 -0.15473893 0.1278447 -0.16712299 0.17815402
-0.045543626 0.0267142 -0.0704491 0.18891352 0.069768555 -0.04635249 0.07547245 -0.18547039
-0.053978946 -0.20186526 -0.09315187 -0.20079264 0.16757306 0.2092812 0.032732178 0.070858575
0.14811821 0.17652485 -0.16600591 0.00881305 -0.058645654 -0.20449483 0.15793909 0.016188197
-0.015177573 0.0043402123 -0.0019150865 -0.15563706 -0.1986469 0.05033437 -0.07594718 0.074118085
-0.06929004 0.009880192 -0.13714236 -0.054323073 0.07060002 0.09084474 -0.08089562 -0.12751715
0.04225563 0.14587693 0.1688514 0.20433421 0.1925909 -0.09761203 0.19413522 0.059446685
-0.13593848 0.182453 0.10683108 -0.17954397 0.17619324 0.1085136 0.04548091 -0.17921251
0.20268585 0.20282947 -0.05192117 -0.0757564 0.10797771 0.062577374 0.034709703 -0.122277156
0.06999604 -0.023882467 -0.0203045 -0.08172826 -0.11583986 0.07151941 0.089170106 -0.18431817
-0.16067998 -0.012642483 -0.1971832 -0.010565022 0.030203525 0.2133312 -0.024232345 0.05481876
-0.19937982 -0.053969633 -0.03587886 0.1183294 -0.12917414 -0.083937965 0.0811694 -0.07820312
0.09219043 0.17642488 0.023888977 0.0052071824 0.03185491 -0.12337915 -0.14933859 0.032308664
-0.019633925 0.06706273 -0.07963325 0.058752112 -0.20981237 -0.0130467275 0.1015694 -0.07770047
0.19793841 0.09436897 0.2032217 0.10067067 -0.09327134 0.17803904 -0.14574255 -0.106383875
-0.11716615 0.09072624 -0.15347755 0.017667752 -0.014389301 0.0018030697 -0.07020153 0.13715783
-0.02061499 -0.056866277 0.18534553 -0.12594333 -0.13138467 0.15160868 0.012942791 -0.11383753
0.09913561 -0.20572735 -0.13517842 0.028701616 -0.17617859 -0.0997101 0.13647676 -0.16043918
-0.0074866298 0.034687698 0.17972887 0.12469268 -0.1737315 0.05625038 0.20501201 0.18967147
-0.01581479 -0.00899924 0.1432309 0.13563122 -0.10169313 0.0538482 0.11191716 -0.061542403
-0.10172504 -0.10631741 0.12454886 0.18171737 -0.11771369 0.13059433 0.05533289 -0.16984804
-0.14298868 0.111465804 -0.052288808 -0.12557818 0.17376179 -0.090243585 0.018383373 0.09747472
-0.059585724 0.122493625 0.19676346 -0.15590048 0.17089412 -0.020934492 0.21113983 0.18802483
0.039945558 0.024377018 0.07147532 -0.008492979 0.08385575 0.004924572 -0.033992648 0.077494755
00000000: 687e 8ebd 39d7 8fbd a31c 0dbd 41e9 1f3e
00000010: 3971 41be 07ae 24bd d989 d93d 28a5 47be
00000020: cc32 d73d f20b 0e3d f88d 63bd 9cc8 56be
00000030: 4a81 2ebe 7378 b3bd 1330 b6bd dc9a f8bd
00000040: 1e6c 553e 10c2 763d 85da 3a3e e988 17bd
00000050: 5797 29be 1888 263e 8c91 27bc eabd 903c
00000060: 79e6 41be b770 f43d d1a3 c9bb ccdb 393e
00000070: 30c3 463c a326 5bbe 05f9 0f3e 5409 26be
00000080: a380 9bbd 4828 ebbd 2ca5 e939 df30 ddbd
00000090: de97 dc3d 757e fc3c 0487 413e 9db6 c6bd
000000a0: e110 9ebc 3b27 d93d 65bc 0bbe a81d 123d
000000b0: d9cc 53be 7da2 c83c 9acb 59be d860 47be
000000c0: 1275 673c 0b11 c43d 66c3 2dbe d2bb 4dbe
000000d0: 9389 f0bc 9885 31be 7deb bebc 77b0 59be
000000e0: b01c 28be b35d ddbd 528b 17be 3ce9 163c
000000f0: 16c7 203d b7e9 473e f20f 55be f343 863d
00000100: d0c5 ba3d d37f 59be aa69 dcbb 6457 15be
00000110: e273 1ebe b9e9 023e 4a22 2bbe 026e 363e
00000120: f48b 3abd bdd7 da3c 9e47 90bd 8c72 413e
00000130: d1e2 8e3d 1cdc 3dbd 4d91 9a3d f3eb 3dbe
00000140: 0719 5dbd c4b5 4ebe 68c6 bebd 969c 4dbe
00000150: 4698 2b3e d04d 563e 2d12 063d 4d1e 913d
00000160: 4dac 173e eec2 343e 74fd 29be 9c64 103c
00000170: 6d36 70bd 1867 51be c9ba 213e 1c9d 843c
00000180: 5bab 78bc 5738 8e3b a403 fbba 525f 1fbe
00000190: 186a 4bbe 6a2b 4e3d 328a 9bbd 39cb 973d
000001a0: f0e7 8dbd 87e0 213c 0c6f 0cbe df81 5ebd
000001b0: be96 903d cf0c ba3d 9aac a5bd db93 02be
000001c0: 3d14 2d3d c360 153e 62e7 2c3e fd3c 513e
000001d0: 8d36 453e d1e8 c7bd 62cb 463e 5e7e 733d
000001e0: 7533 0bbe f6d4 3a3e 41ca da3d 60da 37be
000001f0: 006c 343e 613c de3d 314a 3a3d 7c83 37be
00000200: e18c 4f3e 87b2 4f3e 4bab 54bd 2c26 9bbd
00000210: 6b23 dd3d 9128 803d c32b 0e3d 726c fabd
00000220: 155a 8f3d 2aa5 c3bc 9f55 a6bc 2561 a7bd
00000230: 733d edbd c578 923d d19e b63d e7bd 3cbe
00000240: 4b89 24be 6b22 4fbc 65ea 49be ea18 2dbc
00000250: 626d f73c 7e73 5a3e e982 c6bc a389 603d
00000260: 392a 4cbe 430f 5dbd b6f5 12bd af56 f23d
00000270: 3a46 04be abe7 abbd 243c a63d f528 a0bd
00000280: 56ce bc3d b9a8 343e d1b2 c33c 03a1 aa3b
00000290: 4b7a 023d 35ae fcbd 37ec 18be 1756 043d
000002a0: 53d7 a0bc 2f58 893d c216 a3bd 0ea6 703d
000002b0: 0ed9 56be f1c1 55bc 9e03 d03d 6d21 9fbd
000002c0: 5eb0 4a3e 8544 c13d 5919 503e 6d2c ce3d
000002d0: 0b05 bfbd de4f 363e 893d 15be cadf d9bd
000002e0: cef4 efbd aece b93d 3829 1dbe f6bb 903c
000002f0: 1ac1 6bbc fb54 ec3a d2c5 8fbd 1a73 0c3e
00000300: c4e0 a8bc 9dec 68bd 38cb 3d3e 4af7 00be
00000310: b489 06be 4e3f 1b3e 000e 543c a723 e9bd
00000320: 9c07 cb3d 31aa 52be 366c 0abe a71f eb3c
00000330: 2968 34be cf34 ccbd 90c0 0b3e 2b4a 24be
00000340: 6752 f5bb b014 0e3d d80a 383e e05e ff3d
00000350: ace6 31be cc66 663d abee 513e 3d39 423e
00000360: 058e 81bc 8c71 13bc 1fab 123e e9e2 0a3e
00000370: 7d44 d0bd ee8f 5c3d d334 e53d e313 7cbd
00000380: 3855 d0bd f1bc d9bd 7913 ff3d 1e14 3a3e
00000390: e013 f1bd 85ba 053e bea4 623d a5ec 2dbe
000003a0: a06b 12be 2f48 e43d ca2c 56bd 9197 00be
000003b0: 9cee 313e a1d1 b8bd ba98 963c d3a0 c73d
000003c0: 2910 74bd f0dd fa3d 5c7c 493e 60a4 1fbe
000003d0: defe 2e3e d07e abbc 0a35 583e 9589 403e
000003e0: f49d 233d 50b2 c73c a761 923d 2326 0bbc
000003f0: 90bc ab3d 4e5e a13b e03b 0bbd 92b5 9e3d

bn1.weight f4 [64]
1.0000032 0.9999875 1.0097176 0.9995634 0.9895236 0.9918425 0.9999808 0.99631405
0.99995255 1.0000198 1.0068425 1.0017244 0.9999858 1.001726 0.9998518 1.0012094
1.0000451 1.0043074 0.9994663 1.0003021 1.000645 0.9998377 1.0002958 0.999857
0.9996762 1.0001462 0.999318 0.99627596 0.9999828 1.0023911 1.0006477 0.9998684
1.0003773 1.0038658 0.99998695 1.0016996 1.0002785 0.9997835 1.0003628 0.999248
0.99996376 1.0013161 1.0000458 0.99731135 0.99905115 1.0011464 1.0002444 1.0000104
1.0013692 0.9926002 0.99999845 0.99995744 1.0000073 1.0008583 0.9958958 1.0043603
1.0009649 0.996922 1.0003239 0.99943286 0.9980058 1.0017769 1.0001519 1.0008435
00000000: 1b00 803f 2eff 7f3f 6d3e 813f 63e3 7f3f
00000010: 6b51 7d3f 64e9 7d3f befe 7f3f 700e 7f3f
00000020: e4fc 7f3f a600 803f 37e0 803f 8138 803f
00000030: 12ff 7f3f 8f38 803f 4af6 7f3f a127 803f
00000040: 7a01 803f 258d 803f 06dd 7f3f e609 803f
00000050: 2315 803f 5df5 7f3f b109 803f a1f6 7f3f
00000060: c8ea 7f3f ca04 803f 4ed3 7f3f f10b 7f3f
00000070: dffe 7f3f 5a4e 803f 3915 803f 60f7 7f3f
00000080: 5d0c 803f ad7e 803f 25ff 7f3f b137 803f
00000090: 2009 803f d0f1 7f3f e30b 803f b8ce 7f3f
000000a0: a0fd 7f3f 202b 803f 8001 803f cc4f 7f3f
000000b0: d1c1 7f3f 9125 803f 0208 803f 5700 803f
000000c0: de2c 803f 0c1b 7e3f e6ff 7f3f 36fd 7f3f
000000d0: 3d00 803f 201c 803f 07f3 7e3f e18e 803f
000000e0: 9e1f 803f 4836 7f3f 9d0a 803f d5da 7f3f
000000f0: 4f7d 7f3f 3a3a 803f fa04 803f a41b 803f

bn1.bias f4 [64]
0.0 0.0 0.0 0.0 0.0 0.0 0.0 0.0
0.0 0.0 0.0 0.0 0.0 0.0 0.0 0.0
0.0 0.0 0.0 0.0 0.0 0.0 0.0 0.0
0.0 0.0 0.0 0.0 0.0 0.0 0.0 0.0
0.0 0.0 0.0 0.0 0.0 0.0 0.0 0.0
0.0 0.0 0.0 0.0 0.0 0.0 0.0 0.0
0.0 0.0 0.0 0.0 0.0 0.0 0.0 0.0
0.0 0.0 0.0 0.0 0.0 0.0 0.0 0.0
00000000: 0000 0000 0000 0000 0000 0000 0000 0000
00000010: 0000 0000 0000 0000 0000 0000 0000 0000
00000020: 0000 0000 0000 0000 0000 0000 0000 0000
00000030: 0000 0000 0000 0000 0000 0000 0000 0000
00000040: 0000 0000 0000 0000 0000 0000 0000 0000
00000050: 0000 0000 0000 0000 0000 0000 0000 0000
00000060: 0000 0000 0000 0000 0000 0000 0000 0000
00000070: 0000 0000 0000 0000 0000 0000 0000 0000
00000080: 0000 0000 0000 0000 0000 0000 0000 0000
00000090: 0000 0000 0000 0000 0000 0000 0000 0000
000000a0: 0000 0000 0000 0000 0000 0000 0000 0000
000000b0: 0000 0000 0000 0000 0000 0000 0000 0000
000000c0: 0000 0000 0000 0000 0000 0000 0000 0000
000000d0: 0000 0000 0000 0000 0000 0000 0000 0000
000000e0: 0000 0000 0000 0000 0000 0000 0000 0000
000000f0: 0000 0000 0000 0000 0000 0000 0000 0000

bn1.running_mean f4 [64]
0.0 0.0 0.0 0.0 0.0 0.0 0.0 0.0
0.0 0.0 0.0 0.0 0.0 0.0 0.0 0.0
0.0 0.0 0.0 0.0 0.0 0.0 0.0 0.0
0.0 0.0 0.0 0.0 0.0 0.0 0.0 0.0
0.0 0.0 0.0 0.0 0.0 0.0 0.0 0.0
0.0 0.0 0.0 0.0 0.0 0.0 0.0 0.0
0.0 0.0 0.0 0.0 0.0 0.0 0.0 0.0
0.0 0.0 0.0 0.0 0.0 0.0 0.0 0.0
00000000: 0000 0000 0000 0000 0000 0000 0000 0000
00000010: 0000 0000 0000 0000 0000 0000 0000 0000
00000020: 0000 0000 0000 0000 0000 0000 0000 0000
00000030: 0000 0000 0000 0000 0000 0000 0000 0000
00000040: 0000 0000 0000 0000 0000 0000 0000 0000
00000050: 0000 0000 0000 0000 0000 0000 0000 0000
00000060: 0000 0000 0000 0000 0000 0000 0000 0000
00000070: 0000 0000 0000 0000 0000 0000 0000 0000
00000080: 0000 0000 0000 0000 0000 0000 0000 0000
00000090: 0000 0000 0000 0000 0000 0000 0000 0000
000000a0: 0000 0000 0000 0000 0000 0000 0000 0000
000000b0: 0000 0000 0000 0000 0000 0000 0000 0000
000000c0: 0000 0000 0000 0000 0000 0000 0000 0000
000000d0: 0000 0000 0000 0000 0000 0000 0000 0000
000000e0: 0000 0000 0000 0000 0000 0000 0000 0000
000000f0: 0000 0000 0000 0000 0000 0000 0000 0000

bn1.running_var f4 [64]
1.0 1.0 1.0 1.0 1.0 1.0 1.0 1.0
1.0 1.0 1.0 1.0 1.0 1.0 1.0 1.0
1.0 1.0 1.0 1.0 1.0 1.0 1.0 1.0
1.0 1.0 1.0 1.0 1.0 1.0 1.0 1.0
1.0 1.0 1.0 1.0 1.0 1.0 1.0 1.0
1.0 1.0 1.0 1.0 1.0 1.0 1.0 1.0
1.0 1.0 1.0 1.0 1.0 1.0 1.0 1.0
1.0 1.0 1.0 1.0 1.0 1.0 1.0 1.0
00000000: 0000 803f 0000 803f 0000 803f 0000 803f
00000010: 0000 803f 0000 803f 0000 803f 0000 803f
00000020: 0000 803f 0000 803f 0000 803f 0000 803f
00000030: 0000 803f 0000 803f 0000 803f 0000 803f
00000040: 0000 803f 0000 803f 0000 803f 0000 803f
00000050: 0000 803f 0000 803f 0000 803f 0000 803f
00000060: 0000 803f 0000 803f 0000 803f 0000 803f
00000070: 0000 803f 0000 803f 0000 803f 0000 803f
00000080: 0000 803f 0000 803f 0000 803f 0000 803f
00000090: 0000 803f 0000 803f 0000 803f 0000 803f
000000a0: 0000 803f 0000 803f 0000 803f 0000 803f
000000b0: 0000 803f 0000 803f 0000 803f 0000 803f
000000c0: 0000 803f 0000 803f 0000 803f 0000 803f
000000d0: 0000 803f 0000 803f 0000 803f 0000 803f
000000e0: 0000 803f 0000 803f 0000 803f 0000 803f
000000f0: 0000 803f 0000 803f 0000 803f 0000 803f

bn2.weight f4 [64]
1.0003761 1.0002706 0.9999148 0.9996799 0.99914324 1.0001868 0.9983715 1.000063
1.0002323 1.0005554 1.0000085 0.9986036 1.0005358 0.99592364 0.9998235 1.0035192
1.0003586 1.0011833 1.0002958 1.0001948 1.0000135 0.9999194 0.9999862 1.0003922
0.99989814 1.0000343 0.9998757 1.0000751 1.00007 1.0051613 0.9999642 1.0002595
0.99958444 0.998632 0.99865425 1.0002493 0.99983305 1.0000259 1.0000002 0.9996417
0.9998833 1.0001017 0.99567324 0.9997666 0.99969333 1.0001655 0.99738246 1.000192
1.0009521 1.0010148 0.9999152 1.0021678 1.0000335 0.9999772 1.0003357 1.0000317
1.0005238 1.0002588 1.0004877 1.0027255 0.99993634 0.9998359 1.0000093 0.9992335
00000000: 530c 803f de08 803f 6bfa 7f3f 06eb 7f3f
00000010: dac7 7f3f 1f06 803f 4695 7f3f 1002 803f
00000020: 9d07 803f 3312 803f 4700 803f 7ca4 7f3f
00000030: 8f11 803f daf4 7e3f 6ff4 7f3f 5173 803f
00000040: c00b 803f c626 803f b109 803f 6206 803f
00000050: 7100 803f b8fa 7f3f 18ff 7f3f da0c 803f
00000060: 53f9 7f3f 2001 803f dbf7 7f3f 7602 803f
00000070: 4b02 803f 20a9 803f a7fd 7f3f 8108 803f
00000080: c4e4 7f3f 59a6 7f3f cea7 7f3f 2b08 803f
00000090: 0ff5 7f3f d900 803f 0200 803f 85e8 7f3f
000000a0: 5af8 7f3f 5503 803f 71e4 7e3f b4f0 7f3f
000000b0: e7eb 7f3f 6c05 803f 7554 7f3f 4b06 803f
000000c0: 331f 803f 4121 803f 71fa 7f3f 0947 803f
000000d0: 1901 803f 81fe 7f3f 000b 803f 0a01 803f
000000e0: 2a11 803f 7b08 803f fb0f 803f 4f59 803f
000000f0: d4fb 7f3f 3ff5 7f3f 4e00 803f c4cd 7f3f

bn2.bias f4 [64]
0.0 0.0 0.0 0.0 0.0 0.0 0.0 0.0
0.0 0.0 0.0 0.0 0.0 0.0 0.0 0.0
0.0 0.0 0.0 0.0 0.0 0.0 0.0 0.0
0.0 0.0 0.0 0.0 0.0 0.0 0.0 0.0
0.0 0.0 0.0 0.0 0.0 0.0 0.0 0.0
0.0 0.0 0.0 0.0 0.0 0.0 0.0 0.0
0.0 0.0 0.0 0.0 0.0 0.0 0.0 0.0
0.0 0.0 0.0 0.0 0.0 0.0 0.0 0.0
00000000: 0000 0000 0000 0000 0000 0000 0000 0000
00000010: 0000 0000 0000 0000 0000 0000 0000 0000
00000020: 0000 0000 0000 0000 0000 0000 0000 0000
00000030: 0000 0000 0000 0000 0000 0000 0000 0000
00000040: 0000 0000 0000 0000 0000 0000 0000 0000
00000050: 0000 0000 0000 0000 0000 0000 0000 0000
00000060: 0000 0000 0000 0000 0000 0000 0000 0000
00000070: 0000 0000 0000 0000 0000 0000 0000 0000
00000080: 0000 0000 0000 0000 0000 0000 0000 0000
00000090: 0000 0000 0000 0000 0000 0000 0000 0000
000000a0: 0000 0000 0000 0000 0000 0000 0000 0000
000000b0: 0000 0000 0000 0000 0000 0000 0000 0000
000000c0: 0000 0000 0000 0000 0000 0000 0000 0000
000000d0: 0000 0000 0000 0000 0000 0000 0000 0000
000000e0: 0000 0000 0000 0000 0000 0000 0000 0000
000000f0: 0000 0000 0000 0000 0000 0000 0000 0000

bn2.running_mean f4 [64]
0.0 0.0 0.0 0.0 0.0 0.0 0.0 0.0
0.0 0.0 0.0 0.0 0.0 0.0 0.0 0.0
0.0 0.0 0.0 0.0 0.0 0.0 0.0 0.0
0.0 0.0 0.0 0.0 0.0 0.0 0.0 0.0
0.0 0.0 0.0 0.0 0.0 0.0 0.0 0.0
0.0 0.0 0.0 0.0 0.0 0.0 0.0 0.0
0.0 0.0 0.0 0.0 0.0 0.0 0.0 0.0
0.0 0.0 0.0 0.0 0.0 0.0 0.0 0.0
00000000: 0000 0000 0000 0000 0000 0000 0000 0000
00000010: 0000 0000 0000 0000 0000 0000 0000 0000
00000020: 0000 0000 0000 0000 0000 0000 0000 0000
00000030: 0000 0000 0000 0000 0000 0000 0000 0000
00000040: 0000 0000 0000 0000 0000 0000 0000 0000
00000050: 0000 0000 0000 0000 0000 0000 0000 0000
00000060: 0000 0000 0000 0000 0000 0000 0000 0000
00000070: 0000 0000 0000 0000 0000 0000 0000 0000
00000080: 0000 0000 0000 0000 0000 0000 0000 0000
00000090: 0000 0000 0000 0000 0000 0000 0000 0000
000000a0: 0000 0000 0000 0000 0000 0000 0000 0000
000000b0: 0000 0000 0000 0000 0000 0000 0000 0000
000000c0: 0000 0000 0000 0000 0000 0000 0000 0000
000000d0: 0000 0000 0000 0000 0000 0000 0000 0000
000000e0: 0000 0000 0000 0000 0000 0000 0000 0000
000000f0: 0000 0000 0000 0000 0000 0000 0000 0000

bn2.running_var f4 [64]
1.0 1.0 1.0 1.0 1.0 1.0 1.0 1.0
1.0 1.0 1.0 1.0 1.0 1.0 1.0 1.0
1.0 1.0 1.0 1.0 1.0 1.0 1.0 1.0
1.0 1.0 1.0 1.0 1.0 1.0 1.0 1.0
1.0 1.0 1.0 1.0 1.0 1.0 1.0 1.0
1.0 1.0 1.0 1.0 1.0 1.0 1.0 1.0
1.0 1.0 1.0 1.0 1.0 1.0 1.0 1.0
1.0 1.0 1.0 1.0 1.0 1.0 1.0 1.0
00000000: 0000 803f 0000 803f 0000 803f 0000 803f
00000010: 0000 803f 0000 803f 0000 803f 0000 803f
00000020: 0000 803f 0000 803f 0000 803f 0000 803f
00000030: 0000 803f 0000 803f 0000 803f 0000 803f
00000040: 0000 803f 0000 803f 0000 803f 0000 803f
00000050: 0000 803f 0000 803f 0000 803f 0000 803f
00000060: 0000 803f 0000 803f 0000 803f 0000 803f
00000070: 0000 803f 0000 803f 0000 803f 0000 803f
00000080: 0000 803f 0000 803f 0000 803f 0000 803f
00000090: 0000 803f 0000 803f 0000 803f 0000 803f
000000a0: 0000 803f 0000 803f 0000 803f 0000 803f
000000b0: 0000 803f 0000 803f 0000 803f 0000 803f
000000c0: 0000 803f 0000 803f 0000 803f 0000 803f
000000d0: 0000 803f 0000 803f 0000 803f 0000 803f
000000e0: 0000 803f 0000 803f 0000 803f 0000 803f
000000f0: 0000 803f 0000 803f 0000 803f 0000 803f

fc1.weight f4 [64, 135]
-0.06629275 0.025584029 0.020790758 0.014153208 -0.08282349 -0.020161543 0.03194656 0.08096153
0.023033869 -0.06210742 -0.0340846 0.059032656 0.010587116 -0.07729343 -0.0777966 0.08315262
0.006278302 -0.009256954 -0.07164466 -0.02263077 -0.062477995 0.034992468 -0.068116955 -0.027846472
0.01821194 -0.071584255 0.0054186215 -0.014094254 0.011924059 -0.060817398 0.0023848023 -0.0023606007
-0.010739656 0.0014433946 0.07555122 -0.009076485 0.07771589 0.04916034 -0.028438108 0.021967107
-0.026630292 -0.08347814 0.056043852 -0.06364675 0.07567559 -0.029065633 0.064092785 0.059221435
0.043963406 0.029888209 -0.08238654 0.020503074 -0.062773146 0.02091834 0.07168252 -0.07921322
-0.0027554694 -0.047849946 0.04416042 0.08239094 0.054318782 -0.07153487 -0.08476152 0.08217983
0.03395149 0.07360042 -0.04047617 -0.05739125 0.053542655 0.037403148 -0.022349473 0.0550804
0.06835751 -0.010036524 -0.043482155 -0.04344937 0.08180635 0.07322726 -0.081987455 -0.012732199
0.077156134 -0.07127955 0.02511307 -0.025390502 -0.0130494125 -0.0563931 -0.00920847 0.07016425
0.049153034 -0.04385011 -0.082599446 -0.07883389 0.055430993 -0.06278084 -0.008947133 -0.011817326
0.049812257 0.063838825 -0.036226988 0.0006276977 -0.02870051 0.04280815 0.011008967 -0.06426765
0.034675688 -0.07311905 0.06784282 -0.001491172 -0.04549276 -0.07713252 -0.022289917 -0.027431063
-0.023042336 -0.058969714 0.008998584 0.072500296 -0.04055605 0.0784793 -0.02631701 -0.008632343
-0.006348184 0.0010157141 0.020507531 -0.048026633 -0.085655205 -0.002788588 0.068300374 0.03392277
0.01374088 0.020191666 0.051168244 0.04201685 -0.049748883 -0.022269515 0.024029491 0.07294305
0.005975646 0.0037832572 -0.066312544 0.020652082 -0.06289759 -0.017284073 0.07718883 -0.08546409
0.008630347 -0.03102541 -0.069029495 -0.025049377 -0.0105414605 -0.0172571 -0.014444339 -0.00012624566
-0.0083554825 -0.068326645 -0.01604404 -0.03505894 -0.0033190905 6.0952814e-05 -0.022474177 -0.081343696
0.06626175 0.029866325 0.031687636 -0.018709885 0.012832417 -0.07088634 0.02955108 0.06387353
0.012093974 0.04471536 -0.041552532 -0.05112379 -0.03154888 0.02021234 0.002755537 0.050254885
-0.062758416 -0.06531855 0.03502483 0.008631721 -0.019280307 -0.03260469 0.02247642 0.0026140471
0.018191574 -0.013353075 0.05698151 0.07671188 0.0015880074 0.041744333 -0.08001146 -0.07779096
-0.06867642 0.054139175 0.07861121 0.010106065 0.04663269 0.010200417 0.0056596473 0.015992729
-0.0677788 0.04047717 0.050364994 0.018386938 -0.0780396 -0.08014742 0.010394944 0.045630768
-0.009049029 -0.08533487 0.06921744 0.053778477 -0.011362021 0.06949752 0.0037714846 -0.0035136295
0.049110364 0.03719361 -0.039818063 -0.05853481 -0.043289084 0.067354396 0.047499977 -0.038930517
0.06619848 0.05397651 -0.03876211 0.0015766846 0.075462215 0.069764346 0.04361081 -0.010875882
-0.021952203 -0.030677307 0.027641905 -0.07937693 -0.07837209 -1.9460835e-05 -0.07183724 0.03545414
0.03317076 -0.08241944 0.05114987 -0.028478818 -0.04133049 0.05918859 -0.04550221 0.009104092
0.070886105 -0.001344023 0.055773906 0.07471245 -0.042635787 0.0003713419 -0.04094106 0.069394566
00000000: 7ec4 87bd 9995 d13c 6151 aa3c dbe2 673c
00000010: 5d9f a9bd d229 a5bc 65da 023d 29cf a53d
00000020: 86b1 bc3c 5a64 7ebd 4b9c 0bbd 3acc 713d
00000030: 9575 2d3c 054c 9ebd d353 9fbd ec4b aa3d
00000040: 37ba cd3b 7baa 17bc 6fba 92bd 2a64 b9bc
00000050: ede8 7fbd 4354 0f3d e780 8bbd 491e e4bc
00000060: 3531 953c c49a 92bd b18e b13b 96eb 66bc
00000070: 215d 433c aa1b 79bd 584a 1c3b 4fb4 1abb
00000080: 62f5 2fbc 4930 bd3a 99ba 9a3d 8ab5 14bc
00000090: 8229 9f3d 5a5c 493d 09f7 e8bc 5df4 b33c
000000a0: c527 dabc 96f6 aabd 3d8e 653d 3a59 82bd
000000b0: cefb 9a3d 0d1b eebc 1443 833d 2d92 723d
000000c0: f912 343d 1ed8 f43c 46ba a8bd 10f6 a73c
000000d0: 358f 80bd f05c ab3c 49ce 923d 8a3a a2bd
000000e0: 1b95 34bb 4efe 43bd 8ee1 343d 95bc a83d
000000f0: 5f7d 5e3d e080 92bd 7397 adbd e64d a83d
00000100: b810 0b3d d1bb 963d 57ca 25bd 1613 6bbd
00000110: 8b4f 5b3d 0b34 193d 3e16 b7bc fc9b 613d
00000120: 06ff 8b3d 3c70 24bc 581a 32bd f7f7 31bd
00000130: 168a a73d 2cf8 953d 0ae9 a7bd b79a 50bc
00000140: 0904 9e3d 03fb 91bd edb9 cd3c beff cfbc
00000150: 34cd 55bc 74fc 66bd 1fdf 16bc 46b2 8f3d
00000160: b154 493d 2c9c 33bd e629 a9bd aa73 a1bd
00000170: 9c0b 633d 3e93 80bd ff96 12bc 759d 41bc
00000180: f007 4c3d eebd 823d c062 14bd 148c 243a
00000190: 551d ebbc 9957 2f3d f45e 343c c29e 83bd
000001a0: 1808 0e3d 71bf 95bd 2df1 8a3d 6e73 c3ba
000001b0: 9e56 3abd a8f7 9dbd 5899 b6bc 1cb7 e0bc
000001c0: 48c3 bcbc 3a8a 71bd cc6e 133c 097b 943d
000001d0: 1a1e 26bd c1b9 a03d c596 d7bc ac6e 0dbc
000001e0: 6d04 d0bb b621 853a 69ff a73c 93b7 44bd
000001f0: ff6b afbd bec0 36bb 11e1 8b3d 9af2 0a3d
00000200: 6e21 613c fe68 a53c cb95 513d dc19 2c3d
00000210: 7cc5 4bbd 8f6e b6bc 7fd9 c43c 2a63 953d
00000220: 5acf c33b 86f0 773b dfce 87bd 8e2e a93c
00000230: 74d0 80bd 5497 8dbc 2d15 9e3d cc07 afbd
00000240: 4d66 0d3c 0029 febc 565f 8dbd 5a34 cdbc
00000250: 17b6 2cbc c35e 8dbc f3a7 6cbc d060 04b9
00000260: 6fe5 08bc d7ee 8bbd ca6e 83bc f799 0fbd
00000270: 1985 59bb 96a7 7f38 c41b b8bc 8697 a6bd
00000280: 3eb4 873d 39aa f43c e5ca 013d 7945 99bc
00000290: 0f3f 523c dc2c 91bd 1b15 f23c 20d0 823d
000002a0: ce25 463c 7427 373d fd32 2abd 2e67 51bd
000002b0: 6639 01bd 5994 a53c 3d96 343b 11d8 4d3d
000002c0: 7c87 80bd bbc5 85bd 3276 0f3d 106c 0d3c
000002d0: bcf1 9dbc 7f8c 05bd 7820 b83c 6f50 2b3b
000002e0: 7f06 953c dbc6 5abc 7265 693d 1e1b 9d3d
000002f0: b024 d03a 1bfc 2a3d 0cdd a3bd de50 9fbd
00000300: 39a6 8cbd 0ac1 5d3d eafe a03d e993 253c
00000310: eb01 3f3d a61f 273c 9074 b93b 2f03 833c
00000320: 9dcf 8abd 64cb 253d 864b 4e3d 34a0 963c
00000330: 3ad3 9fbd 5524 a4bd 8e4f 2a3c 54e7 3a3d
00000340: 6142 14bc 0cc4 aebd e0c1 8d3d d246 5c3d
00000350: c527 3abc b754 8e3d 032b 773b ec44 66bb
00000360: f327 493d 5458 183d 4418 23bd 32c2 6fbd
00000370: e54f 31bd 1af1 893d 568f 423d 9b75 1fbd
00000380: 1293 873d 7916 5d3d 05c5 1ebd c2a8 ce3a
00000390: ef8b 9a3d 9ce0 8e3d 40a1 323d c130 32bc
000003a0: 1bd5 b3bc fa4e fbbc 4771 e23c 5f90 a2bd
000003b0: 8c81 a0bd d33f a3b7 671f 93bd 5c38 113d
000003c0: 10de 073d 86cb a8bd 8782 513d 694c e9bc
000003d0: 294a 29bd bc6f 723d 8660 3abd 5429 153c
000003e0: bc2c 913d ee29 b0ba 2e73 643d d702 993d
000003f0: dda2 2ebd abb0 c239 d0b1 27bd bd1e 8e3d

fc1.bias f4 [64]
-0.059746295 0.08352833 0.0053671002 -0.06377511 0.011537999 0.085261874 0.067841016 -0.07229675
0.026297122 0.07640766 -0.015323542 0.037344806 0.005276449 -0.06584174 0.07935386 0.022835515
-0.05523988 0.08350029 0.012810543 0.037667684 -0.07998708 -0.07810179 0.049440585 -0.05076926
0.044426 0.014874414 -0.060236268 -0.017420903 0.05950599 -0.0073778033 -0.08096733 0.03377182
0.048827298 0.07207071 0.07979297 -0.073039174 -0.0086108595 -0.042510755 -0.044416368 0.000885427
0.050515644 0.08287128 0.08228352 -0.05434 -0.032768548 -0.0185434 -0.041112464 0.053493865
0.057557397 0.050142325 0.013900518 -0.0075351596 -0.003907025 -0.008219339 0.03429678 0.06602744
0.085445516 0.054647617 0.047156356 0.07959745 -0.022756897 0.035781972 -0.029384289 -0.059282485
00000000: 88b8 74bd e710 ab3d 80de af3b 869c 82bd
00000010: e009 3d3c c79d ae3d 3bf0 8a3d 5210 94bd
00000020: 106d d73c 9f7b 9c3d 980f 7bbc def6 183d
00000030: 10e6 ac3b 09d8 86bd 4784 a23d 8c11 bb3c
00000040: 3643 62bd 3302 ab3d 50e3 513c 6e49 1a3d
00000050: 44d0 a3bd d5f3 9fbd 3682 4a3d 6df3 4fbd
00000060: 0af8 353d d0b3 733c 4eba 76bd 48b6 8ebc
00000070: 8ebc 733d 80c1 f1bb 33d2 a5bd 5254 0a3d
00000080: 22ff 473d cf99 933d 7f6a a33d 9095 95bd
00000090: 9014 0dbc c21f 2ebd f0ed 35bd 001c 683a
000000a0: 7ee9 4e3d 6bb8 a93d 4384 a83d 9f93 5ebd
000000b0: 5038 06bd 54e8 97bc 8b65 28bd 621c 5b3d
000000c0: 4ec1 6b3d 0a62 4d3d 00bf 633c 80e9 f6bb
000000d0: 8006 80bb 68aa 06bc c87a 0c3d 6539 873d
000000e0: 0ffe ae3d 2ed6 5f3d 0627 413d fd03 a33d
000000f0: ac6c babc 1e90 123d 52b7 f0bc 31d2 72bd

fc2.weight f4 [1, 64]
0.10239317 -0.031045888 -0.012341997 0.03177709 -0.39658883 0.123011775 -36.52131 -0.0633042
-0.28301495 -0.6225633 0.3880231 0.13391106 -0.83365625 0.0040417933 -0.08588048 0.058359172
0.0388463 0.055785622 0.06257328 0.023710141 -0.02420411 0.016254047 0.46073633 0.07707293
0.48354098 0.08044952 -4.597102 0.10855992 -0.020731911 -0.08204291 0.12411776 -0.091562964
-0.08424442 -0.031406753 0.044582512 -0.037636586 0.10516172 -0.49777624 0.11217345 -0.011748973
-1.9816273 -20.534424 -0.0060575665 -1.1918291 -31.15547 -0.010657585 0.10642075 -0.029486636
0.032541163 -0.13776244 -0.030167107 -0.027106412 -0.5301106 0.0006262104 0.08216292 -0.13819925
-0.043386847 0.06289769 -9.865876 -1.084085 0.057584886 -0.36211345 0.036150947 -0.43235028
00000000: 83b3 d13d f253 febc 1636 4abc b228 023d
00000010: b10d cbbe 99ed fb3d d215 12c2 a2a5 81bd
00000020: 56e7 90be 4f60 1fbf f7aa c63e fb1f 093e
00000030: 7f6a 55bf 0571 843b 1be2 afbd 070a 6f3d
00000040: 4c1d 1f3d 777f 643d 6b26 803d c53b c23c
00000050: b347 c6bc 3527 853c a2e5 eb3e 6ad8 9d3d
00000060: af92 f73e b8c2 a43d 761b 93c0 aa54 de3d
00000070: f8d5 a9bc 1d06 a8bd 7431 fe3d 5d85 bbbd
00000080: 5788 acbd 5ea4 00bd 279c 363d d228 1abd
00000090: 075f d73d 87dc febe 32bb e53d c47e 40bc
000000a0: f7a5 fdbf 8046 a4c1 8d7e c6bb db8d 98bf
000000b0: 673e f9c1 279d 2ebc 1ff3 d93d f58d f1bc
000000c0: e249 053d 9911 0dbe 0221 f7bc 440e debc
000000d0: 54b5 07bf 4528 243a 0845 a83d 1b84 0dbe
000000e0: 68b6 31bd 81d0 803d a1da 1dc1 4cc3 8abf
000000f0: 21de 6b3d ef66 b9be 0413 143d 045d ddbe

exp_avg f4 [64]
-0.0039292644 0.0018117478 -0.00024095566 -0.002541149 5.8027512e-05 0.0030541401 -0.00063271704 0.00018071159
-0.0011509901 0.00036347163 -0.00090276083 -0.0002083639 -0.006871032 0.00029988005 0.003353373 0.00069619954
0.004928913 -0.00024088778 -0.0035462468 -0.008614519 -0.00012212658 -0.00031422256 0.00051454664 -0.00014342363
-0.00029029057 7.356444e-05 0.0015938276 0.001334058 -0.013031443 -0.014837882 0.0007615093 0.00036790178
1.1014953e-05 0.00017408645 0.0005992895 -0.00043627908 -0.0010368056 -0.001634101 -0.00017688055 0.008773148
0.003124795 0.000121089506 5.6146073e-05 -0.0007189396 1.852062e-05 -0.0004707279 -0.00062509725 -2.5830319e-05
0.00036016354 -0.00016290376 -0.0042182235 0.00083132513 -0.008078405 0.00065417506 -0.00074523676 0.00387827
-1.0381322e-05 -0.0011890016 0.0018956683 0.00043062412 -3.4119435e-05 -0.00012812234 -0.0003690341 -0.005555168
00000000: 0fc1 80bb 2b78 ed3a 0ba9 7cb9 6889 26bb
00000010: 9162 7338 f827 483b ecdc 25ba 667d 3d39
00000020: d2dc 96ba 5690 be39 41a7 6cba 427c 5ab9
00000030: 6526 e1bb 3839 9d39 43c4 5b3b 2981 363a
00000040: b882 a13b d296 7cb9 2668 68bb e923 0dbc
00000050: 1b0f 00b9 3dbe a4b9 a4e2 063a fd63 16b9
00000060: 2432 98b9 9c46 9a38 fbe7 d03a 8fdb ae3a
00000070: d581 55bc 961a 73bc 06a0 473a f1e2 c039
00000080: ddcc 3837 fa8a 3639 a319 1d3a 63bc e4b9
00000090: 6ce5 87ba 552f d6ba 0379 39b9 40bd 0f3c
000000a0: 5cc9 4c3b 6ff1 fd38 637e 6b38 3877 3cba
000000b0: bb5c 9b37 07cc f6b9 91dd 23ba 30ae d8b7
000000c0: 55d4 bc39 25d1 2ab9 0639 8abb 49ed 593a
000000d0: 495b 04bc f27c 2b3a fe5b 43ba 932a 7e3b
000000e0: 702b 2eb7 46d8 9bba 1378 f83a 64c5 e139
000000f0: 771b 0fb8 9458 06b9 eb7a c1b9 2008 b6bb

exp_avg_sq f4 [64]
1.6747818 0.021747675 1.0867476e-05 0.00024910888 1.4550266e-05 0.0040872325 1.2447784 4.0654606e-07
22.507275 4.2522133e-06 2.8846919e-06 3.032587e-05 23.841558 7.7578557e-07 0.0017794431 0.0003172669
0.0037168642 3.5640476e-06 0.00024314175 77.02871 8.418238e-06 0.17261598 4.166313e-06 2.1688128
7.483514e-06 4.814087e-07 5.9056187e-05 2.834459e-05 0.14875028 11.849663 1.0717468e-05 1.5289796e-05
1.4817766e-06 5.657147e-07 10.768607 2.4913006e-06 5.0908086e-05 0.0012685937 2.2467348e-05 0.00049484946
4.799314 1.3624892e-05 4.90527e-07 5.9575268e-05 5.8636483e-06 2.3678256e-06 40.393894 5.861377e-07
7.255341e-05 2.8204167e-05 1.299416 3.4184877e-06 0.003979899 4.5621855e-06 9.663546e-07 0.00020632693
1.3624283e-06 3.8585044e-05 0.00013285853 2.43407e-07 1.4285582e-07 9.773836e-06 5.857245e-06 0.0010319698
00000000: 405f d63f 2e28 b23c 7453 3637 d49a 8239
00000010: eb1c 7437 31ee 853b e654 9f3f 4443 da34
00000020: e60e b441 3cae 8e36 a196 4136 4f64 fe37
00000030: 83bb be41 943f 5035 343c e93a d856 a639
00000040: a296 733b df2d 6f36 def3 7e39 b30e 9a42
00000050: 0f3c 0d37 3ec2 303e 5bcc 8b36 d4cd 0a40
00000060: e51a fb36 273a 0135 19b3 7738 8bc5 ed37
00000070: fe51 183e 3898 3d41 2dcf 3337 9642 8037
00000080: 75e1 c635 9edb 1735 374c 2c41 3830 2736
00000090: 2486 5538 f146 a63a 4378 bc37 c9b8 013a
000000a0: fb93 9940 7796 6437 c2ac 0335 75e0 7938
000000b0: 5bc0 c436 efe6 1e36 5993 2142 1357 1d35
000000c0: d127 9838 fd97 ec37 4353 a63f 2c69 6536
000000d0: d069 823b e014 9936 b1b3 8135 7759 5839
000000e0: aedc b635 60d6 2138 f14f 0b39 9aad 8234
000000f0: e963 1934 4efa 2337 5a89 c436 2943 873a

exp_avg f4 [64, 7]
-0.00060496206 -0.0045458493 0.002148358 0.00042153438 0.001006981 -0.0008720616 -0.0009578453 7.1055794e-05
0.0018419528 0.0090921195 -0.00069392496 8.740507e-05 0.00383039 0.0011442035 -0.002368478 -0.0036017906
-0.0014026455 -0.0014572992 -0.001284573 -0.0019451083 -0.0009460998 0.0028134505 0.0040277913 0.0036658957
0.013953029 0.013295007 0.013635731 0.004418811 0.0005590763 0.0006848478 0.002107196 0.001623582
0.006269431 0.0065002735 0.0037978885 -0.0063140946 -0.0023481913 -0.010564106 -0.007687972 0.00045402237
0.003335892 -0.016095906 -0.0013007905 -0.00020007284 0.000985085 -0.00023378065 0.00029422768 -4.7540965e-05
-0.004086085 0.0007100166 7.537514e-05 0.0016267489 0.0040002596 0.0010411197 0.00027013678 0.0007038339
0.000531935 0.00017225085 0.0008415285 -0.0003447249 -0.0017250784 -0.00080346473 0.00019311828 0.0006866193
0.00074387924 -0.004102893 0.00083480123 0.0023385736 0.0010375149 -0.0044496614 -0.0026564081 -0.0028206336
-0.00043688389 -0.0076513495 0.00010991169 0.0014344165 -0.0004447087 -0.0007171538 0.0006327473 0.0011915045
-0.002054551 -6.138901e-05 0.00061459775 -0.0006626239 -0.0036537107 -0.013898275 0.005443304 0.0003318559
0.0010789479 0.019968743 0.0020077934 0.0018932311 0.0018804119 0.0034668555 0.0041903914 -0.001786069
-0.0019799008 0.003591761 -3.6923527e-06 -9.235204e-05 0.0013018921 0.0008197841 0.0003635458 0.0022294994
0.0015132154 -0.0011256122 -0.00044471966 -0.002936159 -0.0006028902 -0.0027494286 -0.0075234994 -0.0041407165
-0.0023911132 -0.0007384562 -0.0023833576 -0.007431448 -0.00792252 -0.0062847985 -0.0007310903 0.00051311153
-0.00024776184 0.00086784764 0.0008064652 0.0025554276 0.0024241572 0.0023992672 0.0032057934 0.0022786472
0.0007267372 0.0023288259 0.002730159 0.002701818 0.00088160794 0.0031492661 -0.008568552 0.011909559
0.0025618111 0.002160115 0.02092549 0.003764365 -0.0050869766 -0.004384425 -0.000115734176 -0.0063059265
-0.00023659431 0.001010416 0.00036763563 -0.0046929163 0.0012240767 0.0068643475 0.0009187546 0.0069655413
0.011261662 0.0018201622 -0.00056020165 0.00029957975 0.00025097092 -0.007237924 -0.00092163146 -0.0021813232
-0.007306788 0.0003775713 0.0002239305 -0.0075910348 -0.00017075171 -0.00020536706 -0.003481818 -0.0010550915
-0.0024171926 -0.0023015342 0.0019476551 0.0013931999 -0.0013179987 -0.0014470087 -0.0028469465 0.0010126957
-0.0003493684 0.0024609366 0.0006797038 -0.0020611724 -0.0004130027 0.0041376287 -0.00047942152 -0.0001906952
-0.00054967875 -0.00081048795 -0.0023159713 0.00055483374 -0.0036442927 -0.002568213 -0.0008494442 0.00047039104
0.00017940451 -1.6422848e-06 -0.0016411529 0.002599216 0.005004551 -0.008885961 -0.003478749 0.05576049
0.027696332 0.0032840401 0.002260814 0.0031108959 0.008318803 0.026555182 -0.0018170179 0.018218111
0.0031020546 -0.0051160674 -0.0029607436 -0.0078468565 -0.018096108 -0.008532887 0.009312467 0.0077611906
-0.011165402 0.0032463388 0.0036559654 0.003395791 0.0075633135 -0.0029139817 -0.0007107695 0.002886155
-0.00015280239 0.00094690453 0.00196569 0.0011160881 0.00068474264 0.0006738073 -0.0016731912 -0.0016474396
-0.0019895302 -0.000758676 -0.0015432831 -0.0011137644 -0.00064048014 0.0010871076 -0.00024973377 -0.0004408339
-0.00012604798 -0.00028320373 -0.0009202174 4.1578627e-05 -0.0001765092 0.0012905857 0.0021049408 0.0043765306
0.004324239 -0.001829463 -0.0011812531 0.004932724 0.0016972695 0.0048805457 0.0030553255 0.0025876255
00000000: 5196 1eba 59f5 94bb 77cb 0c3b 6301 dd39
00000010: adfc 833a 109b 64ba e917 7bba ca03 9538
00000020: ae6d f13a 1df7 143c 84e8 35ba 3d4d b738
00000030: 4807 7b3b 19f9 953a 7838 1bbb 050c 6cbb
00000040: f9d8 b7ba d902 bfba 1e5f a8ba 01f3 feba
00000050: af03 78ba de61 383b 90fb 833b 863f 703b
00000060: 3f9b 643c 4dd3 593c 6768 5f3c accb 903b
00000070: fa8e 123a 5c87 333a e218 0a3b 5fce d43a
00000080: cd6f cd3b 3f00 d53b ffe5 783b 77e6 cebb
00000090: 1de4 19bb 1215 2dbc 62eb fbbb da09 ee39
000000a0: fb9e 5a3b 90db 83bc 497f aaba a5ca 51b9
000000b0: f81d 813a 0423 75b9 9242 9a39 b966 47b8
000000c0: 91e4 85bb 6820 3a3a b812 9e38 a338 d53a
000000d0: 9c14 833b 2e76 883a 25a1 8d39 7e81 383a
000000e0: 8e71 0b3a 3c9e 3439 069a 5c3a 31bc b4b9
000000f0: 071c e2ba 9b9f 52ba cb7f 4a39 3efe 333a
00000100: e400 433a 9071 86bb 90d6 5a3a c142 193b
00000110: 39fd 873a 77ce 91bb 2217 2ebb 61da 38bb
00000120: 900d e5b9 2cb8 fabb 6480 e638 0803 bc3a
00000130: cb27 e9b9 60ff 3bba f4de 253a 422c 9c3a
00000140: a5a5 06bb f9bd 80b8 f51c 213a f0b3 2dba
00000150: 1873 6fbb 97b5 63bc be5d b23b f2fc ad39
00000160: 7c6b 8d3a 7d95 a33c 2f95 033b 4b26 f83a
00000170: 2778 f63a 2f34 633b 8d4f 893b 881a eaba
00000180: 39c1 01bb c063 6b3b 23ca 77b6 20ad c1b8
00000190: 40a4 aa3a c8e6 563a 4b9a be39 cb1c 123b
000001a0: 1557 c63a 4789 93ba 4329 e9b9 936c 40bb
000001b0: 470b 1eba c22f 34bb b087 f6bb d9ae 87bb
000001c0: 39b4 1cbb f594 41ba 1b32 1cbb 8183 f3bb
000001d0: 75cd 01bc b6f0 cdbb a4a6 3fba 5582 063a
000001e0: 08e6 81b9 4580 633a f768 533a f678 273b
000001f0: 9cde 1e3b 063d 1d3b 4a18 523b 5b55 153b
00000200: 8282 3e3a 379f 183b 78ec 323b fc10 313b
00000210: b51b 673a eb63 4e3b 1d63 0cbc 5020 433c
00000220: 0fe4 273b b790 0d3b ef6b ab3c 91b3 763b
00000230: a7b0 a6bb 39ab 8fbb 50b6 f2b8 f2a1 cebb
00000240: 4d16 78b9 ef6f 843a 38bf c039 09c7 99bb
00000250: 3371 a03a 52ee e03b 94d8 703a 323f e43b
00000260: d582 383c 8292 ee3a 7fda 12ba ea10 9d39
00000270: bf94 8339 1b2c edbb a499 71ba 88f4 0ebb
00000280: c86d efbb c3f4 c539 e3ce 6a39 37be f8bb
00000290: d00b 33b9 cd57 57b9 362f 64bb ff4a 8aba
000002a0: c369 1ebb 56d5 16bb 7648 ff3a 089c b63a
000002b0: b3c0 acba 8ea9 bdba d693 3abb 6ebc 843a
000002c0: 6f2b b7b9 aa47 213b 262e 323a bc14 07bb
000002d0: 4988 d8b9 f294 873b de5a fbb9 5af5 47b9
000002e0: 5118 10ba ed76 54ba 8dc7 17bb 4372 113a
000002f0: 16d5 6ebb 774f 28bb 3cad 5eba d19e f639
00000300: 881e 3c39 7a6c dcb5 f41b d7ba 9c57 2a3b
00000310: 37fd a33b 6c96 11bc b9fb 63bb 1d65 643d
00000320: 6be3 e23c 0d39 573b 2a2a 143b 2ce0 4b3b
00000330: 974b 083c 418a d93c 0129 eeba 263e 953c
00000340: d74b 4b3b afa4 a7bb 0909 42bb 1a90 00bc
00000350: 4a3e 94bc 86cd 0bbc 5193 183c 9651 fe3b
00000360: 17ef 36bc 87c0 543b ec98 6f3b eb8b 5e3b
00000370: acd5 f73b 80f8 3ebb ef52 3aba a525 3d3b
00000380: 9439 20b9 b039 783a ced2 003b b449 923a
00000390: 4d80 333a 71a2 303a fb4e dbba e6ee d7ba
000003a0: c762 02bb e2e1 46ba fd47 caba bbfb 91ba
000003b0: e5e5 27ba 477d 8e3a b3ee 82b9 b91f e7b9
000003c0: bf2b 04b9 f67a 94b9 bf3a 71ba b664 2e38
000003d0: 5415 39b9 df28 a93a 0cf3 093b 0069 8f3b
000003e0: 59b2 8d3b 98ca efba 47d4 9aba b0a2 a13b
000003f0: ea76 de3a fcec 9f3b db3b 483b 2795 293b

exp_avg_sq f4 [64, 7]
0.010530375 0.055206817 0.02913446 0.006810772 0.0052858116 0.0054950584 0.003591684 0.010511692
0.00358533 0.02337195 0.010915661 0.0036999756 0.012828203 0.086990885 0.2696689 0.4047855
0.5371062 0.11770257 0.10088266 0.4665463 0.08536099 0.0012726713 0.009627917 0.024919713
0.02035331 0.01646537 0.02649698 0.025739484 0.047519796 0.015729768 0.005267438 0.1510589
0.15251413 0.038902853 0.10641858 0.39839405 0.25394616 0.3727719 0.6175598 0.6839827
0.9003564 0.6931347 0.0987143 0.008901661 0.031226566 0.05380569 0.010384689 0.023491137
0.07047574 0.0006405242 0.000650895 0.0014976363 0.0018752569 0.0012360334 0.0014062768 0.0009746052
0.010039008 0.0009787673 0.11156416 0.0004696123 0.03579986 0.030967727 0.00028097475 0.00095104193
0.0011887348 0.0019204715 0.00012592533 0.0004573676 0.0011666248 0.000645485 0.0034356215 0.0017097386
0.00362046 0.0012602463 0.00034135257 0.005332387 0.0056795683 0.009477341 0.0037359246 0.009703314
0.056961365 0.053859536 0.07286534 0.035339255 0.004473959 0.014742509 0.014179874 0.0024616024
0.0004914091 0.02545583 0.0031001687 0.00037907515 0.0010034634 0.001551238 0.0005557374 6.382503e-05
0.0011339611 0.002940248 0.0015576642 0.0011412401 0.008486534 0.011546155 0.033426575 0.0394466
0.029993353 0.011171676 0.00833378 0.006591508 0.0072774235 0.06653503 0.14066434 0.045951787
0.41472453 0.091346316 0.028227339 0.1767339 0.093361445 0.06652366 0.029359456 0.0013458377
0.0014116903 0.0028599221 0.007907099 0.0051312414 0.0026697489 0.0066604363 0.044670716 0.041423533
0.015256302 0.15073119 0.35079604 0.18970402 0.026087848 0.033389468 0.027010871 0.029114751
0.014110649 0.007942248 0.031299613 0.0055517326 0.03949525 0.017727802 0.035169728 0.12750389
0.07722093 0.0068479087 0.11624952 0.0014400491 0.0065306434 0.001963579 0.012961499 0.041555718
0.014877819 0.0020260315 0.00028587016 0.0014555935 0.0011793298 0.0060574706 0.006930973 0.009472377
0.00907675 0.002563841 0.0006438645 0.016205382 0.0010388212 0.0004298946 0.00082231185 0.013512567
0.011679583 0.017053584 0.0110801235 0.020458661 0.029117491 0.027091151 0.052565753 0.00043564852
0.00022892082 0.00038245152 0.0004018775 0.00033930226 0.0022215652 0.0015162966 0.009320007 0.0057310048
0.013183657 0.022996394 0.014979543 0.059553474 0.102066584 0.28451115 0.20918205 0.36588597
0.40958604 0.32185143 0.49322933 0.4636122 0.017210614 0.025198393 0.0018214679 0.042007882
0.021959515 0.0034428977 0.016332773 0.0022247785 0.030072087 0.05086783 0.08883478 0.009106594
0.09466629 0.0130118895 0.4499099 0.46973917 0.30357796 0.71506804 0.9233797 0.4671518
0.3415757 0.27665335 0.21335535 0.11111465 0.24711259 0.34109578 0.26038414 0.707942
0.00012282887 6.874551e-05 0.00015288232 0.00041510075 0.0009532863 0.00014923842 0.00087789685 0.0009818155
0.0028459898 0.0032923135 0.0006980824 0.0014041861 0.0014411559 0.00021960323 0.0007295554 0.0006985337
0.00015469834 0.0040985723 0.007549162 0.0039608628 0.0005101978 0.41894954 0.30499858 0.54751474
0.725429 0.71037084 0.93635595 0.386509 2.5587475 3.688777 7.2987733 10.683342
00000000: 9887 2c3c 8b20 623d 64ab ee3c e62c df3b
00000010: 9a34 ad3b e40f b43b 7562 6b3b 3b39 2c3c
00000020: dbf7 6a3b 8876 bf3c 9ad7 323c 4a7b 723b
00000030: 622d 523c 4728 b23d 0b12 8a3e 0c40 cf3e
00000040: cb7f 093f 0c0e f13d 919b ce3d 28df ee3e
00000050: bed1 ae3d c3cf a63a 69be 1d3c 6d24 cc3c
00000060: fcbb a63c 62e2 863c 3210 d93c 9cdb d23c
00000070: 1ea4 423d b7db 803c 799a ac3b 2faf 1a3e
00000080: aa2c 1c3e 9958 1f3d fcf1 d93d 4efa cb3e
00000090: 3b05 823e f5db be3e 6618 1e3f 7d19 2f3f
000000a0: c27d 663f 4771 313f b92a ca3d 46d8 113c
000000b0: dbce ff3c 5b63 5c3d 8b24 2a3c 7c70 c03c
000000c0: 9655 903d dae8 273a d3a0 2a3a 564c c43a
000000d0: 2ecb f53a 6602 a23a d252 b83a a67c 7f3a
000000e0: a77a 243c fb49 803a c07b e43d 4c36 f639
000000f0: e0a2 123d 08b0 fd3c cb4f 9339 584f 793a
00000100: 52cf 9b3a 55b8 fb3a d30a 0439 d7ca ef39
00000110: 6fe9 983a c435 293a 2a28 613b 4f19 e03a
00000120: 3d45 6d3b d92e a53a 91f7 b239 4ebb ae3b
00000130: ac1b ba3b d946 1b3c 6ad6 743b a6fa 1e3c
00000140: 5250 693d d19b 5c3d 6c3a 953d e5bf 103d
00000150: 4a9a 923b 918a 713c b452 683c d652 213b
00000160: e8d1 003a bf88 d03c 332c 4b3b 9bbe c639
00000170: a586 833a e952 cb3a e8ae 113a cdd9 8538
00000180: 6ca1 943a 2db1 403b 8a2a cc3a aa95 953a
00000190: 1a0b 0b3c 162c 3d3c 4eea 083d c292 213d
000001a0: 9fb4 f53c 6809 373c 688a 083c 94fd d73b
000001b0: 7477 ee3b 8543 883d 500a 103e f137 3c3d
000001c0: c656 d43e c713 bb3d 053d e73c bbf9 343e
000001d0: 4934 bf3d 8f3d 883d 3e83 f03c d266 b03a
000001e0: 7708 b93a 886d 3b3b c78c 013c f923 a83b
000001f0: f4f6 2e3b ca3f da3b a4f8 363d b9ab 293d
00000200: 92f5 793c 4759 1a3e 8a9b b33e c541 423e
00000210: 2fb6 d53c 65c3 083d e745 dd3c 0f82 ee3c
00000220: 5a30 673c 3420 023c 0634 003d 4feb b53b
00000230: c5c5 213d e539 913c 220e 103d 6190 023e
00000240: 0226 9e3d 6c64 e03b 3a14 ee3d 08c0 bc3a
00000250: 02ff d53b 64af 003b 785c 543c 5436 2a3d
00000260: 19c2 733c 2bc7 043b d8e0 9539 9dc9 be3a
00000270: be93 9a3a bf7d c63b 371d e33b 0732 1b3c
00000280: a6b6 143c 1d06 283b 04c9 283a 26c1 843c
00000290: 0e29 883a 7a63 e139 6a90 573a d063 5d3c
000002a0: b95b 3f3c f5b3 8b3c 6889 353c ec98 a73c
000002b0: ce87 ee3c 43ee dd3c 304f 573d c167 e439
000002c0: 770a 7039 c683 c839 16b3 d239 61e4 b139
000002d0: ae97 113b 79be c63a f1b2 183c 27cb bb3b
000002e0: 4400 583c ef62 bc3c c26c 753c 58ee 733d
000002f0: 4908 d13d 72ab 913e d233 563e 6855 bb3e
00000300: 43b5 d13e b6c9 a43e 8e88 fc3e 945e ed3e
00000310: 46fd 8c3c dc6c ce3c 52be ee3a 7510 2c3d
00000320: 71e4 b33c 3da2 613b 4fcc 853c 97cd 113b
00000330: bd59 f63c c95a 503d 02ef b53d d333 153c
00000340: 66e0 c13d d22f 553c 975a e63e a781 f03e
00000350: 926e 9b3e b30e 373f 9d62 6c3f 852e ef3e
00000360: 03e3 ae3e 82a5 8d3e d379 5a3e 1490 e33d
00000370: 150b 7d3e 1ba4 ae3e 1251 853e b03b 353f
00000380: a0cb 0039 772b 9038 094f 2039 e1a1 d939
00000390: f6e5 793a e27c 1c39 a922 663a 43b0 803a
000003a0: c983 3a3b dbc3 573b 84ff 363a ab0c b83a
000003b0: 2be5 bc3a 4b45 6639 a23f 3f3a ce1d 373a
000003c0: 8536 2239 514d 863b f65e f73b 20ca 813b
000003d0: cbbe 053a 8e80 d63e c628 9c3e ed29 0c3f
000003e0: b7b5 393f ddda 353f 06b5 6f3f 82e4 c53e
000003f0: 85c2 2340 ec14 6c40 8d8f e940 f8ee 2a41
