model_theta.pth.tar (torch, 181380 bytes, 37 tensors)

conv1.bias f4 [64]
00000000: 99f3 fa3d 7e88 cf3d 94b0 61bd 723e d33d
00000010: 95bb 97bd b8bc d73d a11f bfbd 438c ef3d
00000020: 932a 053e 4a99 bd3d 2c33 dcbd 5e96 e3ba
00000030: f3fa a03d 7c23 f53d 5a28 043e c6b3 703e
00000040: dce0 57be 805c 423d 7562 013e 3235 4e3d
00000050: 6d05 6bbd 18a1 f23d 1120 ec3d ac93 e43d
00000060: 6431 273e 2595 fe3c b438 0f3e 4eda dc3d
00000070: d4dc c8bd 017d be3d c14c f0bb 7eee d33b
00000080: 0479 b73d 7cdb 003e 20d9 953d 1f28 483e
00000090: 8200 ed3d 4afa fc3c af53 6c3d 6685 a43d
000000a0: 74e0 b13d 9292 cf3d 9a6b 3a3e d66a a83d
000000b0: 3270 9c3d 5226 94bd 27d3 953d ec75 823d
000000c0: 86fc dc3d 7530 863e 94a9 1c3e 74b2 a93d
000000d0: 3242 083e 91d3 243e 28cf ef3c 5852 fabd
000000e0: 5786 903c 4371 89be 0758 68be 78a7 7ebd
000000f0: cc81 8e3b cd35 053e 6573 1dbe a66d 1438
0.12253494 0.10133456 -0.05510004 0.10314645 -0.07408825 0.10534042 -0.093322046 0.11696675
0.13004522 0.09257753 -0.10751948 -0.0017363538 0.07860365 0.11969659 0.12906018 0.23506078
-0.21081871 0.047451496 0.12635215 0.0503437 -0.05737822 0.118471324 0.11529554 0.11160979
0.16327435 0.031076977 0.13986474 0.10783826 -0.098077446 0.09301186 -0.0073333685 0.0064676395
0.08958629 0.12583727 0.07316804 0.19546555 0.115723625 0.030881066 0.057696994 0.08033256
0.08685389 0.10135378 0.18205109 0.08223502 0.07638587 -0.072338715 0.07315665 0.06370148
0.107903525 0.26208845 0.15299064 0.0828599 0.13306502 0.16096331 0.029273584 -0.12222737
0.017642183 -0.26844224 -0.2268983 -0.06217143 0.004348969 0.13008805 -0.15376051 3.5388068e-05

conv1.lin.weight f4 [64, 7]
00000000: de11 a1bb f2eb c23d c050 90be ba7f d7bd
00000010: e825 8cbd ccf1 94be a374 4f3d ebc6 9d3e
00000020: 07a4 3b3e c68b 96bd a6d9 03be bba8 35be
00000030: afe6 923e 6e2f 463e 6a0d 47be 75a3 fb3d
00000040: 55de 90bd 88d3 e5bd 9052 073e 89ed 503e
00000050: 2459 1fbe b87e 9ebe 6e62 b0bc aeac 9e3d
00000060: b374 5abe a0fc 873e 7c17 603e 9024 33bd
00000070: 63ef 96be ab4c 1b3e 5532 a93d 394d 313d
00000080: a2c5 e8bd 975e 033e 0de2 dd3d 29a2 7bbe
00000090: 1bb0 823d 22ca 2a3e 043d 05be e55e 963e
000000a0: 0768 6f3c b93f 3a3e c40a 37be ace0 073e
000000b0: 6700 d2bd 811e 27be 3dc8 f93d ea0e 4b3e
000000c0: 3f2b e3bd ee53 493c 35da 86be 6655 8cbc
000000d0: 3b2c 26be 578c cfbc 9f8f 2c3e 8a7a 2dbd
000000e0: 3402 5abe ce8c aebc 0217 3d3d 1dc4 e43b
000000f0: f74f 8b3e 835b c93d dca3 d73d 15c1 723e
00000100: fce2 33be 9818 83be 659c 403d 308c 10bd
00000110: a316 5dbe 537b 5fbe 2c39 d23c 718c 323e
00000120: 6d13 3f3e 8993 3c3e cc70 263e e941 71bc
00000130: 3c25 6d3d c23f f8bd 1aed 57bd a07c 05be
00000140: 10f0 0f3c e737 66bd 6e39 933e 7155 74be
00000150: 215e d4bb 60df d53d 3fa2 633a 464c 2bbd
00000160: 6264 7c3e 80d5 f13d a7e7 b5bd 8ed7 9d3e
00000170: db47 f4bd eb70 1fbd 0cc1 593e d4b8 14be
00000180: e606 7b3e 1020 1c3e 4aea 6bbd 0ae5 3f3e
00000190: 2b2d 9b3e 3c86 65bd 4ac8 853d a446 0cbe
000001a0: 9a59 133e 7d41 11bd 34f1 033d 4a3b f83d
000001b0: 2dfc d73d ba64 c3bd 55e5 3a3e d253 9d3e
000001c0: 4498 293e a6ca 53bd 068e 0c3e 557a c7bd
000001d0: 322e 76be 67ed 353c 9f08 b6bd 87e7 4dbe
000001e0: 3408 bb3d ee9d 3cbe 9a8d 7ebe 6494 8bbe
000001f0: a9e3 5abc 2e24 32be fbc7 69be 39a5 793e
00000200: 6372 8e3e 79df 173e 055e f63c 2044 41be
00000210: 6ffe 953e 6f52 a1bb 6274 993e 0152 19be
00000220: 16cc 213e fbf1 dfbd 545f d8bd 2e41 8d3e
00000230: 7e2e c23d e4f7 8dbd c02d 1abe 204f 89be
00000240: cd50 6b3e e069 933e 96d0 40be 0255 8fbe
00000250: 16f8 8b3e 0453 023d d1e3 023e 894e e33d
00000260: 3310 3f3e ecfa 8c3e 3adc 093e 4e2e 4bbe
00000270: 82e7 62be 3d47 2e3e 7855 4c3e 0921 22be
00000280: beee 7cbe 0f60 d7bd e190 ca3d c272 6ebe
00000290: bda8 803e 5ecc 6b3e 8e26 783e 1755 563e
000002a0: af59 673e d405 c6bd ccfb 8cbe e694 23be
000002b0: 58ca 873d 765b 7e3d 3577 16be 47e1 e8bd
000002c0: b4a1 f63d 3026 7c3d 0f74 a3bd 8eb8 6f3e
000002d0: 2ef0 773d 2ae8 7cbd 576c 613d e991 3a3d
000002e0: b5d6 efbd 64c8 363e c94d 763e 88d1 df3c
000002f0: e787 c1bc d288 80be f357 0f3e 5bab 183e
00000300: cb33 d83d b0ac 9cbd 97c8 c1bd 4a25 153e
00000310: 6fac 8f3d 8158 aabc 98f1 273e cd12 813e
00000320: 6415 8fbe a01c 12bc 3682 143e eb33 053e
00000330: 27b1 623e b2be 21be ecec e73d 30f8 ae3d
00000340: 566a 6f3e 853e 2a3e ba3f 113e 5246 6e3e
00000350: 6f39 893e e74b 9dbe 9cef c73b 1bc5 48bd
00000360: 4baf 4abe 761d c63d 6641 30be cda5 60be
00000370: 2c10 7abe 93e5 67be 1fee 9ebc e890 963e
00000380: 78fe 0d3d 6f90 11be 3d84 e5bd 0dd7 eabd
00000390: 6e1e e23d 1bc1 5e3e 2824 923e 8398 733e
000003a0: 1e1c 873e 7835 013e 4914 61bc 1b21 afbd
000003b0: 0664 7b3e 5529 ed3d f599 8fbe f9cc 143c
000003c0: 8f85 c9bd 9039 b3bd 5ae4 35be e722 743e
000003d0: 8169 383e 4701 2f3e 6a4a 003e 860b 053e
000003e0: 4306 5f3e 9ec8 983e 84c0 fabd 499b b4bc
000003f0: 7bb5 2b3e 4c5e 72be 4ea6 283e 5a26 61be
-0.00491546 0.09517659 -0.28186607 -0.10522409 -0.068431675 -0.29090726 0.050648343 0.30815825
0.1832429 -0.073508784 -0.12875995 -0.17740147 0.28691623 0.1935403 -0.19438711 0.12287036
-0.070736565 -0.11221987 0.13215089 0.20403112 -0.15561348 -0.30956054 -0.02153131 0.0774778
-0.2133358 0.26559925 0.21883959 -0.04373604 -0.29479513 0.15165965 0.08261553 0.043286536
-0.113658205 0.12829052 0.108341314 -0.24573578 0.06381246 0.1667867 -0.13011557 0.29369274
0.014612204 0.18188371 -0.178752 0.132693 -0.10253983 -0.1632023 0.121963955 0.19829908
-0.11092233 0.012288077 -0.26338354 -0.017130565 -0.1622781 -0.025335474 0.16851662 -0.04235319
-0.21289903 -0.021307375 0.04616452 0.0069813863 0.27209446 0.098319076 0.105293006 0.23706467
-0.17567056 -0.256047 0.04702415 -0.035289943 -0.21590666 -0.21824388 0.025662027 0.17436387
0.18659754 0.18415655 0.16253966 -0.014725187 0.057896838 -0.12121536 -0.052716352 -0.13035822
0.008785263 -0.056205656 0.28754753 -0.23860718 -0.0064809476 0.10442996 0.00086835393 -0.041820787
0.24647668 0.118083 -0.08882075 0.30828518 -0.11927768 -0.038926046 0.21265048 -0.14523631
0.2451435 0.15246606 -0.057596482 0.18739715 0.30307898 -0.05603622 0.06532343 -0.13698822
0.14389649 -0.035462845 0.03221245 0.121206835 0.105461456 -0.095406964 0.18251546 0.30728012
0.16561991 -0.051706932 0.13726053 -0.0974013 -0.2404106 0.011103964 -0.08888363 -0.20107852
0.09132424 -0.1841962 -0.24858704 -0.2726165 -0.0133599425 -0.17396614 -0.22830193 0.24379434
0.27821645 0.14831342 0.030074129 -0.18873644 0.2929568 -0.004923157 0.29971606 -0.14972688
0.15800509 -0.10934826 -0.105650574 0.2758879 0.09481524 -0.06932047 -0.15056515 -0.2681818
0.22980042 0.28791714 -0.18829569 -0.27994543 0.27337712 0.03181745 0.12782218 0.11098964
0.18658523 0.27535188 0.13462916 -0.19841883 -0.22158626 0.17019363 0.19954479 -0.15832914
-0.24700448 -0.105163686 0.09890915 -0.23285964 0.25128737 0.23027179 0.24233457 0.20930897
0.22592805 -0.096690804 -0.27535856 -0.15974769 0.06630391 0.062098943 -0.14693911 -0.11371093
0.12042561 0.061559856 -0.07981121 0.23410246 0.060531788 -0.061744846 0.05503496 0.045549307
-0.11710874 0.1784988 0.2405311 0.027321592 -0.023624374 -0.25104386 0.13998394 0.14909117
0.10556754 -0.07650125 -0.094620876 0.14565006 0.07015311 -0.020794155 0.16400754 0.25209656
-0.27946007 -0.008917958 0.14502797 0.13008086 0.22137891 -0.157954 0.11324486 0.08543432
0.23380408 0.16625412 0.14184466 0.23269013 0.2680163 -0.3072197 0.0061015617 -0.0490161
-0.19793431 0.09673588 -0.17212448 -0.21938248 -0.24420232 -0.2264617 -0.019400654 0.2940743
0.03466651 -0.14215253 -0.11206863 -0.11466799 0.1104096 0.21753351 0.2854321 0.23788647
0.2638864 0.12618053 -0.0137377465 -0.08551236 0.24549875 0.11580149 -0.28047147 0.009082072
-0.098399274 -0.087512136 -0.1776289 0.23841439 0.18008997 0.17090331 0.12528387 0.12992677
0.21779732 0.2984056 -0.12243751 -0.022046702 0.16768448 -0.23668784 0.1646969 -0.21987286

conv2.bias f4 [64]
00000000: 34b3 3e3d 3449 903d d6a5 cf3d 2593 b53d
00000010: 171f 7dbd b263 01bd 4cbf dc3d 4588 c03d
00000020: fd90 763c 5cee d93d cb34 c03d 53e8 313d
00000030: 9398 173e 2b5b bebc fb9b 023e 8c31 193e
00000040: bc57 553d eea8 f03d 5dae dd3d bab6 d73d
00000050: 1ebe ab3d 8b43 40bc 7db5 b03d e8e5 0b3e
00000060: 867a e83d 5df8 fabb 8ebc 003e 8722 c13d
00000070: 408c 2b3d 2072 8d3d 8744 7a3d 6a3b b13d
00000080: 17bf 1b3d b1fd 113e eafa 193e 69b8 e53d
00000090: 7165 0b3e dc0d 233e 6aaf cbbb 7a55 533d
000000a0: 3774 453d 1b76 ebbc 96de d03d 763d 2d3d
000000b0: 7949 133e f129 913d 3cf5 0a3e 671e eb3d
000000c0: 5623 f03d 983b 9b3d 82f9 d03d 5459 0c3e
000000d0: 0cef 0c3e 9528 2e3d 9bd2 b13d 77ea 4c3d
000000e0: 6c7d ea3d a250 e93d efa1 1a3e f73b e43d
000000f0: 0ee7 2e3d 5c41 b23d da61 8e3d 6731 2e3d
0.04655762 0.070452124 0.101390526 0.08865956 -0.061797228 -0.031589217 0.107786745 0.09400991
0.015049216 0.106411666 0.093850695 0.043434452 0.14804296 -0.023236832 0.12754814 0.14960307
0.052085623 0.11750971 0.10824273 0.10532899 0.08385871 -0.0117348535 0.08628366 0.13661921
0.113514945 -0.0076590017 0.12571928 0.09430414 0.0418818 0.06906533 0.06110051 0.086539105
0.038024034 0.14256932 0.15037122 0.11216814 0.13612916 0.15923256 -0.0062159793 0.05159519
0.048206534 -0.02874284 0.10198705 0.04229494 0.14383496 0.07088078 0.13570112 0.11480408
0.1172549 0.07579726 0.1020384 0.13705951 0.13763064 0.04251917 0.08682748 0.05002829
0.114497036 0.113923326 0.15100835 0.1114425 0.04270082 0.087038726 0.069522575 0.042527582

conv2.lin.weight f4 [64, 64]
00000000: 0184 6dbb 3658 363e 2da5 4abe 700c 00be
00000010: ee56 2b3e c57f 43bd 1829 84bd ffd6 92be
00000020: 637e 573e a41e d13d ee58 52bd 47f6 f93d
00000030: 2902 71bc 3b5c c6bd 7ab1 823d b1e6 f23d
00000040: a060 823e 4adc 41be 0a60 27bd 4c4a 203e
00000050: 664c 5d3e a175 023e fa7e 68be 20fb 28be
00000060: a7a9 1fbe 5395 26be acc3 9bbd 8612 333e
00000070: 8988 a43c 9e54 943c 64fa 3b3e df98 78bd
00000080: 890a f3bd b63e 193d 6d4f dbbd 756d 713c
00000090: 4522 d2bc 1b2a 5f3d 3678 6d3e 1ad4 2a3e
000000a0: cbdb ca3d 78b0 3fbe 1126 68be bc4a 1b3d
000000b0: e5b1 903d 1506 093d 083e 30be 216c 29be
000000c0: 086f 943b 4c0b 34be 9814 63be b610 2ebe
000000d0: 4a50 a73c 16b5 e2bd 7b08 8abe 98b6 1cbe
000000e0: 2e58 6bbd c47d 643e f0ce 933d eb08 0ebe
000000f0: ef8d 0a3e 8c28 ecbd a885 6ebe 08ce c8bd
00000100: 5b32 ba3c bf3d 29be f895 80be 0f7b 573b
00000110: 25a0 18be 2704 5cbd 75e5 13be 802e fdbd
00000120: 60d6 72be 64ad ddbc f247 9dbd 2d65 983d
00000130: d614 443c 7fbb 8fbe 04a7 2cbe 107e 053e
00000140: 3049 76bd d991 833d 29d6 03be 867f 82be
00000150: 2270 0abe b084 27bc 58c2 803b 1fe5 83be
00000160: 1f42 ddbd 0e08 89be 93e4 f7bd 3fc0 46be
00000170: 9c03 8d3d dfcd 64be a1c7 843c 1240 0f3d
00000180: b750 84bb 3d43 50be f575 f83d 0a7d babc
00000190: a61d ecbd 26e9 15be d07b de3d 0fae 28bc
000001a0: 47a5 88bd fd73 8fbe f4c8 94bd bcb9 71be
000001b0: be0d 04be b83a e0bd bbb4 43bd fe95 d23d
000001c0: 5a0b 81bd 0c4b 9c3d b3d7 353c ea87 9fbc
000001d0: a599 9dbe 3e87 84be ab89 11be 6f57 383d
000001e0: 8f73 5fbe d6dc e7bd 2c29 8fbd 58e1 543d
000001f0: 9132 a8bd 2529 8fbe 4d2c 4bbd b7fd 22bd
00000200: 1086 2a3d 7630 4c3c 0be1 90bd 973e 09be
00000210: b153 60bd 6d5e 3ebe 47a0 61be 3c68 013e
00000220: a7fe 2cbe f2d6 09bd fe12 5fbe 8215 adbd
00000230: dd19 b03d 906b 8cbe c27c 0abe 92e5 87be
00000240: 1145 723e cbb7 58bd 32d0 8bbd 1149 4dbd
00000250: ca59 d9bd 83c7 45be adf1 89bd 9861 c63d
00000260: cf2f 98bd ffbb df3d a684 33be e574 4f3d
00000270: 0889 a1bd 8816 c8bd d72c 463c 6c30 1c3e
00000280: c02c 61be 6309 73be 5735 c43d dc7a 1cbe
00000290: 1d5e 65be bc1e 44be 1a93 10be d455 41bb
000002a0: 41b0 38be 98d2 a5bd 2263 023c ed20 ebbd
000002b0: 7f79 0ebe 0521 ea3d 5961 8abd b263 62bd
000002c0: 2303 20bd 3234 8dbd 2bbf 073d fae6 3cbe
000002d0: 58d8 62bd 4408 30be 4f06 9a3d 1f50 7dbe
000002e0: c1eb 0a3d cffe abbd 92df 7a3d a502 3c3d
000002f0: ffba 39be f3f9 bcbc d1e0 bc3d ae28 04be
00000300: e389 073e 72aa 97bd 0d7c 3f3b 80d0 97bd
00000310: c667 57bb 4d68 e93d cd19 3cbc ad57 c63d
00000320: c1f7 9ebb ffe7 54be ebc3 153e 7c71 aa3d
00000330: c5dd a1bd f5ad febd 69f1 873e f94b a53d
00000340: 8abf 8b3d be32 843d 61f6 02bd 8a21 8fbd
00000350: 0358 093e 9ba5 8f3d 8fed 59be 4ab6 4a3e
00000360: 6326 0dbe 7d68 4ebc f50e eb3d 2593 96bd
00000370: 2d3f 4c3d abe0 673e a562 dfbd ab26 7ebe
00000380: 61e5 b03d a02f 38be bb27 05be bc97 e73c
00000390: b2eb febd 2ad5 353e c1f4 ed3d 68f1 25be
000003a0: 69c7 533e f2b0 b13a fdce fabc e38d 053e
000003b0: f9ad 2a3d def5 443e fbe3 edbd 088f 88be
000003c0: c734 183c 7a74 cbbd 878c 0cbd 9d3f 36bd
000003d0: 6565 7a3c 7b0a 763e a27b db3b db0d f93d
000003e0: 8568 3bbe d3ff dc3b 83de 60bd 23ae 97bd
000003f0: 203c 183e 08d9 e93d 99f5 bbbd 6049 ae3d
-0.003624201 0.17807087 -0.19789572 -0.12504745 0.1673238 -0.047729272 -0.064531505 -0.28679654
0.21044306 0.10210922 -0.05135434 0.12205177 -0.014709988 -0.0968556 0.06381507 0.11860407
0.25464344 -0.1893169 -0.040863074 0.15653342 0.21611175 0.12740184 -0.22704688 -0.16502047
-0.15592061 -0.162679 -0.07605681 0.17487535 0.020084636 0.018106755 0.18357235 -0.060692664
-0.11867244 0.03741332 -0.10708509 0.014735569 -0.025651107 0.054483514 0.23190388 0.16682473
0.099052034 -0.18719661 -0.22670771 0.03791307 0.07065181 0.033453066 -0.17211163 -0.16545154
0.0045298375 -0.17582434 -0.22175825 -0.16998562 0.020424027 -0.11069696 -0.26959595 -0.15304029
-0.05745714 0.22313601 0.072172046 -0.1387059 0.13530706 -0.11531171 -0.23293173 -0.09804922
0.02272909 -0.1652746 -0.25114417 0.0032879745 -0.1490484 -0.053714897 -0.14443 -0.12362385
-0.2371459 -0.027060218 -0.07679738 0.07441173 0.011967858 -0.28072736 -0.16860586 0.1303637
-0.06012839 0.064243026 -0.12874664 -0.25487918 -0.13519338 -0.010224506 0.0039294176 -0.25760743
-0.10803627 -0.26763958 -0.12104144 -0.19409274 0.06885454 -0.22344159 0.016208472 0.03497321
-0.0040379423 -0.2033815 0.121318735 -0.022764701 -0.115290925 -0.1463972 0.10863459 -0.010295405
-0.06672149 -0.2801818 -0.07264891 -0.23606008 -0.12895867 -0.109487 -0.04777978 0.10282515
-0.06300993 0.076315016 0.01109879 -0.019473989 -0.30781284 -0.25884432 -0.14212672 0.04500526
-0.21821426 -0.11321418 -0.06990275 0.051972717 -0.0821277 -0.27961078 -0.049602795 -0.039792743
0.04163176 0.012462726 -0.070741735 -0.13402782 -0.054767314 -0.18590708 -0.22033797 0.12637419
-0.16894017 -0.033652253 -0.21784589 -0.08451368 0.08598683 -0.27425814 -0.13524154 -0.26542336
0.23659159 -0.052909654 -0.068268195 -0.05011851 -0.10612829 -0.19314389 -0.06735549 0.09686583
-0.07430994 0.10924529 -0.1753107 0.05064859 -0.07887465 -0.097699225 0.012095652 0.15252846
-0.21989727 -0.2373405 0.09580486 -0.15281242 -0.22399183 -0.19152349 -0.14118615 -0.002950062
-0.18035986 -0.08096808 0.007958205 -0.114808895 -0.13913535 0.11432079 -0.06756849 -0.055270858
-0.03906549 -0.06894721 0.033141296 -0.18447486 -0.055382103 -0.17190653 0.075207345 -0.24737595
0.03391624 -0.0839821 0.06124837 0.04590096 -0.1813774 -0.023068404 0.09222568 -0.12906143
0.13236193 -0.07405557 0.0029218227 -0.07412815 -0.003286825 0.11396847 -0.011480761 0.096846916
-0.004851312 -0.20791624 0.14625518 0.08322427 -0.07903627 -0.124355234 0.2655137 0.08071131
0.068236426 0.06454991 -0.031973246 -0.06988819 0.1341248 0.070140086 -0.21282028 0.197961
-0.13784175 -0.012598154 0.11477462 -0.07352284 0.049864937 0.22644298 -0.10907487 -0.24819438
0.086375006 -0.17986917 -0.13003437 0.028270595 -0.12447299 0.17757097 0.11618949 -0.1620537
0.20681538 0.0013556762 -0.030616278 0.13042407 0.04166982 0.19234416 -0.116157494 -0.26671624
0.009289927 -0.099343255 -0.034313705 -0.04449426 0.015282963 0.24027435 0.006698088 0.12160846
-0.1830159 0.006744364 -0.054899704 -0.07406261 0.14866686 0.114183486 -0.091777034 0.08510089

bn1.weight f4 [64]
00000000: 7879 823f 0142 7e3f 8906 813f 8111 863f
00000010: 5031 873f ba66 813f 4c77 8d3f 2de4 8c3f
00000020: c0c4 833f ea34 773f f5ea 833f 0058 7e3f
00000030: cc4f 823f a693 7f3f 8c3a 843f af1c 813f
00000040: c80c 8e3f 6923 803f 4ed6 813f e321 753f
00000050: bf52 833f 4d42 813f 5de0 8d3f b19d 833f
00000060: be61 833f 290e 823f dee9 823f 058d 833f
00000070: 9514 803f bc0a 833f 01b3 833f 4bd2 7f3f
00000080: 31fc 803f 24bd 843f 451a 863f 7b2b 833f
00000090: 2f28 813f 2c88 7d3f 95b0 813f fa85 7f3f
000000a0: 68d6 853f 9fe6 813f c367 8d3f cae9 783f
000000b0: 3b8c 833f 5e0d 823f 2874 8a3f 1f13 803f
000000c0: 04b1 803f 6b21 813f 57e6 873f ac7e 833f
000000d0: ae34 7c3f 9c70 833f aee7 8a3f 6748 823f
000000e0: d126 883f b6c1 8d3f f39a 973f bea6 7e3f
000000f0: e87b 773f b856 803f 3389 883f 60b7 843f
1.0193319 0.99319464 1.0080119 1.0474092 1.0561924 1.0109475 1.1052032 1.1007134
1.0294418 0.96565115 1.0306078 0.9935303 1.0180602 0.9983467 1.0330367 1.0086879
1.109765 1.0010806 1.0143526 0.9575483 1.0259627 1.0098358 1.1084095 1.0282499
1.0264204 1.0160571 1.0227621 1.0277411 1.0006281 1.0237651 1.0289003 0.99930257
1.0076963 1.0370221 1.0476767 1.0247644 1.0090388 0.99035907 1.0132014 0.99813807
1.0456057 1.0148505 1.104729 0.97231734 1.027717 1.0160329 1.0816698 1.0005835
1.0054021 1.0088323 1.0617169 1.0273032 0.9851788 1.0268741 1.0851953 1.0178345
1.0636846 1.1074741 1.1844162 0.9947318 0.9667344 1.0026464 1.066687 1.0368462

bn1.bias f4 [64]
00000000: 6bdd 62be 0978 243e be5f 233e 9cbe 3f3e
00000010: fb39 543e 21e7 293e d0de 713e dc81 80be
00000020: 9768 2e3e 4abf 83be fb18 3c3e f515 043e
00000030: 8b92 2b3e 6e47 063e f1e9 3e3e 8beb 1a3e
00000040: 145f 253e 8032 7abe cd14 063e 995f 0e3e
00000050: 963b 463e d8d0 213e d2e6 80be ffe0 2c3e
00000060: 14ad 84be 2bd0 373e 65ed 463e 44b1 423e
00000070: c064 c03d e056 2b3e 13fb 2d3e ffe4 21be
00000080: 3164 2a3e 2d16 353e a85f 5d3e f5f6 293e
00000090: 8f5c fe3d 6b1c 2a3e bdf2 353e f5e8 1e3e
000000a0: 250c 423e 9fb2 353e d6b5 75be 93b6 0c3e
000000b0: 2b73 473e 0493 443e f440 72be 43bf 49be
000000c0: 3834 463e f3c9 433e 723b 82be f7a8 1a3e
000000d0: 23a0 ea3d 010d 123e c4e4 00be 7d46 3c3e
000000e0: 7eda 08be 28bf 6a3e 7f2a 6e3e 11b3 343e
000000f0: fd88 dd3d 898a ff3d ddc8 143d a8a4 58be
-0.22154777 0.16061415 0.15954491 0.18725055 0.20725243 0.16592075 0.23620152 -0.25099075
0.17032085 -0.2573188 0.18368904 0.12899001 0.1675512 0.13113186 0.18643929 0.15128915
0.1614955 -0.24433327 0.13093872 0.13903655 0.19358668 0.15802324 -0.25176102 0.16882704
-0.25913298 0.17950504 0.19426496 0.19012934 0.093942165 0.16732359 0.16990308 -0.15810011
0.16639782 0.1768424 0.21618521 0.16598113 0.12419998 0.16612403 0.17768379 0.15518554
0.18949945 0.1774392 -0.23995146 0.13741522 0.19477527 0.19196707 -0.2365759 -0.19701867
0.19355857 0.19120006 -0.25435978 0.15103517 0.11456325 0.14262773 -0.12587267 0.18386264
-0.13364598 0.22924483 0.23258398 0.17646433 0.10817144 0.12477595 0.03632437 -0.21156561

bn1.running_mean f4 [64]
00000000: 0ce3 473d e1a7 3841 a497 bb3f 60dd 5f40
00000010: 44f5 8c40 0b20 1641 4d7e 903f 3412 823e
00000020: 1e4b 0941 0eb6 323d eb4c 7541 8880 1c3f
00000030: 2865 de40 e677 4e41 0b79 0d41 33d4 6b41
00000040: 7f36 6f3e 4cce 1a3c 40bd 4e41 0155 0141
00000050: 1d36 ea3f b79b 8e41 d867 b53e e74e 8b41
00000060: b7c7 393e 9017 9c40 dc89 0e41 c481 7540
00000070: e96e dc40 d8eb 8641 15fd e93f f436 fe3e
00000080: 0c0d 0d41 42a3 8841 5af8 f33f b915 6f41
00000090: 8b42 2b41 8c39 3c41 42e5 3b40 909c 2f41
000000a0: 46a5 0041 f06b 9c41 428c 273e db90 0541
000000b0: baad 0941 7101 4840 429a cb3d 1bb7 383e
000000c0: 2ec1 6d41 ed9f 6c41 37db 733d 3619 5341
000000d0: 802a 8641 f24e 3441 36cb 8f3f cba8 b040
000000e0: 2085 283e fb47 833e ba04 2f3f a033 2e40
000000f0: 641e 2e40 0d60 5a41 5dd1 f23d ac34 a03f
0.048800513 11.540986 1.4655652 3.4978867 4.4049397 9.382823 1.1288544 0.25404513
8.580839 0.043630652 15.331279 0.61133623 6.949848 12.904272 8.8420515 14.739306
0.23360632 0.009448599 12.921204 8.083253 1.8297764 17.826033 0.3543079 17.413527
0.18142591 4.8778763 8.908657 3.8360453 6.888539 16.865158 1.828036 0.496513
8.815685 17.079716 1.9060166 14.942803 10.703746 11.76405 2.9358678 10.975723
8.04035 19.552704 0.16362098 8.347865 8.604914 3.125088 0.09941532 0.18038599
14.859663 14.789044 0.05953523 13.193655 16.770752 11.269274 1.123389 5.5206046
0.16457033 0.25640854 0.6836659 2.721901 2.720605 13.64845 0.11856339 1.2516074

bn1.running_var f4 [64]
00000000: 3705 573d f70c 4244 b994 b741 cbba b542
00000010: b1b0 0143 aa85 0144 d4f6 6341 a395 933f
00000020: be9b c443 4eea ec3d f788 ad44 6082 5d41
00000030: b795 9543 9bb4 6044 610f 0b44 e9e0 8544
00000040: 8184 a240 f38c 033c 89df 7f44 bdd5 d243
00000050: 190b 2942 6223 c644 b57a 4640 75d8 bd44
00000060: f084 623f 074b 2943 bd05 ea43 75b3 db42
00000070: d31f a243 6cbe b544 a3b5 bd42 9295 9840
00000080: 07ee d643 bd01 cc44 4772 1942 f296 b244
00000090: 58a4 2244 2361 4044 1894 1243 c8e2 1c44
000000a0: a98f e443 a40e f644 7442 883f 4519 ef43
000000b0: cbf5 d243 2a18 d642 2da8 f63e 01bc be3f
000000c0: 79d1 da44 f511 8944 b3c0 063e cc6b 7644
000000d0: 6b9b c344 8792 1c44 97ed df41 273f 6d43
000000e0: a6a5 573f 6e30 9240 e50a 0e41 07ed 9e42
000000f0: 7e73 7b42 c801 6d44 a420 543f 1768 5a42
0.052495208 776.2026 22.947618 90.86483 129.6902 518.0885 14.247761 1.153004
393.21674 0.115681276 1388.2802 13.84433 299.16965 898.82196 556.2403 1071.0284
5.078675 0.00802921 1023.49274 421.66983 42.260838 1585.1057 3.1012394 1518.7643
0.88484097 169.29308 468.04483 109.8505 324.24863 1453.9507 94.85476 4.768258
429.8596 1632.0543 38.3616 1428.717 650.5679 769.51776 146.57849 627.54346
457.12234 1968.4575 1.064528 478.19742 421.92026 107.047195 0.48175183 1.4901124
1750.546 1096.5612 0.13159446 985.6843 1564.8568 626.2895 27.99101 237.24669
0.84237134 4.568412 8.87766 79.462944 62.862785 948.02783 0.82862306 54.60165

bn2.weight f4 [64]
00000000: c5af 863f 5886 953f 6aaa 983f 81cc 803f
00000010: 40ab 813f ddec 873f 9993 863f c2bf 823f
00000020: ecd4 823f 78e6 823f ad93 803f a68d 823f
00000030: 537c 833f 8ad0 853f 9baa 853f ec02 863f
00000040: af89 803f ea4a 803f d313 813f dc61 843f
00000050: e197 803f 91c7 803f 4d19 853f 4689 893f
00000060: 1884 8a3f 6af9 7d3f a21b 813f 8f8c 963f
00000070: 354e 823f 9459 7e3f 93e0 963f 368c 953f
00000080: f1c9 8e3f 1e6e 823f b341 853f 0f40 853f
00000090: fc8b 823f c704 853f 2b70 843f 2a5c 833f
000000a0: 4799 833f b63e 863f 62cc 7b3f c665 863f
000000b0: 349f 873f 2cd2 8a3f a3d5 853f d4a9 873f
000000c0: 6a29 833f 1f4d 843f 9ee7 933f 292d 873f
000000d0: 1a3e 803f 478c 803f e6f3 933f 4f5b 843f
000000e0: 5dc4 843f 2f73 813f e003 863f 6d42 853f
000000f0: 2cc6 813f 7202 943f d4cd 813f ff3e 843f
1.0522391 1.1681623 1.1927006 1.006241 1.0130386 1.061916 1.0513793 1.021477
1.0221229 1.0226583 1.0045067 1.0199478 1.0272316 1.0454266 1.044269 1.0469642
1.0042018 1.0022862 1.0084175 1.0342364 1.004635 1.0060903 1.0398346 1.0745018
1.0821562 0.992087 1.0086558 1.1761645 1.0180117 0.99355435 1.1787285 1.1683414
1.1155378 1.0189855 1.0410675 1.0410174 1.019897 1.0392083 1.0346731 1.0262501
1.0281152 1.0487888 0.9835874 1.0499809 1.059546 1.0845389 1.0455822 1.0598702
1.0247014 1.0336035 1.1555059 1.0560657 1.0018952 1.0042809 1.1558807 1.0340365
1.0372425 1.0113276 1.0469933 1.0410897 1.0138602 1.1563246 1.0140939 1.0331725

bn2.bias f4 [64]
00000000: 839c 523e 7716 83be 1166 86be 133c 1a3e
00000010: b88e 5d3e 1209 823e 3724 393e 05c0 3f3e
00000020: 8288 473e bee2 463e 1373 323e 717a 5b3e
00000030: 1e04 363e e1d9 2d3e 2364 4e3e c701 513e
00000040: 99a0 0b3e 3d8a 173e ff74 223e 6f90 2d3e
00000050: aa56 2a3e 580b 133e 949f 3c3e 0f83 5d3e
00000060: 1c8a 7e3e 7b63 063e 3e5f 3b3e 1360 7fbe
00000070: 02b3 243e 5a77 2b3e 7592 86be ab69 83be
00000080: 3ba7 73be 8cbb 313e 6740 363e 9f83 503e
00000090: 3059 3e3e 7a8f 4e3e 8a16 303e a3a4 5f3e
000000a0: 670c 703e 0dc4 1e3e d6ab 3c3e 8cbc 6a3e
000000b0: 7029 463e 67b5 663e 4afa 573e c5e2 413e
000000c0: 6c4e 4e3e 5058 403e 901b 8ebe 6e02 4b3e
000000d0: 83e7 393e f649 40be fa65 77be d09a 513e
000000e0: bea2 2a3e 974c f93d 8247 463e 1d84 4a3e
000000f0: 6e93 353e 49c1 80be ba16 1f3e f89a 3e3e
0.20567517 -0.25603077 -0.26249745 0.15061979 0.21636474 0.25397545 0.18080221 0.18725593
0.19485667 0.19422433 0.1742671 0.21433426 0.17775008 0.16977645 0.20155387 0.20410834
0.13635482 0.14798827 0.15864943 0.16949628 0.16634622 0.14359796 0.18420249 0.21632026
0.24857372 0.13123886 0.18298051 -0.24938993 0.16083911 0.16744748 -0.26283613 -0.25666556
-0.23794262 0.173567 0.17798005 0.2036271 0.1858871 0.2017192 0.17196098 0.21840148
0.23442231 0.15504475 0.18424925 0.22923487 0.19351745 0.22530137 0.21091571 0.18934162
0.20147103 0.18783689 -0.27755404 0.19825146 0.18154721 -0.18778214 -0.24159995 0.20469213
0.16663644 0.121728115 0.19363216 0.1977696 0.17732021 -0.25147465 0.15536013 0.18613803

bn2.running_mean f4 [64]
00000000: eedc 583f b33a 383f ea58 203f f07f 373f
00000010: b09e 893e fd0e e53e 363d 453f e1a1 033f
00000020: acf1 ab3e 7c10 483f 9213 0b3f 907b 0b3f
00000030: 196f 2a3f fc4b ab3e 54c8 2f3f a524 2d3f
00000040: 62b2 bb3e b855 2e3f c2b4 123f 1a6b 533f
00000050: 7fa6 043f b7f1 c23e 8db3 f53e 1e7f 4e3f
00000060: 46c2 513f 667a 783e a6d5 063f 1e28 fc3e
00000070: 5c95 123f 23ff da3e 1815 133f b225 2b3f
00000080: 8161 f13e e8d3 723f 7857 2b3f 9c5f 283f
00000090: 58b6 183f 2490 873f 996f bc3e 54aa 2a3f
000000a0: a4a1 ac3e c2c9 a93e ce82 133f f56b 2b3f
000000b0: f441 383f 84b7 143f 0b7b 333f cec2 6a3f
000000c0: c1d1 743f 7a02 f73e 74b5 863e 7552 6b3f
000000d0: e66c 173f ea28 a23e 39f5 053f ac60 073f
000000e0: ac2e 5d3f cda2 3e3f 3ece 4e3f 775d 463f
000000f0: 38d3 fb3e 91a1 063f fe2b 1d3f 8883 e43e
0.8471211 0.7196457 0.6263567 0.7167959 0.2687888 0.44737998 0.77046525 0.5141888
0.33582819 0.78150153 0.54326737 0.54485416 0.6657577 0.3345641 0.6866505 0.6763404
0.36659533 0.68099546 0.57307065 0.825853 0.5181655 0.3807504 0.4798855 0.80662715
0.8193706 0.24265441 0.5266975 0.49249357 0.57259154 0.4277278 0.5745406 0.66854393
0.47144702 0.94854593 0.6693034 0.6577089 0.59653234 1.0590863 0.36803892 0.6666615
0.33717072 0.33161741 0.5762147 0.66961604 0.71975636 0.5809252 0.70109624 0.917035
0.9563256 0.48244077 0.26310313 0.91922694 0.5915054 0.3167184 0.52327305 0.52881885
0.8639934 0.74467164 0.8078345 0.77486366 0.49184585 0.5259028 0.6139525 0.446316

bn2.running_var f4 [64]
00000000: ae80 843f 38cb d33e 420e a53e b74d 3940
00000010: c204 4f3f 8366 853f 7d66 763f 0386 903f
00000020: fd56 b13f f318 943f 5380 743f 22ec 963f
00000030: 4d66 e83f b9f8 023f 64b3 ac3f c173 523f
00000040: 67d2 b53f 165c 7540 185b 3240 8c2b 9c3f
00000050: 874d ee3f 5d62 983f 38f0 c63f 2ad2 a93f
00000060: 657d 9e3f d5b5 c53e 8b4e cf3f 36f3 6c3e
00000070: 2b23 cc3f b293 613f d2e8 953e 8b66 b13e
00000080: d20f 453e 0077 b640 f333 1340 e3a7 723f
00000090: ac3e bb3f 0e45 5640 3e05 663f 5bd7 313f
000000a0: a326 663f d9f4 7d3f 1617 9f3f 822d 433f
000000b0: de0d e03f b021 ab3f f630 a73f 41a4 f63f
000000c0: 9aa7 1240 5bad ab3f 8781 2b3e 0641 4c40
000000d0: f914 1f40 465c 783e 47d9 5d3e 4e22 b33f
000000e0: edb8 eb3f 4782 7840 5e43 cb3f a8e4 a23f
000000f0: 89cc 943f 54c4 6e3e 06ef a53f a195 563f
1.035177 0.4136598 0.3223744 2.8953683 0.80866635 1.0421909 0.96250135 1.1290897
1.3854672 1.1570114 0.9550831 1.1790812 1.815622 0.5116077 1.3492246 0.82207876
1.4204835 3.8337455 2.78681 1.220079 1.861741 1.1905018 1.5542059 1.3267262
1.2382017 0.3861529 1.6195844 0.23139653 1.5948232 0.8811599 0.2927919 0.34648547
0.19244316 5.7020264 2.3000457 0.94787425 1.4628501 3.3479648 0.8985175 0.6946923
0.89902705 0.9920173 1.242892 0.76241314 1.7504232 1.3369656 1.3061817 1.9268876
2.2914796 1.3412279 0.1674863 3.1914687 2.485655 0.2425395 0.21664916 1.3994844
1.841581 3.8829515 1.5879934 1.272603 1.1624919 0.2331708 1.2963569 0.83822066

fc1.weight f4 [64, 135]
00000000: d33a 963d c2bf 40bd 9de6 a43c a037 19bb
00000010: 4af0 d7bc c1af 903d 244e 4c3d 32ca 10be
00000020: e5a8 8b3d 8502 aa3d 460e 013e d59a 183e
00000030: ad42 a03d bb2d 5e3d e0f8 51be 3328 963d
00000040: 3d02 d7bd 11c8 83bc 8f2b 653d 87e4 a03d
00000050: e800 723c ff89 a0bc e92c 063d 206f 163e
00000060: 2a3d d6bd 05e9 14bd 9a15 f2bc 1f08 b33d
00000070: 846e 213d 95fb 8ebe a313 363d a88f 24be
00000080: 882f 2fbd 602f 2a3d 7397 053e 55d8 c7bc
00000090: b5fd 343d 41fc 70bd f3a6 26bd cc25 cb3c
000000a0: 1846 2cbd 388c 0f3e cbe3 b93d 97bb 073d
000000b0: adaf 3bbd 35e6 16bd 56f8 083d 6f16 f93d
000000c0: 9a79 913d 42d5 01be 9a97 2fbd 716d c03c
000000d0: 7b02 f43d a4f3 60be 8e19 d2bd a551 f93d
000000e0: f717 e63d bf7e 75be e350 05bd 7387 4c3d
000000f0: 9624 553d 2330 a8bd d482 7dbb ab1d 5a3d
00000100: 697d c43d cd01 3b3e a0eb a43d cb9f 82bd
00000110: 7951 323d fdf6 483d 5932 babc 472e 9d3d
00000120: fc56 d8bd 6d4a 08be 862a dcbb 0adc 04bd
00000130: 38f4 7abc 119e 923d 5c94 933d ccfb ce3c
00000140: 343f 8f3d 1bd8 04bd ee9e e73d 6832 873d
00000150: 614d 093e 4688 8dbb 55f9 e13d dfb3 42bd
00000160: b9e9 203c 79fd f9bc e3df fe3d 8c25 f93c
00000170: 208a e9bc d7b2 873d d2d6 143e c5a6 0ebc
00000180: 51a9 8abb 939e 89bc 1351 e6bd f9d6 583c
00000190: 5921 c33d 9183 1fbe 3349 54be 1afc b3bc
000001a0: 7936 2a3d 977a cd3d fa31 1bbd 1dd0 bf3b
000001b0: 9fb4 083d 585b 7d3d 8969 dcbc cb2c 0c3d
000001c0: a6e6 26bc bf4b 7ebd 1f7f 94bb b6ac 5b3d
000001d0: ca63 af3d 3b9a c33c 2974 bb3d 2db2 ec3d
000001e0: bf5d d43d a65c dcbd 7f32 0f3d bf93 bb3d
000001f0: 91ea 5cbd 6722 6cbd 49a4 6abc f459 f3bc
00000200: d383 9f3d ac0e cf3d ecb6 6abd bb59 ab3d
00000210: 181e 0abe be7a 5d3d dc63 123c 7cf4 633d
00000220: 87b3 c93d d8ad 81bb af33 953d 2d85 863d
00000230: f12c 5f3d 5f61 07bc 7391 8abe 1df9 1a3d
00000240: fe05 093e 8f78 393d 2173 123e b545 91bc
00000250: d846 103e 9973 54be 04cb 173d 3547 dfbd
00000260: d7aa cb3d 352c 5e3c 71d1 933c 8b6c 083d
00000270: af49 1b3d 633d c6bc 87bd de3b e396 a4be
00000280: 76ef 9ebb 725f aebb 4d34 113d 6468 af3d
00000290: 01e3 c3bd 1daf ce3c c54b 93bd 859c bd3d
000002a0: 35e9 093e 3f35 983c cac1 1abd 80b6 3dbb
000002b0: dd6c a43d 8847 05be 8210 233c ddab af3d
000002c0: 328a f53b fec5 e33d 47ff 09bc 74dd 83bc
000002d0: b537 3e3d d7ff 1abc 81c2 b33c f449 133d
000002e0: 8ae8 7ebe 3f36 e03d f6e5 9e3d b959 053c
000002f0: a96a 2dbe 935e 8ebb 3836 6fbb c6a7 ab3c
00000300: 3920 97be 6c62 053d 779d a63d ebd9 473c
00000310: 9860 16bd d748 a53d 7dc6 653d 3319 103e
00000320: e95b 2b3e f0f0 a73c 5044 a73c 1c97 623c
00000330: 3fac 553c b020 eabd 7dcc be3c f065 9ebd
00000340: 8209 43be dc11 acb9 3deb b03d 3835 333d
00000350: ca2f 013d c571 01bb 1072 333c 32bc c43d
00000360: 9ef8 063e fb88 143d c6b4 9f3d 0d53 593d
00000370: 8596 ae3d 2eab f73d e720 993d 9c56 8ebc
00000380: 2ee3 c13d 5564 cc3d 8870 453c d44a adbc
00000390: 0709 903d c0f9 113e 1843 273e b72e 69bd
000003a0: b21f 813c 496e c2bd 02b3 6f3c 115f 863d
000003b0: 645e a6bd 48bd 71bd f95f d2bd 4b3f dc3d
000003c0: 14af 103e 3c8f db3d c60c 0b3c 2c5e 663d
000003d0: 3d9d 683d 7197 943d ce19 963c eb97 d43d
000003e0: 3864 52bd d93b b63d 24a8 b03d 7c74 d03d
000003f0: f00d b23d 4e24 cf3d 3016 5f3d 062b c9bc
0.073354386 -0.047057875 0.020129496 -0.0023379102 -0.026359696 0.070647724 0.04987921 -0.14139631
0.068193235 0.08301262 0.12603101 0.14902814 0.078252174 0.05424283 -0.20505095 0.07331886
-0.10498474 -0.01608661 0.055949744 0.07856088 0.014770724 -0.019597052 0.032757673 0.14690828
-0.10460885 -0.036355037 -0.029551316 0.08741783 0.039412037 -0.27926317 0.04445232 -0.16070426
-0.04276994 0.041549087 0.13046055 -0.024395147 0.044187266 -0.058834318 -0.04068656 0.024798296
-0.042059034 0.14018333 0.09076651 0.033137884 -0.045821834 -0.036840636 0.033439957 0.12162482
0.07103272 -0.12679008 -0.042869188 0.023489686 0.119145356 -0.21967942 -0.102587804 0.121737756
0.1123504 -0.23974131 -0.032547843 0.049933862 0.052036844 -0.08212306 -0.0038682716 0.05325095
0.095942326 0.18262406 0.080527544 -0.06378134 0.04353473 0.04906367 -0.022729086 0.07674842
-0.10563466 -0.13309641 -0.0067189364 -0.032436408 -0.015317015 0.07159055 0.07206032 0.02526655
0.06994477 -0.032432657 0.1130961 0.06601411 0.13408424 -0.0043192236 0.110338844 -0.04753482
0.009821349 -0.030516373 0.12445047 0.030413412 -0.028508246 0.06625908 0.14535072 -0.008706753
-0.00423161 -0.016799247 -0.112459324 0.013234847 0.09527845 -0.15577532 -0.20731048 -0.021970797
0.041555855 0.10033148 -0.03788946 0.0058536665 0.03337538 0.06185469 -0.026905792 0.034222405
-0.010186827 -0.062083956 -0.0045317556 0.053631507 0.08563955 0.023877254 0.09153015 0.11557422
0.10369443 -0.10759859 0.034960266 0.0915904 -0.053934637 -0.057649996 -0.014321395 -0.029705979
0.07788815 0.1011022 -0.057303354 0.08366724 -0.13488042 0.054072134 0.008934941 0.05565308
0.09848695 -0.0039574914 0.072852485 0.0656837 0.05448622 -0.008262961 -0.27064094 0.03783523
0.13381192 0.04528099 0.1430173 -0.017733434 0.14089525 -0.20747222 0.037058845 -0.109022535
0.099446945 0.013560344 0.018044205 0.03330664 0.037912067 -0.024199193 0.0067974958 -0.32146367
-0.0048503233 -0.0053214366 0.03545027 0.08564833 -0.09564782 0.025229985 -0.07192186 0.09258369
0.13467868 0.018580077 -0.037782468 -0.002894789 0.080285765 -0.13015568 0.009952666 0.08577702
0.007493281 0.111217484 -0.008422679 -0.016096808 0.046439845 -0.009460411 0.021943333 0.0359592
-0.24893394 0.109478466 0.07758705 0.008139067 -0.16935219 -0.00434477 -0.0036500823 0.020954024
-0.2951677 0.032564566 0.08135503 0.012197952 -0.036713213 0.08070534 0.056097496 0.14072113
0.1673428 0.02050063 0.020418316 0.013829973 0.013041555 -0.11432016 0.023290867 -0.07734287
-0.19046596 -0.00032819703 0.08638618 0.043751925 0.031539716 -0.001975165 0.010952488 0.09606208
0.13180777 0.036263447 0.07798152 0.05305772 0.08524803 0.12093197 0.07476979 -0.017375283
0.09467159 0.09980074 0.012050755 -0.021153845 0.07032972 0.14255428 0.16334188 -0.056929316
0.015762184 -0.094936915 0.014630081 0.06561101 -0.08123472 -0.059018403 -0.102722116 0.1075426
0.14129287 0.10720679 0.008486932 0.056242153 0.05679058 0.07255448 0.018322852 0.103805386
-0.051365107 0.08898134 0.0862582 0.10178468 0.086940646 0.101143464 0.05446452 -0.024556648

fc1.bias f4 [64]
00000000: b294 2b3e afbb ed3d 743c 063e ee51 fe3c
00000010: 9c22 f73d 43db 863d 54a7 abbd cd52 d33d
00000020: 58ed 253e 5b0f 32be 1969 193e a128 c03e
00000030: af10 7c3e 74e7 443e e28d 823e 1930 593d
00000040: bea4 0f3e 9e15 293e 921f 483e 28c4 723e
00000050: d03b 773e 9e32 813e b659 753d edbc 043e
00000060: fc19 9cbd 1577 d63d 042a 653e 15d6 1bbe
00000070: b099 363e 2796 763e 35a2 593e 2760 a0bd
00000080: 58f7 773d 6674 383e e855 1a3e 7905 f33d
00000090: 975d cb3d ee43 20be bca3 353e 646b 01be
000000a0: e2d1 bdbc bf45 073e 6333 d1bd e1af adbc
000000b0: 278b 783d 2e18 ebbc 0959 d43d 4f5f 1abd
000000c0: a1f5 d73d 6a89 813e dda7 94bd de5a 073e
000000d0: 5fbe 5b3e eab8 7d3e 27a2 5ebd 37ec 4f3d
000000e0: dd1a c93d a9e6 0a3e 1f25 653e e957 e1bb
000000f0: be4a 513e fbc7 3dbc 7d92 8dbd 5f10 c43d
0.16755942 0.116080634 0.13108999 0.031044926 0.12067148 0.065847896 -0.08381525 0.10318527
0.1620382 -0.1738867 0.14981498 0.37530997 0.2461574 0.19228917 0.25498873 0.053024385
0.14027688 0.16512153 0.19543293 0.2370764 0.2414391 0.2523393 0.05990001 0.12962694
-0.076221436 0.10471932 0.22379309 -0.15218385 0.17832065 0.24080716 0.21253283 -0.078308396
0.06053862 0.18013152 0.15071833 0.11866278 0.0992996 -0.15650913 0.17738241 -0.12638623
-0.023171369 0.132102 -0.10214879 -0.02120203 0.06067958 -0.028698053 0.103685446 -0.03768855
0.10544897 0.2530015 -0.0725858 0.13218257 0.2145934 0.2477757 -0.05435386 0.05076238
0.09819577 0.13564552 0.22377442 -0.006876935 0.20438668 -0.011583324 -0.06912706 0.09573435

fc2.weight f4 [1, 64]
00000000: 69d9 233e 64d4 8e3d 9fe0 f23d 2f9d 83bb
00000010: 1e46 a13d 8d0a 69be b20b 85bd 2a05 b23d
00000020: e348 c63d 7bed 94bd ea85 cd3d b49e c13d
00000030: 315a 293e c78d c23d 9245 b23d 79e4 393c
00000040: 90d5 213e e4bf ef3d 5af7 373e f47e 4e3d
00000050: cdd6 1a3d bc2c 443d 6619 a23d 0bb8 903d
00000060: 6891 73bd ad60 123e fb7c 823d 8c0b 82bd
00000070: 6127 873d 2187 8b3d bbd9 df3d fdc5 8abc
00000080: bfc2 d03d c0e2 ad3d 7b14 1d3e 04c0 9f3d
00000090: 00e7 ce3d 1901 b4bd 6f07 e03d fa6c 27bd
000000a0: f8cc b6bd 9c93 1b3e 7a77 e3bc 5bdc 4abd
000000b0: ad6f bc3d 54cf 14be 9662 89be 7247 9ebd
000000c0: ba8f c73d 5dbd e93d 3003 dcbc 148f 7f3d
000000d0: d6d9 ca3d 19e1 7b3d bd0d 9abd b118 0c3e
000000e0: 7d2e ee3d 2438 0e3e 21d6 1a3e dc6d 05be
000000f0: 3228 5ebe b51e b4bd dbad d1bd b412 1cbe
0.16000904 0.06974104 0.11859249 -0.0040165405 0.07874702 -0.22757931 -0.06496371 0.08692391
0.09681871 -0.07271858 0.10035308 0.09454098 0.16538312 0.09499698 0.08704676 0.011345976
0.15804124 0.11706522 0.17965451 0.05041404 0.037802506 0.047894225 0.079150006 0.070663534
-0.059464842 0.14294691 0.063714944 -0.06349859 0.06599308 0.06812883 0.10930201 -0.016940111
0.10193395 0.08490515 0.15339844 0.07800296 0.101026535 -0.08789272 0.10938918 -0.040875413
-0.089258134 0.15193027 -0.027766932 -0.049526554 0.09200988 -0.14532214 -0.26833028 -0.07728471
0.097442105 0.11413071 -0.026856989 0.06239231 0.0990483 0.061493967 -0.075221516 0.13681294
0.11629961 0.13888603 0.15120746 -0.1303019 -0.21695021 -0.087949194 -0.102382384 -0.1524151

exp_avg f4 [64]
00000000: 039a c93f e9df 7fbb c76b b43d 57c0 d2bb
00000010: 71c8 a23d c0f4 44bb 0d94 f73d 5b68 b03e
00000020: 3a74 07bc be26 e0bc e455 6c3c 459a 4f3b
00000030: 79e9 0abc c8aa 9abb 0be5 403b 6373 0ebb
00000040: 9531 863e 0ccd d6be 18d9 86ba f372 483a
00000050: e96b 6a3d fad7 0737 d630 1f3f 1c8a ccba
00000060: 75d2 753c f8e7 1a39 5054 deba 916b c1bc
00000070: 1e81 283d 9260 3abb 6dd0 92bc 1eee aa3b
00000080: 82b7 58ba 84bb 13ba de58 7cbc 73cd 15bb
00000090: 22fe 15bb 2253 223c 178d 30bd 217f e8ba
000000a0: 3eb2 c0bc 7824 63ba fd2a db3e d3a5 73bb
000000b0: 593e 3a3c 6ef6 853d 3ee3 1c3e 74b0 153d
000000c0: a4d0 b6bb 25d1 67bb dad1 eb3e a9af 2abb
000000d0: 2ab7 34ba d803 07bb 762b 1f3e 6956 743d
000000e0: 1037 f43d a17c c63e 74b8 153f ff71 063d
000000f0: a379 cd3c 953b 0eb8 7c8a ce3e da42 3f3c
1.5750126 -0.0039043373 0.088096194 -0.00643162 0.079483874 -0.003005311 0.12088785 0.34454617
-0.008267457 -0.027362224 0.014424775 0.0031677645 -0.008478516 -0.0047200657 0.0029433395 -0.0021736256
0.26209703 -0.41953313 -0.0010288088 0.00076465233 0.057231817 8.096913e-06 0.6218389 -0.0015605125
0.01500379 0.00014773 -0.0016962383 -0.023610862 0.04113876 -0.0028438908 -0.01792165 0.005216374
-0.0008267091 -0.0005635547 -0.015402047 -0.0022858053 -0.002288707 0.009907516 -0.043103304 -0.0017738083
-0.023522492 -0.0008664797 0.42806235 -0.0037177696 0.011367404 0.06541143 0.15321061 0.036545232
-0.005579071 -0.0035372463 0.46058542 -0.0026044643 -0.00068937487 -0.0020601656 0.15543923 0.05965272
0.11924565 0.3876696 0.5848458 0.03282356 0.025082415 -3.391093e-05 0.4034003 0.0116736535

exp_avg_sq f4 [64]
00000000: e9d7 b740 1e40 b438 f4eb 453b 6aaf 993b
00000010: d3bd 513b 4958 6138 9750 193c 4ce2 3a3f
00000020: 982e b638 383f 413e 8cc5 3238 ccdc a03a
00000030: 9482 e038 e7cb c937 0e11 5939 7d82 b236
00000040: bb4e 123d c25f 0140 fe15 0538 76db 5438
00000050: 4174 f43a e78a ef35 d8d3 153f 53e2 ae36
00000060: 9cac 0b3e 49a2 1b3a a4ab c637 4d76 5f3a
00000070: f305 8439 2d72 1f37 65cb d439 3d07 443b
00000080: 6bb0 4c38 f8a3 a336 4868 5c3b 5743 a937
00000090: ed8f 0538 6409 8038 b728 a53a 8118 0339
000000a0: 1944 8839 73d8 b635 6fc7 a83f 4660 dc38
000000b0: 6301 4a38 3d3e 833b 320e 5f3f fce9 9f3c
000000c0: 4d33 8837 6b48 3d37 296e 9c3f 41bc 8037
000000d0: 8c5a cb35 8385 c137 41bc 303c f821 853a
000000e0: 5b25 963c a5fa c43c dee8 1a3d 64a6 883a
000000f0: 16a7 0a3a 7789 2d36 43e3 d13c a88e 0b3c
5.745106 8.5950116e-05 0.0030200453 0.0046901004 0.0032004013 5.3726402e-05 0.009357593 0.7300155
8.687115e-05 0.18871772 4.2622487e-05 0.0012272834 0.000107054744 2.4056017e-05 0.00020701086 5.320004e-06
0.035719614 2.0214696 3.1730153e-05 5.0749128e-05 0.0018650369 1.7847314e-06 0.5852637 5.2119517e-06
0.13640064 0.0005936963 2.3683366e-05 0.0008524403 0.00025181434 9.503722e-06 0.00040587332 0.002991154
4.8801692e-05 4.876867e-06 0.0033631492 2.0177727e-05 3.1843712e-05 6.105265e-05 0.0012600635 0.00012502262
0.00025990678 1.3623052e-06 1.3185862 0.0001050835 4.8161844e-05 0.004005222 0.87131035 0.019520752
1.6236352e-05 1.1282139e-05 1.2221118 1.5346452e-05 1.5151031e-06 2.3069564e-05 0.010787071 0.0010157218
0.01832836 0.024045298 0.037819736 0.0010425565 0.000528918 2.5859024e-06 0.025621062 0.008517899

exp_avg f4 [64, 7]
00000000: 46df f4be f9fa a3bf 9492 b83e 4e2b 30bf
00000010: 7113 b2bf 4834 5f3f 7459 be3f f1a7 25bf
00000020: 454e e3be ebc6 cfbf 1f68 32bf 742e 6abf
00000030: f7b6 9ebd b5e2 e2be 5c42 a140 ac75 3e40
00000040: 9bed a040 be4f a040 f9fc ac40 04f1 2840
00000050: 877d 97bf 72ea 503f edfa 403f 384f 3141
00000060: 4d71 213f 036c 8ac0 99a2 953f 3200 fdc0
00000070: 7125 ccbf 858c 02bf 37d7 2cc0 5f0c a9bf
00000080: 0b4e afc0 ea7c febf 8cfb 9cc0 e16b 6abe
00000090: 53e2 463d 0952 c53f fbed 60bf f323 5dbf
000000a0: c6d3 13bf 8fb5 7cbf ce6f 3d40 660d 52c0
000000b0: 3b9e fabf 4a26 46c0 db95 b0c0 0b65 3340
000000c0: 6af9 2bc0 5bc1 0cc0 e09e b040 f181 05c1
000000d0: cc7a d840 074f a340 bb6d 1041 d1df 89c1
000000e0: cf9f a63e 7636 093e 7dbc 0740 d8ea 1dbf
000000f0: da3c 41be 9ffe 6b3f 3c8e 4ebf f439 87be
00000100: aa07 b7bd ef85 a5bd 53ff 32bf 72b7 eebe
00000110: eba7 01be 5350 6fbd 0ce4 243e 059d c93e
00000120: fce6 313e 8ca4 3cbd f9bc 0bbf c921 233e
00000130: 1d2b 35be cfd8 043f bffc 24bf 1139 853d
00000140: 7b7a 1b3e 99c1 ed3e c641 96be 55c0 12bf
00000150: ebc4 9dbf a22d 0cbf 3322 3d3f 8ea3 4dbf
00000160: 8cf2 033f 1b2f 98be 1ed1 843f c614 353d
00000170: e625 9cbe e657 febe 434c 72bf f9d4 9abf
00000180: edd9 cdbe 7c2f a53e 150e 19c0 22a3 eabc
00000190: d878 d4bd a15c b7bf 3c00 45c0 d433 ecbf
000001a0: b309 d9bf 17a3 9fbf 5c4a 02bd a15c c3bd
000001b0: 9109 04bf 740a 04c0 8e3d b0be 9440 c8be
000001c0: 1030 0ec0 f44f bbc0 2adb af41 2912 3a41
000001d0: 356c ff3f 30e5 0641 e6b7 9041 8f50 1f3c
000001e0: 9d3c 963e 07fe 193e 812b 45bd fab0 97bc
000001f0: c546 eabe b390 293d bdfe 45bf dd65 6d3e
00000200: 116d 87bf 7dce 1b3e e818 153e 69eb 6d3c
00000210: bcc2 d93d 3bd8 0ebe 7640 953d 7bc8 f43d
00000220: ed73 8c3e 2bc0 64be a186 1abf b318 08bf
00000230: 3462 31c0 b628 a5bf 7717 8340 5798 413f
00000240: 2ce7 9e3f e74e 63bf ccca 9cc0 6016 223f
00000250: 8107 323d 84ab 59be 8a26 933d 864a 40bf
00000260: 78c3 97bd 7d7a 6b3f 8c3b 05c1 c7c4 23c1
00000270: d45e 1ac1 13ba 22bf 6c92 86c1 7c10 d740
00000280: a722 a4c0 972a c23e a030 063f cfdf da3e
00000290: 2d7d f13e 7dbd c4be d8ca a43e 781e f1bd
000002a0: 781d 6c40 6784 e43f 9f52 a93e a69e c5c0
000002b0: eb86 78bf 5ddf 27c1 f549 e540 6dde febf
000002c0: fa11 703f b6e8 8540 2152 21bf b805 73c0
000002d0: ebc0 34c0 9640 c0c0 99c7 a73f cb1a 243f
000002e0: ee0d bc3e 670e 733e 701b c7be 70bd ce3f
000002f0: 0ca6 4940 d0d4 65c0 d8b0 8ac0 e056 4740
00000300: 539e d4c0 0f56 f6c0 1884 edc0 7b9a 1ac1
00000310: 3569 73be ac8d b83e bab2 203f b151 573f
00000320: 0527 a93f dd0d 953f 6951 0a3f 0818 a63e
00000330: c203 8bbd 35ef 50bf b95e 3fbd 700e 07bf
00000340: ecb0 3dbe b4af cabe 7867 123f cdf1 a7bf
00000350: d0c8 393e 0b8d 053e f4d6 923e d581 0abf
00000360: 5ca5 57bf d292 69be 1302 d13d 62be d6bf
00000370: 61e1 753f 6518 edbe ec37 65bf 79dc 4abf
00000380: cd79 643f cb5c 0740 5ebf 7a40 e90a 0640
00000390: d25d b33f f3ee f33f 47c1 a23f fa88 b7be
000003a0: 1ccc 393e 21bb 8dbe 6b39 d3bd 813e 0bbf
000003b0: 5665 ac3e 12df 0abf 1511 893e 35f9 8abf
000003c0: ef33 9240 4e64 dabf 9ebd d340 750d 5e40
000003d0: a8e2 6640 e9f0 a2bd 6074 853e d666 433f
000003e0: 6409 5a3f add7 8dbf db85 333d 4101 91bf
000003f0: 4e1c d7bf 24e0 b3bf cd23 03c0 f65f bfbf
-0.47826594 -1.2810966 0.3604933 -0.6881608 -1.3912183 0.8718915 1.4871049 -0.64709383
-0.44395652 -1.623258 -0.69690126 -0.9147713 -0.077497415 -0.4431359 5.0393505 2.9759321
5.0290046 5.009734 5.4058805 2.6397104 -1.1835183 0.81607735 0.7538288 11.0818405
0.6306351 -4.325685 1.1690246 -7.906274 -1.5948926 -0.50995666 -2.7006357 -1.32069
-5.4782767 -1.9881871 -4.9057064 -0.22892715 0.048555683 1.541566 -0.8786313 -0.8638298
-0.57745016 -0.98714536 2.959949 -3.2820678 -1.9579538 -3.096087 -5.518293 2.8030422
-2.687098 -2.1993015 5.519394 -8.344224 6.76499 5.103397 9.02679 -17.234285
0.325438 0.13399681 2.1208794 -0.6168647 -0.1887087 0.92185396 -0.8068578 -0.26411402
-0.08937009 -0.080821864 -0.69920844 -0.46624333 -0.12661712 -0.058426213 0.16102618 0.3937761
0.1737327 -0.04605536 -0.54585224 0.15930857 -0.17692228 0.51893324 -0.6444816 0.06505025
0.15183441 0.46436766 -0.29347056 -0.57324725 -1.232572 -0.5475713 0.7388031 -0.8032769
0.5154197 -0.2972344 1.0376318 0.044209264 -0.30497664 -0.49676436 -0.94647616 -1.2096244
-0.40205327 0.3226279 -2.3914845 -0.02864224 -0.103746116 -1.4325143 -3.0781393 -1.8453317
-1.6956085 -1.2471646 -0.031809196 -0.09539152 -0.515771 -2.063138 -0.34421962 -0.3911177
-2.2216835 -5.85351 21.982014 11.629434 1.9954897 8.430954 18.089794 0.0097237965
0.2934312 0.1503831 -0.04813719 -0.018517006 -0.45757118 0.04139776 -0.77341825 0.23183389
-1.058016 0.15215488 0.14560282 0.014521458 0.10632846 -0.13949673 0.072876856 0.11952301
0.27432194 -0.22338931 -0.6036168 -0.5316269 -2.7716188 -1.2903049 4.0966144 0.7562308
1.2414298 -0.8879227 -4.8997555 0.6331539 0.043464188 -0.21256834 0.07185085 -0.75113714
-0.074103296 0.9198378 -8.327038 -10.235541 -9.648151 -0.63565177 -16.821495 6.7207623
-5.12923 0.37923118 0.52417946 0.42748877 0.47165814 -0.38425818 0.32186007 -0.117733896
3.6892986 1.7852906 0.33070847 -6.1756163 -0.9708087 -10.492032 7.165278 -1.9911629
0.9377743 4.184657 -0.63015944 -3.797224 -2.8242748 -6.007884 1.3107787 0.6410338
0.36729378 0.23735963 -0.3888812 1.6151562 3.1507597 -3.591114 -4.3340874 3.1146774
-6.6443267 -7.698005 -7.4223747 -9.662715 -0.23770602 0.36045587 0.62772715 0.84109026
1.3215033 1.1644856 0.5403047 0.3244021 -0.06787826 -0.81615 -0.046721194 -0.52756405
-0.18524522 -0.39587176 0.5718913 -1.3120667 0.1814301 0.13042085 0.2867962 -0.5410436
-0.84236693 -0.22809914 0.10205474 -1.677685 0.96047026 -0.46307674 -0.89538455 -0.79242665
0.89248353 2.1150386 3.9179301 2.094416 1.4013007 1.9057297 1.2715234 -0.35846692
0.18144268 -0.2768183 -0.10313686 -0.5439225 0.33671063 -0.5424663 0.26770845 -1.0857302
4.5688396 -1.706186 6.6168966 3.4695714 3.607584 -0.07956106 0.2606535 0.7632879
0.8517058 -1.1081444 0.043828826 -1.1328508 -1.6805513 -1.4052777 -2.04906 -1.495116
