code/model_best.pth.tar (torch, 181322 bytes, 37 tensors)

conv1.bias f4 [64]
000000 43 a2 97 3e b6 4a a9 3b 08 ff 0a 3c 30 e3 87 3e
       0.29615983 0.005166377 0.008483656 0.26540518
000010 9c 9c cc bd f0 b7 14 b9 dd 91 e3 3c 56 6f 80 bd
       -0.09990808 -0.00014182902 0.027779514 -0.06271236
000020 7a e6 a4 3d 6d e9 58 3e 61 e9 26 3e 43 8d 0e be
       0.080517724 0.21182795 0.16299964 -0.13921075
000030 f8 12 40 be 01 24 71 3e 7d 39 74 3e 0e 61 53 3d
       -0.18757236 0.2354889 0.23850055 0.05160623
000040 5a 6d ab bd 8e 3d 8d 3e 17 f2 24 be e9 f1 8f 3e
       -0.083704665 0.27586025 -0.16107975 0.2811425
000050 48 b4 c6 3d c7 6f 20 3d 74 eb 8c 3e 56 99 8e 3e
       0.09702355 0.0391691 0.27523386 0.2785136
000060 41 cf 19 bd a0 35 c9 3d ab 3e 58 3d ba 91 58 3e
       -0.03755117 0.09824681 0.05279414 0.2114934
000070 71 da 95 3e ca f3 41 be 16 19 88 3e b7 ab 64 3e
       0.2926822 -0.18940654 0.2658164 0.22331129
000080 e2 f5 4e be 33 03 55 bd c8 80 f4 3d f0 a8 91 3e
       -0.20210984 -0.052005004 0.119386256 0.28449202
000090 84 7e 5e 3e 36 67 44 3e e2 87 19 bd 4c 86 8d 3d
       0.2172795 0.19179997 -0.037483104 0.06910381
0000a0 31 cf a2 3e e0 bd d9 3c fe 09 29 be 7f f7 0a 3e
       0.317987 0.026579797 -0.16507718 0.13570975
0000b0 e6 7e 12 be bc 75 f9 bd ec 08 b7 3d 30 db 83 3e
       -0.1430622 -0.12180659 0.089372486 0.25753164
0000c0 bd 01 cc 3d f9 52 64 3e 7c 3b 0a be d4 a3 77 be
       0.09961269 0.22297277 -0.13499254 -0.24183589
0000d0 4a 71 b2 3c a4 3a 04 be 02 12 85 3e 0a 59 8c 3c
       0.021782536 -0.12912995 0.259903 0.0171323
0000e0 25 bb 87 3d 5f 6f b0 3d 40 8b 03 3e 61 ac aa bd
       0.06627492 0.08614992 0.12846088 -0.0833366
0000f0 84 c9 68 3e 71 94 9e 3c 3a d8 ea bd e5 1b 97 3e
       0.22733122 0.019357892 -0.11467023 0.2951347

conv1.lin.weight f4 [64, 7]
000000 19 d1 c9 bd bb ea 11 3e be c4 81 3e 6b 7b 22 bd
       -0.09854335 0.14249699 0.25345415 -0.03966848
000010 cc e9 81 3d 0e 41 89 3e 09 c4 a9 bd 10 18 0c 3e
       0.06343421 0.26807445 -0.08289344 0.13681054
000020 21 5d c9 bd 1f 7b 6b be db f7 22 be 6f 75 10 3e
       -0.09832216 -0.22996186 -0.15914862 0.14107297
000030 60 f1 f7 3d 0a ee 29 3d f9 d3 bf 3c 1c 58 2b 3d
       0.121065855 0.041486777 0.023416506 0.041832075
000040 da 89 8e 3e 72 20 45 3d 7f 71 32 3e 51 0a 38 3d
       0.27839547 0.048126645 0.17426108 0.044931713
000050 79 df 85 3e 75 93 9a 3b 29 94 28 3e 51 5f 1d be
       0.2614706 0.0047172853 0.16462769 -0.15368392
000060 99 38 b8 3d 91 15 30 3e 1b ba a5 3e e8 7f 11 bd
       0.0899517 0.17195727 0.3236855 -0.03552237
000070 89 8b c9 3d f9 60 93 be a5 e0 76 3e a3 95 dd 3a
       0.09841067 -0.28784922 0.24109133 0.0016905557
000080 73 61 06 bd 92 3f 01 be 58 39 99 bd 09 10 c6 bd
       -0.03280778 -0.12621906 -0.074816406 -0.09671027
000090 3f d3 2d 3e 42 cd 83 be 7c 61 34 be 38 72 ee bc
       0.16975115 -0.25742537 -0.17615312 -0.029107198
0000a0 49 1c 1a be 2e ef 1b be ff f4 a1 bd 69 92 36 be
       -0.15049852 -0.15227959 -0.079080574 -0.17829289
0000b0 c3 4e 12 3e 34 89 b3 3d 97 0b 31 be 1d f6 0d be
       0.14287858 0.08766404 -0.17289577 -0.13863416
0000c0 fb 8e 14 3e 04 88 69 3e 98 9f d8 be 41 d4 db bd
       0.14507668 0.22805792 -0.4230926 -0.107338436
0000d0 dd de 42 3d b4 e7 ff 3c f7 8c 0c 3e a9 05 be 3c
       0.04757582 0.031238414 0.13725649 0.023196058
0000e0 22 cc 05 be b7 0e e4 bd fb 31 d9 3d e3 0d d9 bd
       -0.13066152 -0.11135619 0.10605236 -0.10598352
0000f0 75 1a 19 3d 4b 72 71 be 65 ea 0a 3d a3 5f 90 be
       0.037378747 -0.23578756 0.033914942 -0.28197965
000100 68 16 d4 bd 76 0a 3f bd 67 26 71 be 62 e4 82 3e
       -0.10355836 -0.046640836 -0.23549806 0.25564867
000110 2f 3c 58 3e 5d ae 20 3e 5f 63 00 3d 47 aa 85 3e
       0.21116708 0.15691514 0.031344768 0.26106474
000120 87 85 8a 3d fa 3c 90 3e e0 9a 57 bb d0 8c 8b bd
       0.067637496 0.2817152 -0.003289871 -0.06813967
000130 e0 1e 81 3c 39 ba a8 3e bc a0 ff 3d 15 ea 5c 3e
       0.015761793 0.32954577 0.124818295 0.2157367
000140 ae 33 4e 3d d1 ef c1 3d ea 38 cb 3d 38 a5 55 be
       0.050342254 0.094695695 0.09922965 -0.20863807
000150 2d 35 d9 bd b3 6e 3a be 06 4d 76 3e 54 83 50 bd
       -0.106058456 -0.18206291 0.2405282 -0.050906494
000160 d4 cb 40 3e d6 0d 6b 3c cd 38 2d be a7 49 6a be
       0.18827754 0.01434656 -0.16916199 -0.22879659
000170 0e 7e 50 bd a9 9b 66 be b9 7a c2 bd 09 1b d8 3d
       -0.050901465 -0.22520317 -0.09496064 0.105520315
000180 76 b0 92 3e ed ca 20 3e 09 de 31 3e 7e f7 63 3e
       0.28650254 0.1570241 0.17369856 0.2226238
000190 ac 03 95 be c9 49 6a be f6 76 84 3e 2c d7 33 bd
       -0.29104364 -0.2287971 0.2587201 -0.043906376
0001a0 1b 28 88 3e cb ff 16 be fe 91 5f bc ba ca a5 be
       0.26593098 -0.14746015 -0.013645647 -0.3238123
0001b0 94 03 ce 3d cc a8 f5 3d 1a f7 ca 3d 8b 07 5a 3e
       0.10059276 0.11995086 0.09910412 0.2129194
0001c0 6d 6e 77 be 7e b0 47 be bc b5 f9 bd 7e 53 b1 3d
       -0.24163218 -0.1950092 -0.12192866 0.08658503
0001d0 ab 4e 71 3e c7 78 0b 3d 28 37 3f 3d 7f 93 d4 bc
       0.23565166 0.03405073 0.04668346 -0.025949238
0001e0 a2 13 95 3e f3 41 8e 3e 0d c2 94 bd 7d 27 9a bd
       0.2911654 0.2778469 -0.07263575 -0.07527063
0001f0 f4 96 09 3e 3a 30 9c 3e 01 3a 35 bc a7 43 8b be
       0.1343649 0.30505544 -0.0110611925 -0.27200052
000200 71 52 11 be 3a 4c f4 3d be 2a 59 3e 1f d5 72 3d
       -0.14191605 0.119286016 0.21207711 0.05928528
000210 cd 8b 0a 3e 28 95 8f bd 3a 88 3b 3e 03 0d 70 be
       0.13529892 -0.07010871 0.18313685 -0.23442464
000220 61 c2 54 3d fc 4c 5e be 25 9d 71 3e cf 94 39 3e
       0.051943187 -0.21709055 0.23595102 0.18123172
000230 06 2b 94 be 41 fe a7 3d 6e 73 80 3d 9a 8d 93 3d
       -0.28939074 0.08202792 0.062720165 0.07204743
000240 88 1c a0 be ca 57 da 3c ab d6 92 bd bf 12 20 3e
       -0.31271768 0.02665319 -0.07169851 0.15632151
000250 3f 1f ba 3c 7e f2 39 3e a3 1e c2 3e 9c 2e c4 3a
       0.022719977 0.1815891 0.37914 0.0014967504
000260 0e de e2 3d 87 2f 3d be 4b e7 61 be 29 3b a0 bd
       0.1107751 -0.18475161 -0.22060888 -0.07823784
000270 ed 30 92 3c 3d d3 95 3e 56 d6 d7 bc ca ed 40 be
       0.017845595 0.29262725 -0.02634732 -0.1884071
000280 fb fa 1d 3e 92 f5 3e be 29 db 29 be 7c b3 8e 3e
       0.15427773 -0.18648365 -0.16587509 0.2787131
000290 8c 36 8f 3e 42 8e 08 be 95 74 79 3e 0f 61 c4 bd
       0.27971303 -0.13335517 0.24360879 -0.09588825
0002a0 81 55 34 be 40 42 64 be 8e 85 8e be 50 bd 1c 3e
       -0.17610742 -0.22290897 -0.2783627 0.15306592
0002b0 be 0d ca 3d 51 36 1c 3e 86 78 bb 3d d8 42 f5 3c
       0.09865902 0.15255095 0.091538474 0.0299391
0002c0 0f 71 ae 3c 6c 17 12 3c 13 ae 65 3d 40 5b 9a 3e
       0.021294145 0.008916717 0.056074213 0.30147743
0002d0 39 b5 16 3e 56 69 2d 3d f7 6a 9c 3e 69 48 58 3e
       0.14717568 0.042336784 0.30550358 0.21121372
0002e0 88 98 92 3c f1 84 bd 3e f2 87 a2 bd 0a 2b 9a 3d
       0.017894998 0.3701549 -0.07936086 0.0752774
0002f0 9d f0 3a be 0b 1c 06 bc 06 16 2d be 37 19 99 3e
       -0.18255849 -0.008185397 -0.16902933 0.2990205
000300 3e 86 d5 bd 0f c6 75 be 67 81 21 be 84 2a 82 3e
       -0.10425995 -0.24001335 -0.1577202 0.25423062
000310 db f2 26 3d 89 f5 21 3e 77 f2 77 3e 96 d8 72 3e
       0.04075895 0.1581632 0.24213587 0.23715433
000320 11 e2 39 3e 0f 92 74 be a8 b3 42 3e 7d a8 3a 3e
       0.18152644 -0.23883842 0.19013846 0.18228336
000330 7c 8d 81 3e 40 66 3e 3d 69 54 83 bd 3c dc 49 3c
       0.25303257 0.046484232 -0.06412584 0.012320574
000340 47 00 2d bd 1b a0 43 be 5a 4e a1 3d 57 13 68 be
       -0.042236593 -0.19104044 0.078762725 -0.22663628
000350 c4 b3 8a 3e 06 8a 19 bd ff 3e ca bc 0d b0 d6 bd
       0.27090275 -0.037485145 -0.024688242 -0.10482798
000360 40 da 8d 3e bc 09 d8 3d 81 92 2c 3e 15 0b 48 be
       0.27705574 0.10548732 0.16852762 -0.19535477
000370 38 98 d8 3d 33 c6 47 3e 90 16 ca 3c e3 dd 93 3e
       0.105759084 0.19509201 0.024668962 0.28880224
000380 ad 7d bd be 61 d1 8d 3e e1 d9 7a be 25 77 17 be
       -0.37009946 0.27698806 -0.24497177 -0.14791544
000390 09 6a fd 3d 89 7c 1b bd fa 0a aa 3d eb a6 2e 3e
       0.1237374 -0.037960563 0.08302875 0.17055862
0003a0 d8 b3 23 3e c5 4c b7 bd f2 b4 97 3d 1b ac 49 3e
       0.15986574 -0.089501895 0.074075595 0.1969456
0003b0 da 7d 2b be c2 89 29 be b0 0c f3 be 77 8d 58 3e
       -0.16747227 -0.16556457 -0.47470617 0.21147715
0003c0 5c 5b 14 be a8 c1 84 3e 05 51 2d 3e 65 e2 0b be
       -0.14487976 0.25928998 0.16925438 -0.13660581
0003d0 3e ca 1e bd b9 76 0e 3d 3f 58 55 3e ec 94 26 be
       -0.038767092 0.03478119 0.20834444 -0.16267747
0003e0 ed f6 8a 3e 2d 9a dd bc e2 1a 7a bc 1f 80 3a 3e
       0.27141514 -0.027051056 -0.015265198 0.18212937
0003f0 88 b4 31 3e f7 e7 5a 3d f9 b9 ff bc 36 b7 3a 3e
       0.17354023 0.053443875 -0.031216608 0.18233952

conv2.bias f4 [64]
000000 70 b5 87 3d bf 97 a0 3d e6 0b 16 3e c9 6e 9a 3d
       0.06626403 0.07841443 0.14652976 0.07540662
000010 5a 1b 25 3d a7 25 1c be ad 19 9b bc 53 28 d1 3d
       0.040309288 -0.15248738 -0.018933142 0.10212769
000020 e4 2b c2 3d bc 4a 19 3e 3a f4 07 3e da 5a a0 3d
       0.09481028 0.14969915 0.13276759 0.078298286
000030 c6 d5 14 3e 9f 9f 16 3e 52 17 0f be aa 0c e1 bd
       0.14534673 0.14709328 -0.1397374 -0.109887436
000040 ab 9e e2 3d f1 85 eb 3d 93 f1 18 3d 35 65 91 3d
       0.1106542 0.11500157 0.037339758 0.07099382
000050 f6 42 20 3e f0 9a 0d 3d 16 d5 f1 3d 9f f3 0c 3e
       0.15650544 0.034571588 0.11808221 0.13764809
000060 85 68 2f 3d e9 e1 df 3d 47 29 04 3e de 7e 08 3d
       0.042824287 0.10931761 0.12906371 0.033324115
000070 0f fd fc 3d b5 5f b3 3d 14 64 2e 3e 34 f8 0d 3e
       0.123529546 0.08758489 0.17030364 0.13864213
000080 8f 6b a7 bd 64 f5 ab 3c 58 d5 4a 3d 0c b4 56 3d
       -0.08174812 0.020991035 0.049519867 0.0524178
000090 27 9b 23 3d bd 65 0c 3d ad 00 a9 3d 8b 47 be 3d
       0.039942887 0.034276713 0.08252082 0.092909895
0000a0 b0 6f 31 3e df 38 df 3c d7 bc 20 ba dd 5b 38 be
       0.17327762 0.027248798 -0.0006131655 -0.18003793
0000b0 2d 34 06 3e 65 8b 7c 3d 23 85 0f 3e 6b d3 16 be
       0.13105841 0.061656374 0.14015631 -0.14729087
0000c0 a0 30 b2 3d d7 92 58 3d e2 d7 24 3e d2 8a 22 bd
       0.08700681 0.052874412 0.16097978 -0.03968317
0000d0 9d df 2a be 22 a8 08 3e 42 04 1f be e9 fd b0 3d
       -0.16686864 0.13345388 -0.15528968 0.086421795
0000e0 80 d3 be 3d 1a 4a c2 3d 81 eb 85 3d c4 11 e4 bd
       0.09317684 0.0948679 0.065390594 -0.11136201
0000f0 ac 0a 7b 3d 12 af ce bd 02 8c 17 3d 78 dd d0 3d
       0.061289474 -0.10091986 0.036998756 0.10198492

conv2.lin.weight f4 [64, 64]
000000 c8 d3 1a 3e ca 3a 23 3e e7 13 06 3e 59 a6 ab 3d
       0.1511985 0.15940395 0.1309353 0.08381338
000010 80 20 52 bd 63 e3 7e bc 16 ed 2a be a0 a0 0d 3e
       -0.051300526 -0.015557143 -0.16692004 0.13830805
000020 ab 90 1b be 5d fd ee bd 97 04 db 3c 3c a6 2e be
       -0.15191905 -0.11669419 0.026735587 -0.17055601
000030 34 72 eb bb dd e8 ff 3d bf 7d a7 3b 33 64 f9 3d
       -0.007185245 0.12495587 0.0051114256 0.121773146
000040 0c 89 17 bd 98 10 ca b9 fe 11 21 3e c0 0a 04 3e
       -0.036995932 -0.00038540806 0.1572952 0.12894726
000050 d6 e7 10 be c4 70 10 bb d0 a1 a3 bc 42 22 40 3c
       -0.14150938 -0.002203987 -0.01997462 0.011726918
000060 c8 a5 f3 bc f6 e8 0b be 2e 5d 1a be 57 69 03 3d
       -0.029742137 -0.13663086 -0.15074608 0.03208288
000070 7f b8 d5 3d 72 1d 93 be e7 0c 0d 3d 03 9e a5 bc
       0.104355805 -0.28733402 0.034436133 -0.020216947
000080 1a c8 49 3e 39 17 bd be 9d 7e da 3d d4 38 f4 3d
       0.19705239 -0.3693178 0.10668681 0.119249016
000090 28 e5 f8 bc 73 41 04 be fe 87 41 bd 32 67 43 be
       -0.030382708 -0.12915592 -0.047248833 -0.19082335
0000a0 bb 4f 22 bd b1 e6 2c 3e 12 3c 46 bd 3b 12 7a 3b
       -0.03962682 0.16884877 -0.04839713 0.003815784
0000b0 49 44 00 be 41 5c 1d 3e ba 84 88 bc fd 48 b5 3d
       -0.12526049 0.15367223 -0.016664851 0.08851812
0000c0 99 84 5a bc 4e cc 2d 3d 27 b2 da bd 49 37 3a be
       -0.013337278 0.04243117 -0.10678511 -0.18185152
0000d0 ea 37 8b bd ab 60 1b be 23 e6 71 3d a2 d0 a7 3c
       -0.06797774 -0.15173595 0.059057366 0.020485226
0000e0 fa c9 f6 3d 6e f1 0b be 28 b3 97 bd d6 f6 4d be
       0.12050243 -0.13666317 -0.07407218 -0.20113692
0000f0 56 7f 1a 3c 06 61 01 be ce 2b 76 3e 96 a4 ad 3d
       0.009429773 -0.12634668 0.24040148 0.08478658
000100 99 de 16 be d1 a3 18 3c 4b 00 f3 3d 9a 08 34 be
       -0.14733352 0.009316401 0.1186529 -0.17581406
000110 ed 1d 9f 3c df 16 80 b9 c4 be 92 be 70 b1 78 3e
       0.01942345 -0.00024431103 -0.28661168 0.24286437
000120 60 77 6e 3d c3 6d b1 bc 86 08 81 be b5 ed 1e bc
       0.058219314 -0.021658784 -0.25201815 -0.009700228
000130 44 e5 ef bc 20 66 40 be a6 f2 15 be 84 ea cb bd
       -0.029284127 -0.18788958 -0.14643344 -0.0995684
000140 45 7c 1a 3d 38 f8 a3 be 40 db 6f 3d a7 b9 c0 bd
       0.03771617 -0.32025313 0.058558702 -0.094104104
000150 ce e4 fb bd d6 ad 29 be 96 b2 97 be 99 4a 2f be
       -0.122995004 -0.1657022 -0.29628438 -0.171183
000160 dc 43 e7 3c 15 22 9a bd af 24 9a 3d 70 f1 d6 bd
       0.0282306 -0.07526032 0.07526528 -0.10495269
000170 c4 d7 e9 bc 21 5d a8 3c 99 7a 2f be 83 ac 04 3c
       -0.028545268 0.02055222 -0.17136611 0.008097771
000180 a6 fa f1 bd 92 13 d8 3d 63 16 86 3d 06 64 88 3b
       -0.118153855 0.10550608 0.06547239 0.0041623143
000190 09 86 8c be a9 cf eb 3d a0 10 9b 3d 1f 74 e5 bd
       -0.2744601 0.115142174 0.0757153 -0.11203789
0001a0 70 9e 57 be f9 aa 21 bd 7b a3 f6 bd 3f d9 66 3c
       -0.21056533 -0.039469693 -0.120429 0.014089881
0001b0 3d 90 e8 3c af 53 3e 3d c2 98 bc bd 35 62 d6 bd
       0.02838909 0.046466526 -0.09208824 -0.1046795
0001c0 ad e1 90 be 22 5b fa bd 9c 20 d1 bd af e7 fb 3d
       -0.28297177 -0.122244135 -0.10211298 0.123000495
0001d0 8d 76 b6 bd 7e 49 61 bd 56 0e bc bd 0a d5 5a be
       -0.089093305 -0.05500173 -0.09182422 -0.2137033
0001e0 ca 84 e8 bd e0 ea da 3d 8e b9 3e be 6e 0c 4f be
       -0.113534525 0.1068933 -0.18625471 -0.20219585
0001f0 e9 08 8f bd eb d6 15 be 5a 84 5c bd 37 6e d9 3c
       -0.06984121 -0.14632766 -0.053837158 0.026541812
000200 c1 24 d5 3c 65 77 e3 3d ca 7d 18 be 28 8d f3 3d
       0.026018502 0.11106757 -0.14891735 0.11892158
000210 d3 5e a8 3d 39 8a 97 3d f5 34 68 bd 06 c7 5a bd
       0.08221211 0.07399411 -0.05669113 -0.05341246
000220 97 16 3c be 29 d8 88 bb 21 68 c9 bd f9 8d 10 be
       -0.18367992 -0.004176159 -0.09834314 -0.14116658
000230 57 ff 3f be be 8b a6 bc ea 34 91 3d e8 f0 ac 3c
       -0.18749748 -0.020330306 0.07090171 0.021110967
000240 d6 8b 1d 3d bb 5f 32 3e 61 35 0f bd f6 6f 1c be
       0.038463436 0.17419331 -0.034963015 -0.15277085
000250 5b c4 68 3d db 38 4c be be 18 f8 3d 80 ac 57 3d
       0.056827884 -0.19943564 0.12114094 0.052654743
000260 27 be e0 3d 92 89 17 bc 05 1d f7 bc 3e c2 21 3d
       0.10973769 -0.009249108 -0.030165205 0.039491884
000270 1a 39 f1 3d 8a 65 74 be f0 7b b0 3d 72 73 03 be
       0.117784694 -0.23866859 0.08617389 -0.12837008
000280 bf d4 1d 3e da 66 1f be 12 e9 e4 bd bf 86 15 3e
       0.15413187 -0.15566579 -0.11177267 0.14602183
000290 d9 b9 be bc d2 01 34 3e 13 93 18 3e 88 4e 2c 3e
       -0.023281978 0.1757882 0.14899854 0.16826832
0002a0 c5 51 f5 bd fe d5 f8 3d 5b c5 d7 bc 39 03 51 be
       -0.11978487 0.12150191 -0.026339224 -0.20411386
0002b0 77 b0 17 3e cd c0 af bd a6 f1 c3 bd ba 19 04 3e
       0.1481341 -0.08581696 -0.09567575 0.12900439
0002c0 05 6e 5a 3d 9f 70 1b 3e 59 9f 4d 3d c8 74 76 3e
       0.05332758 0.1517968 0.050200794 0.24067986
0002d0 08 57 4a bd 51 30 ff 3d d7 9b d0 3d f2 97 30 be
       -0.049399406 0.124603875 0.10185974 -0.17245463
0002e0 48 0a 80 3c cc 09 95 bd f9 eb 3f 3e 6a 24 10 be
       0.015629902 -0.07277259 0.1874236 -0.14076391
0002f0 53 ad 72 3c 51 20 4e be 82 77 c9 bd 4b 4f b1 bc
       0.0148118315 -0.20129515 -0.098372474 -0.021644255
000300 34 30 6e be 6e 75 f6 bc 0a c0 14 be f2 06 ae 3d
       -0.23260576 -0.030085292 -0.14526382 0.084974185
000310 cd e6 9b bd 43 98 bd 3c 64 70 fe 3d 24 68 83 3d
       -0.07612381 0.023143893 0.124237806 0.064163476
000320 47 58 f8 bd cc 0c 90 3c 25 ec a3 bd e9 94 01 3c
       -0.121262126 0.017584227 -0.08004025 0.007909038
000330 8c 5a 60 be f8 a3 59 be 81 d3 8e bd 8c 76 a9 bd
       -0.21909541 -0.21253955 -0.06973935 -0.08274564
000340 e4 df 05 be dd a4 9f be e1 84 1e 3e ad 1e 72 be
       -0.13073689 -0.31180468 0.15480377 -0.23644514
000350 14 8b 2d be cc 5c a7 3c 4e e0 fe 3d 14 0d 8b be
       -0.16947585 0.020429991 0.124451265 -0.27158415
000360 73 13 0e bc 09 7b 1b be 22 0d 0e be 8e b3 1c 3e
       -0.008671629 -0.15183653 -0.13872197 0.1530287
000370 3c fd d9 bd 5b 31 4d bd 5b a2 6b be 73 3f 87 be
       -0.10644004 -0.050095897 -0.23011152 -0.26415595
000380 1a d9 64 bd 82 85 0e be 3a 48 6f be 0f 95 7a be
       -0.055871107 -0.13918117 -0.23367396 -0.24470924
000390 c7 d3 40 bd 62 f9 72 be dc 5d 1f 3d 57 29 84 bd
       -0.047076967 -0.23727944 0.03890787 -0.064531974
0003a0 d7 a0 d6 bd af a1 9d bc 73 9e 87 bd 84 92 33 3d
       -0.104798965 -0.019242136 -0.06622019 0.0438409
0003b0 be ea 15 be 31 61 5e bd 70 69 1e be 80 3f 90 be
       -0.14640328 -0.054291908 -0.15469909 -0.28173447
0003c0 f9 4c 2b bd 65 50 23 be 57 f9 73 bd e1 49 da bb
       -0.041821454 -0.15948637 -0.05956396 -0.006661639
0003d0 f3 28 9f 3d bd 23 c5 3d 0a 14 d1 bd 76 b4 0f bd
       0.07771482 0.09625957 -0.102089 -0.03508421
0003e0 96 6e 81 3d 8e c3 21 bd 5a a9 e0 bd 10 8d ae 3c
       0.06319921 -0.039493136 -0.10969801 0.021307498
0003f0 ef 03 75 be 90 a4 05 be 48 5c b8 3d 41 98 72 3d
       -0.23927282 -0.13051057 0.09001976 0.059227232

bn1.weight f4 [64]
000000 a3 77 76 3f 11 48 87 3f 48 2d 7f 3f 53 ea 73 3f
       0.962763 1.0568868 0.9967847 0.95279425
000010 7a 08 83 3f a3 26 5f 3f 7e 79 78 3f 5c 6f 85 3f
       1.0236962 0.8716833 0.9706038 1.0424609
000020 79 5c 94 3f 15 41 7a 3f 1e 7a 81 3f 40 d3 7f 3f
       1.159072 0.9775556 1.0115392 0.99931717
000030 33 bd 7a 3f c7 b9 7c 3f c6 e8 80 3f e8 1b 6b 3f
       0.97944945 0.98720974 1.0071037 0.91839457
000040 9f 46 80 3f 68 72 7f 3f 69 08 76 3f 45 13 7c 3f
       1.0021552 0.99783945 0.9610658 0.984669
000050 3c 1d 8e 3f c6 37 7a 3f af 5e 82 3f 48 e5 6b 3f
       1.1102672 0.97741354 1.0185145 0.9214673
000060 3c 8e 80 3f d6 84 7d 3f 4a 6a 7b 3f b9 88 81 3f
       1.0043406 0.99030817 0.9820906 1.011985
000070 d5 0c 81 3f 9e 10 97 3f 20 e6 7d 3f d0 5f 74 3f
       1.0082041 1.1801946 0.9917927 0.954587
000080 4d 44 92 3f 9e ea 9c 3f 2a 9f 79 3f 21 dd 76 3f
       1.1427094 1.22591 0.9750849 0.96431166
000090 bf 63 77 3f cf 4b 7a 3f 83 f2 76 3f 74 fc 7b 3f
       0.96636575 0.97771925 0.96463794 0.9843209
0000a0 3d 94 7e 3f 8d b0 79 3f 45 e0 81 3f 3f 67 71 3f
       0.99444944 0.9753502 1.0146567 0.94298166
0000b0 c0 db 7a 3f bf 30 8a 3f dc d2 78 3f a3 81 7e 3f
       0.9799156 1.0796126 0.97196746 0.9941656
0000c0 39 06 7f 3f 1c 6c 80 3f 5f 51 8b 3f cf 7f 99 3f
       0.9961887 1.0032992 1.0884207 1.1992129
0000d0 22 02 8f 3f 50 fe 6f 3f 60 13 80 3f 6c b8 95 3f
       1.1172526 0.93747425 1.0005913 1.1696906
0000e0 36 52 7e 3f 68 87 95 3f 54 05 73 3f a2 d1 78 3f
       0.99344194 1.1681948 0.94930005 0.97194874
0000f0 a6 e8 7e 3f 48 ff 86 3f 1f b9 82 3f e9 3c 8a 3f
       0.99573743 1.0546656 1.0212744 1.0799838

bn1.bias f4 [64]
000000 6e 9c b0 3d f4 b2 49 3e fe b2 f7 3d 19 f3 0d 3e
       0.086235866 0.19697171 0.12094687 0.13862266
000010 2b 2e 46 3e 5b 37 46 be 8b 4f e6 bc 85 11 4c 3e
       0.19353549 -0.19357054 -0.0281141 0.19928558
000020 b6 c9 8c be ab 27 17 3e 50 4a ee 3d c4 63 dd 3d
       -0.27497643 0.14761226 0.11635268 0.108100444
000030 ec a5 db b9 55 99 23 3e dd 2a 1b 3e 8e 8c 8c 3d
       -0.00041894556 0.1597646 0.1515307 0.06862746
000040 1b 20 32 3e e0 0f 50 3e b0 f0 15 3e 70 0f 10 3e
       0.1739506 0.20318556 0.14642596 0.14068389
000050 d4 c5 d3 bc af 57 08 3e 54 6b 0f 3e 92 c6 c1 3d
       -0.025851168 0.13314699 0.14005786 0.094617024
000060 c3 23 26 3e 34 00 38 3e b7 f7 ce 3d be d4 e9 3d
       0.1622458 0.17968827 0.101058416 0.114175305
000070 af ec e9 3d b4 bc c4 bd cc 9a 01 3e 5d 09 b5 3d
       0.11422097 -0.09606305 0.12656707 0.088396765
000080 97 17 31 3e 49 ce 5c be c2 ef cd 3d a8 0c 10 3e
       0.17294155 -0.21563067 0.10055496 0.14067328
000090 cd e9 10 3e 9b e4 04 3e f8 09 05 3e a7 95 fc 3d
       0.14151688 0.12977831 0.12992084 0.123332314
0000a0 90 90 37 3e 2c 6f 2a 3e 7c 27 17 3e db 9e 11 be
       0.1792624 0.16643971 0.14761156 -0.14220755
0000b0 46 e1 67 3e c1 dc 5c 3e 1d e2 15 3e 9f 2a 12 3e
       0.22644529 0.21568586 0.14637037 0.14274071
0000c0 88 96 36 3e b4 63 b7 3d 4b c4 31 be e6 e2 06 3e
       0.1783086 0.08954564 -0.17360036 0.13172492
0000d0 9c 97 82 be aa 41 04 bc 33 0f 05 3e 15 6a 83 be
       -0.25506294 -0.008072296 0.1299408 -0.25666872
0000e0 be 49 0b 3e a2 77 73 be a9 b3 e7 3d cc d4 ec 3d
       0.13602349 -0.23776105 0.11313564 0.11564025
0000f0 48 a0 19 3e 0a af a8 bd da 29 2d 3e b7 8a 45 be
       0.15002549 -0.08236511 0.16910496 -0.19291197

bn1.running_mean f4 [64]
000000 ec 88 74 40 91 6d 4e 3f ab 7c d7 40 ff ac 98 40
       3.820857 0.80635935 6.7339683 4.7711177
000010 a5 6c ab 3d 4a 2d 2c 3c 88 90 c7 3e dc 4a 5e 3f
       0.08370332 0.010508845 0.38977456 0.86832976
000020 6d 10 c8 3d a2 19 33 40 b9 89 55 40 56 d0 36 40
       0.09768758 2.7984395 3.336531 2.8564658
000030 fb 30 e3 3e 1a 3b 32 40 91 43 67 40 52 3c 36 40
       0.44373307 2.7848573 3.613499 2.8474317
000040 93 4b 82 3f 94 29 d2 40 48 22 16 40 7e 64 38 40
       1.0179313 6.5675755 2.3458424 2.8811336
000050 bd c6 be 3d ab b0 59 40 8c da b3 3f 66 cc 24 40
       0.0931525 3.401408 1.405107 2.5749755
000060 df 60 b3 3f 0c 59 9b 40 7f 3c 4a 40 33 5c 82 3f
       1.4013938 4.85462 3.1599424 1.0184387
000070 67 62 b0 40 51 06 be 3e 45 16 2d 40 66 08 c1 40
       5.512012 0.37114194 2.7044842 6.032275
000080 c0 4a bf 3e 3f db 1b 3f 2e ba 59 3f 81 1c 81 40
       0.37361717 0.6088142 0.8504971 4.0347295
000090 03 55 9a 40 f5 a6 a0 40 6e 60 08 3e 7d 03 43 40
       4.8228774 5.0203805 0.13318035 3.047088
0000a0 50 da 99 40 c7 43 50 40 ec 3e 45 3f 6b e0 a7 3d
       4.8078995 3.2541368 0.77049136 0.08197101
0000b0 92 d0 eb 3c 3e c8 2b 3e e4 2d e0 3f 53 15 13 40
       0.028785978 0.16775605 1.7514005 2.2981765
0000c0 8f 2c 15 40 78 1f 04 40 70 e9 7c 3e 8a 82 e1 3d
       2.3308446 2.0644207 0.24698424 0.110112265
0000d0 29 92 17 3e 9d 73 bd 3e 9b 54 22 3f 96 df 12 3e
       0.1480185 0.37002268 0.6341035 0.14343104
0000e0 73 bb b2 3f 91 06 3d 3e db 42 7f 40 c3 f1 c0 3f
       1.3963455 0.18459536 3.9884555 1.507378
0000f0 2d 9c d6 40 7c 82 04 3f a6 21 62 3f 8a 83 2e 3e
       6.7065644 0.51761603 0.88332593 0.17042366

bn1.running_var f4 [64]
000000 93 7a 04 43 f4 47 15 41 4f 51 cd 43 3d 70 56 43
       132.4788 9.330067 410.63522 214.43843
000010 2c 10 dd 3e 18 62 26 3d cc d3 9c 40 a7 e3 23 41
       0.431764 0.040620893 4.900854 10.243079
000020 2b 76 09 3f 84 51 90 42 bb 22 f1 42 ed 3f ce 42
       0.53695935 72.15921 120.56783 103.124855
000030 6b b9 ec 40 7b 71 8d 42 9e 19 f9 42 08 71 a0 42
       7.397634 70.72164 124.55003 80.220764
000040 9d e7 6f 41 a8 44 b4 43 0c 58 72 42 fd ab b3 42
       14.994046 360.53638 60.585983 89.835915
000050 ac 64 69 3e a9 fe 0c 43 28 1b ed 41 91 81 99 42
       0.2279231 140.99477 29.63826 76.75306
000060 b8 96 c1 41 3b dd 53 43 dc c6 05 43 4d 76 b0 41
       24.198593 211.86418 133.7768 22.057764
000070 c2 7b 92 43 90 5a 94 40 e2 4d 9e 42 77 5a 9e 43
       292.96686 4.636055 79.152115 316.70676
000080 cc a9 85 40 74 b9 22 41 c1 8d 8c 41 32 c5 1b 43
       4.176977 10.170277 17.569216 155.7703
000090 50 b5 67 43 43 6d 6e 43 74 aa b1 3f e7 a9 c3 42
       231.70825 238.4268 1.3880143 97.83184
0000a0 bf 32 51 43 24 eb cb 42 e1 96 42 41 90 de d4 3d
       209.19823 101.95926 12.161836 0.10394013
0000b0 d3 f3 98 3d 19 73 1e 3f dd 8e 0f 42 21 0f 4c 42
       0.07468381 0.61894375 35.889515 51.014774
0000c0 55 f9 52 42 a8 79 55 42 88 d8 6d 40 02 bd c8 3e
       52.74349 53.368805 3.716341 0.39206702
0000d0 26 76 b7 3f 52 67 93 40 2e b1 39 40 00 9c 9a 3f
       1.4332931 4.6063623 2.9014392 1.2078857
0000e0 b9 33 0c 42 cc 32 f7 3f ab 9e 37 43 06 81 2d 42
       35.05051 1.9312377 183.6198 43.376
0000f0 aa b6 dd 43 2a 53 3a 41 c2 93 26 41 8d 52 6a 3e
       443.42706 11.645304 10.411074 0.22883053

bn2.weight f4 [64]
000000 df b4 8f 3f 87 0c 99 3f 9d 21 89 3f 90 bd 98 3f
       1.1227072 1.1956948 1.0713383 1.193285
000010 86 e1 99 3f 44 95 96 3f 0a 4c 8b 3f d3 57 9a 3f
       1.2021949 1.1764302 1.088258 1.2058052
000020 54 17 81 3f 5f b8 83 3f 0d b3 86 3f 73 81 81 3f
       1.0085244 1.029064 1.0523392 1.011763
000030 2d cd 88 3f 79 da 83 3f ed 9d 92 3f 94 2c 8d 3f
       1.0687615 1.0301048 1.1454445 1.1029229
000040 fc f3 80 3f c7 d4 8c 3f 78 4d 7f 3f 9c 15 89 3f
       1.0074458 1.1002434 0.9972758 1.070972
000050 e6 89 85 3f 46 d0 86 3f 9d 73 83 3f cd 7d 86 3f
       1.0432708 1.053231 1.0269657 1.0507141
000060 80 e1 85 3f a6 b5 89 3f 2e 2a 82 3f 9f 35 85 3f
       1.0459442 1.075856 1.0169122 1.0406989
000070 08 45 84 3f ee 7d 82 3f 1e 47 8a 3f d1 3e 8c 3f
       1.0333567 1.0194681 1.0802953 1.095667
000080 b4 3c 9b 3f e7 3c 83 3f de 7e 80 3f dc dc 7f 3f
       1.21279 1.0252961 1.0038717 0.9994638
000090 4b f8 87 3f 2a 3b 9a 3f a3 2e 9a 3f b1 1f 9b 3f
       1.0622648 1.2049305 1.2045482 1.2119046
0000a0 f2 0e 83 3f b7 a4 95 3f a6 57 99 3f 0c e5 96 3f
       1.0238936 1.1690892 1.1979873 1.178865
0000b0 b3 2a 85 3f fb ea 83 3f 3a 8f 84 3f 69 5b 87 3f
       1.0403656 1.0306085 1.0356209 1.0574771
0000c0 31 66 96 3f 92 82 89 3f 23 56 84 3f 9e f1 87 3f
       1.1749936 1.0742972 1.0338787 1.0620611
0000d0 39 62 88 3f a2 8a 7e 3f 07 27 8c 3f ed 15 85 3f
       1.0654975 0.99430287 1.094941 1.0397316
0000e0 66 0c 97 3f ea 03 84 3f ef 02 83 3f 46 69 90 3f
       1.1800659 1.0313694 1.023527 1.1282127
0000f0 b2 fc 85 3f 20 a9 8d 3f ff a8 9a 3f ee 4d 99 3f
       1.0467741 1.1067238 1.2082824 1.1976907

bn2.bias f4 [64]
000000 ed 4f 53 3e 43 44 4b be 19 f4 35 3e 6b 49 58 be
       0.20635958 -0.19850259 0.17768897 -0.21121757
000010 61 c3 88 be c7 a0 5b be a1 27 c6 3c f5 90 5e be
       -0.26711562 -0.2144805 0.024188818 -0.21734984
000020 26 ff 2b 3e fd c2 1e 3e 04 89 2f 3e c4 1a 19 3e
       0.1679655 0.1550407 0.17142111 0.14951617
000030 50 6c 39 3e 9b ac 12 3e 58 9a 1b be db d3 e2 3c
       0.18107724 0.14323656 -0.15195596 0.027688911
000040 0c c8 17 3e f2 61 33 3e 14 b6 00 3e 22 e0 52 3e
       0.14822406 0.17517832 0.12569457 0.20593312
000050 63 9f 18 3e 58 f9 9b 3d 90 f0 2d 3e 14 e3 24 3e
       0.14904551 0.07615918 0.16986299 0.16102248
000060 a7 80 14 3e f9 49 53 3e 44 d8 0e 3e 35 8a 21 3e
       0.14502202 0.20633687 0.13949686 0.15775378
000070 53 bc 3a 3e 19 ec 0f 3e ae 20 2a 3e be d0 47 3e
       0.18235902 0.14054908 0.16614029 0.19513223
000080 5d 87 73 be 85 6c c4 3d 7b e3 b7 3d 1e e5 b5 3c
       -0.23782106 0.09591011 0.08978935 0.022203978
000090 93 1e 4f 3e 28 9a 5c be b3 14 84 be 95 e8 5d be
       0.20226507 -0.21543181 -0.25797042 -0.21670754
0000a0 9d cd 28 3e e1 f8 6b be e5 68 6b be 14 cf d6 bd
       0.16484685 -0.23044159 -0.22989233 -0.10488716
0000b0 0c e2 2a 3e 66 34 26 3e 67 a9 13 3e 9b 7f de bd
       0.16687793 0.16230926 0.1442009 -0.108641826
0000c0 dd 03 3e be 14 cb 37 3e f7 17 21 3e 0d 9c fd 3a
       -0.18556161 0.17948562 0.15731798 0.0019348875
0000d0 cb b0 2f be 03 c9 0f 3e c4 66 87 bd e3 cf 31 3e
       -0.17157285 0.14041524 -0.06611398 0.17364459
0000e0 1a 30 58 be fc 1c 29 3e b9 60 0e 3e b6 03 d4 bd
       -0.211121 0.16514963 0.13904084 -0.1035227
0000f0 0b 04 2c 3e ff b0 d9 bc 8b 93 7d be b6 4f 61 be
       0.16798417 -0.026573656 -0.24763314 -0.22003064

bn2.running_mean f4 [64]
000000 8a 17 17 3f 67 6d f6 3e 41 71 27 3f 39 54 0a 3f
       0.5902029 0.48130342 0.65407187 0.54034764
000010 a5 75 e6 3d 72 77 48 3e d8 14 5f 3e 5f f4 15 3f
       0.11252908 0.19576815 0.21785295 0.58576006
000020 e8 61 0d 3f f0 34 2b 3f a5 de 22 3f 20 f1 f0 3e
       0.5522752 0.6687765 0.6362098 0.47058964
000030 77 16 1d 3f 5e ef 34 3f e4 1c f9 3d 0d 10 1a 3e
       0.61362404 0.70677745 0.121637136 0.15045185
000040 f0 52 0f 3f ac 08 50 3f 6c 0a d8 3e 9e a5 1e 3f
       0.5598593 0.8126323 0.4219545 0.6197146
000050 05 1d 46 3f 3b a8 c6 3e d9 a2 1d 3f c3 d7 15 3f
       0.7738803 0.38800225 0.6157661 0.5853235
000060 45 c1 32 3f 3a 78 42 3f 86 14 e1 3e 2a 48 00 3f
       0.69826156 0.759647 0.4396097 0.50110114
000070 b6 79 14 3f 8f 33 00 3f d2 b6 44 3f 35 a4 46 3f
       0.57998216 0.5007867 0.7684146 0.7759431
000080 a2 38 12 3e cf 82 99 3e b1 0b b8 3e 4a 29 be 3e
       0.14279416 0.29982612 0.3594642 0.37140876
000090 19 04 18 3f 72 b6 ce 3e 3d a8 8e 3e fc 09 11 3f
       0.5938125 0.4037357 0.2786273 0.5665586
0000a0 b6 34 29 3f 60 b6 e7 3e bf 1c 21 3e 82 11 ca 3d
       0.66096056 0.4525633 0.15733622 0.098666206
0000b0 73 9b 2c 3f 96 a2 cf 3e 82 08 32 3f 22 25 2a 3e
       0.67424697 0.4055373 0.6954423 0.16615728
0000c0 a6 f4 0e 3f e5 e5 05 3f 55 29 33 3f cf 72 98 3e
       0.55842054 0.52303916 0.6998494 0.29775092
0000d0 8a cd 25 3e 2e 81 e3 3e 8a 7d 28 3e 39 72 41 3f
       0.16191688 0.44434494 0.1645414 0.75564915
0000e0 f3 bb 19 3f e0 bd fc 3e 39 a1 af 3e bb 2a 4a 3e
       0.6005241 0.49363613 0.3430269 0.19742863
0000f0 22 1e 0b 3f cd e6 2c 3e 05 28 ef 3d c2 e2 20 3f
       0.54342854 0.16884919 0.11677555 0.62846005

bn2.running_var f4 [64]
000000 5e e1 7d 3f fe 49 07 3e d0 9f 84 3f 4f 9a 25 3e
       0.9917201 0.1321182 1.0361271 0.16172145
000010 54 9f 3b 3f 43 ae da 3f 12 07 d1 3f 60 c0 39 3e
       0.7328999 1.708443 1.6330283 0.18139791
000020 bf 2f 61 3f 35 d2 a8 3f 5c d7 91 3f 43 23 c0 3f
       0.8796348 1.318915 1.1393847 1.5010761
000030 f0 d9 2f 3f e7 d0 92 3f 91 0e 66 3f 48 cb 36 3f
       0.6869192 1.1470002 0.89865977 0.7140393
000040 71 cc 1d 40 61 b8 d7 3f ff 29 95 3f b6 bf 97 3f
       2.465603 1.6853143 1.1653441 1.185538
000050 e5 0e 07 40 fe 2b 1d 40 79 d9 80 3f 1e 46 e7 3f
       2.110284 2.45581 1.0066367 1.8068273
000060 79 b8 7c 3f 79 9a c2 3f 00 ca 2b 40 6a 27 2d 3f
       0.9871898 1.5203391 2.684204 0.67638266
000070 ce d9 ba 3f d1 2d c4 3f b1 69 76 3f 0f 23 91 3f
       1.4597719 1.5326482 0.9625502 1.1338824
000080 6b d2 86 3f 3c 22 28 3f 86 c1 0b 3f 1b bf 19 40
       1.0532964 0.6567724 0.5459217 2.4022892
000090 9f 47 65 3f d1 a1 e3 3d 92 00 88 3e 77 46 42 3e
       0.8956241 0.111148484 0.26562935 0.18972193
0000a0 d6 f9 fe 3f 8b 65 01 3e 5a 17 71 3f 7a 25 6b 3f
       1.9919994 0.12636392 0.94176257 0.9185406
0000b0 69 19 dd 3f 39 51 1f 3f a6 8d f1 3f ae b3 62 3f
       1.727338 0.6223331 1.8871353 0.8855542
0000c0 b8 ee 29 3e e7 b5 98 3f 7c e8 27 40 cd 3b 0b 40
       0.1659497 1.1930512 2.6235647 2.175525
0000d0 31 4b b1 3f 3f cc 00 40 04 b1 a0 3f 2c e0 f8 3f
       1.3851072 2.0124662 1.2554021 1.9443412
0000e0 10 d6 41 3e e5 fa 89 3f c4 26 8b 3f 96 f5 6a 3f
       0.18929315 1.0779692 1.0871205 0.91780984
0000f0 ab ed 0d 3f 4e ce ab 3f 01 5f 5c 3f 2c a1 3a 3e
       0.5544078 1.3422334 0.86082464 0.18225545

fc1.weight f4 [64, 135]
000000 62 a7 66 bd 6e 0b 6a bb 63 d0 fa bd 14 03 e2 bd
       -0.056311972 -0.003571238 -0.12246778 -0.11035743
000010 b3 df d5 3c 9a a7 36 bd cd 4a 81 3d 84 fd b6 3b
       0.026107645 -0.04459343 0.06313095 0.0055844206
000020 9b cc 13 3e 5e b7 2b 3d d9 ab 35 3e dd 99 e0 3d
       0.1443352 0.04192292 0.17741336 0.10966847
000030 b5 a0 72 3d ce 9b 54 3c 60 a6 d0 3c 37 99 a8 bd
       0.059235293 0.0129766 0.025469959 -0.082323484
000040 9c 59 11 bd be 0d 88 3b 7e 7e 27 3d 91 7c e5 3d
       -0.03548585 0.004152029 0.040892117 0.112054
000050 db 4d 9f 3d 70 1e ff bc 09 1d 50 3d c7 79 6d 3c
       0.077785216 -0.031142443 0.05080894 0.014494366
000060 30 a8 34 3c d2 34 52 3b e0 58 bb bb 42 6d a3 3d
       0.011026427 0.003207494 -0.005717382 0.07979824
000070 ea 1c a6 3b 92 91 1d 3d 22 45 30 3d ce ed ab 3b
       0.005069365 0.038468905 0.04303468 0.0052468544
000080 b1 25 aa bd 55 c0 0b 3e cd a0 1c 3d 7d 32 61 bd
       -0.0830797 0.13647588 0.03823929 -0.05497979
000090 b2 08 42 3e 4b d7 c2 bb 97 33 50 bd 98 92 5e 3b
       0.1894863 -0.005946075 -0.05083045 0.0033961888
0000a0 fe 08 a6 b9 00 db b7 3d 3f 77 4c bd 9a 0e d2 bc
       -0.00031668687 0.08977318 -0.04991841 -0.025641728
0000b0 06 43 56 3d d0 de 10 3c e8 b9 aa 3d 81 fe 0c 3c
       0.052310012 0.008842185 0.0833624 0.0086056
0000c0 b9 17 17 3c 32 3f 59 bd 6e 54 32 3b 85 d9 21 bd
       0.0092219645 -0.053038783 0.0027210969 -0.039514083
0000d0 e7 f6 a1 3d ff 6d 43 3d 93 c1 19 3d 1e 2b b8 bd
       0.07908421 0.047712322 0.037538122 -0.08992599
0000e0 c3 88 de 3d c1 8c 22 3d 93 84 29 3d ca d1 12 3e
       0.10865929 0.039685015 0.0413862 0.1433784
0000f0 d1 44 5f 3e 98 45 d3 3d cf d6 87 3d 83 71 da 3d
       0.21803595 0.10316008 0.06632768 0.10666182
000100 06 9b 84 3d a3 08 62 bd af e1 1d bd 2f af b7 3c
       0.06474881 -0.055184018 -0.038545307 0.022422401
000110 22 aa 1c 3e 0d 0a 8f 3d 06 ea 3a 3d bf 77 35 bd
       0.15299276 0.06984339 0.04563334 -0.044303652
000120 e9 96 3d 3d da c6 5b bd 41 7b a5 bd 43 20 26 3e
       0.046286497 -0.053656437 -0.080801494 0.16223244
000130 89 05 9d 3d fd 71 f9 3d 87 90 24 bd 8d 1d 08 3c
       0.07667071 0.12179945 -0.040176895 0.008307827
000140 43 3a d8 bc 51 89 d7 bb a2 7c 98 3d f4 4a 40 3d
       -0.026394969 -0.0065776487 0.07445647 0.04694648
000150 83 65 38 3d be 37 01 3e ba 82 3a 3d fe 49 dd ba
       0.045018684 0.1261892 0.045534827 -0.0016883013
000160 82 e9 dd bb e3 22 a9 bd 58 0e 12 3d d2 20 1c 3c
       -0.006772221 -0.08258607 0.03565821 0.009529309
000170 f6 73 07 bc 6e 14 71 bd 29 39 bd 3d 8d d9 12 3c
       -0.008267393 -0.058857374 0.09239418 0.008963001
000180 66 05 3e bc aa 7b 1a bd dd ed 6d 3c 3b d9 0c 3d
       -0.011597967 -0.03771559 0.014522043 0.034386855
000190 ea 77 9d 3d af 3c 8d 3d 67 33 55 3d f0 28 06 3d
       0.076888874 0.0689634 0.052050974 0.032753885
0001a0 f0 e4 eb 3b 7c 99 ce 3d 7e 8e d3 3c e3 29 06 3c
       0.0071989223 0.100878686 0.025824782 0.0081886975
0001b0 75 4c 6b 3d 92 01 08 3e dc 36 8f bd 77 eb 61 bc
       0.057445962 0.13281849 -0.069928855 -0.013789049
0001c0 0d 21 78 ba 03 1a ca 3d 47 c4 17 3e bb d2 d9 3b
       -0.0009465374 0.098682426 0.14820968 0.0066474355
0001d0 90 45 a5 bc 12 d6 c2 3c 41 bf 0b 3d 09 81 ee bc
       -0.020174772 0.023783717 0.03411794 -0.029114263
0001e0 2e 3e 92 bd 8b 74 75 bd 2a 00 8b bb d6 37 19 bc
       -0.07140766 -0.059925597 -0.004241963 -0.009351691
0001f0 a4 3b d1 3c e0 ce 8e 3d e0 69 15 3d 98 8c c1 bb
       0.025541134 0.06973052 0.036477923 -0.0059066527
000200 0e 1b 3f 3d 14 12 1c bc aa d5 04 3b c2 61 12 3d
       0.04665666 -0.009525795 0.0020268955 0.03573776
000210 54 b8 c7 3d c5 52 31 3e 79 1c 7c bd fb 97 ce bc
       0.09751955 0.1731673 -0.06155059 -0.025218954
000220 0a 4d 16 3c cd 66 a1 bd fc 7f ca bb ee 83 88 bd
       0.009173641 -0.07880936 -0.0061798077 -0.066657886
000230 31 19 44 bd 28 28 51 bd e9 e2 e8 3d 1c 58 bf bc
       -0.047875587 -0.051063687 0.11371405 -0.023357444
000240 23 af ce 3d e2 6e 75 bc cb 19 06 3d 2b b7 b5 bd
       0.100919984 -0.01498005 0.03273944 -0.08872827
000250 5f 8a 5c 3d 67 47 df 3d da 98 e7 bc f5 07 6c bd
       0.0538429 0.10902291 -0.028271127 -0.057624776
000260 c8 3d e6 3c 82 bb 88 3d a2 00 5d 3d ad 30 52 3d
       0.028105631 0.06676389 0.05395568 0.051315952
000270 34 e1 12 3d a0 77 77 bd 95 3b 5e 3d e1 43 70 3d
       0.0358593 -0.060416818 0.05425604 0.058658484
000280 92 9d f0 3b 25 47 89 bb 51 cf a7 bd ca 60 61 bc
       0.0073430026 -0.0041893893 -0.08193839 -0.0137559865
000290 89 03 1a 3d fb c7 fd 3d 7d af 6b 3d 3d 63 5d 3a
       0.037601028 0.12391659 0.057540406 0.00084452686
0002a0 35 83 39 bd 0f 8c b6 bb 9c 56 8b 3d 1b 2e 74 bc
       -0.045291144 -0.0055708955 0.06803629 -0.0149035705
0002b0 35 24 8a 3d f8 df 77 bd 84 bc 83 3d 00 79 12 3c
       0.06745187 -0.060516328 0.06432441 0.008939981
0002c0 ae d3 a6 bc 3a 36 95 3d de 15 a7 3d b5 d5 53 bc
       -0.020364609 0.072857335 0.08158468 -0.01292937
0002d0 b2 c4 94 3d 85 75 83 3c 82 f4 74 bc 08 10 77 3d
       0.07264079 0.016047249 -0.014950873 0.060318023
0002e0 3a d1 62 3e cc e6 7a bd 9e 30 42 3c 52 82 2e 3d
       0.22150126 -0.06125526 0.011852412 0.042604752
0002f0 c2 c4 e1 bc 8a a3 04 3d bc ad 7d 3d 00 ac 85 3d
       -0.027559642 0.032382526 0.061933264 0.06526947
000300 a4 b6 99 bd f5 99 78 3c b0 d8 91 bd 77 f9 f5 bb
       -0.07505539 0.015173425 -0.07121408 -0.007506545
000310 8f f9 0a 3e f6 94 8d bc 8d 81 87 bd c6 d4 89 bd
       0.13571762 -0.017282944 -0.06616507 -0.067300364
000320 81 b8 39 3c 13 f5 f4 bc 1d e4 b8 3c f0 95 24 3d
       0.011335493 -0.029902017 0.02256971 0.040182054
000330 9d 29 81 3d 4f 52 c9 bd 84 aa 7f 3d 30 17 0e bd
       0.06306765 -0.09830152 0.062418476 -0.034690082
000340 2e 0d 97 3d 72 6f e9 bd 84 87 19 be e2 79 69 bc
       0.07375561 -0.1139821 -0.14993101 -0.0142502505
000350 7a 3f 8a bd 54 62 86 bd 32 f8 51 bd 04 e6 00 3e
       -0.067503884 -0.06561723 -0.051262088 0.12587744
000360 5c ab c9 bc ba be 87 3d 14 2c b6 3c c5 97 86 bc
       -0.024617843 0.06628175 0.022237815 -0.016429791
000370 20 68 d7 bd 16 ff 0b bd 2a 4a fb bc c0 e3 0c 3e
       -0.10517907 -0.034178816 -0.030675013 0.13758755
000380 3a 6a 86 bd 34 c9 cc 3d 10 b6 5d 3d 88 72 36 3d
       -0.0656323 0.09999314 0.054128706 0.04454282
000390 3a ad a3 bb c6 f0 f5 3c 32 e3 b5 3d 6c d7 e8 3d
       -0.0049950154 0.030022036 0.08881225 0.113692135
0003a0 7a 90 01 3d cb 0e 7d 3d 0e 8d f6 3b 0a 8b 68 3d
       0.031631924 0.061781686 0.0075241392 0.056773223
0003b0 9c 8c 9b 3d cf 9d 6e 3d 7d 2f 37 bc 52 5f e0 3c
       0.075951785 0.058255967 -0.011180756 0.027389202
0003c0 cb 50 c0 3b 13 ff 0b 3c cc 9c ab bb 12 aa d7 bd
       0.0058690063 0.008544701 -0.0052371975 -0.10530485
0003d0 85 0b b6 bc 87 eb 0b be 7e aa be bc 3f 19 04 be
       -0.02222229 -0.13664065 -0.023274656 -0.12900256
0003e0 53 2e 92 bd c9 0e 58 bd ea 67 a6 bc 02 a7 a8 bb
       -0.07137742 -0.052748475 -0.020313222 -0.005146862
0003f0 39 6f d6 3d ee 6d 3c 3c fa 87 bb bb ef 08 2c 3d
       0.10470433 0.011500819 -0.005722997 0.042000707

fc1.bias f4 [64]
000000 e6 6f 36 3d 39 1d 48 3d b4 fe df bd 8a ae 1d 3e
       0.04454031 0.048855994 -0.10937253 0.15398613
000010 fa 65 6e bd 77 55 2b 3e 21 2c 4f 3e 0a 4a bc bd
       -0.05820272 0.16731821 0.20231678 -0.09193809
000020 21 59 00 3e 76 12 10 3e 1d d7 03 be f9 5d 19 3e
       0.12534 0.14069542 -0.12875028 0.14977254
000030 01 56 e4 3d df 75 15 3e 00 ce d0 3b 52 a9 ed 3c
       0.111492164 0.14595746 0.0063722134 0.029011402
000040 be 06 aa bc e9 9f 24 be 68 7e bf 3d 1f 58 05 be
       -0.020755168 -0.16076626 0.09350282 -0.13021897
000050 9d e3 19 be db 43 8e 3e a8 94 59 3e fe b3 6e bc
       -0.15028234 0.27786145 0.21248114 -0.014569281
000060 66 a8 63 3e 97 db 58 3e d5 6b 7e 3e 61 78 27 3c
       0.22232208 0.21177517 0.24845822 0.010221572
000070 f3 2c 1c bc f9 a2 65 3e 3c 84 69 be a5 b0 8e bd
       -0.009532201 0.2242545 -0.2280435 -0.06967286
000080 ec 29 b2 bd 9d 9d 44 bd 68 f6 01 be 99 20 96 3e
       -0.08699402 -0.048001874 -0.12691653 0.29321745
000090 5c 18 d2 3d 25 97 c0 bd 3f 2c cd bd d8 f9 63 3d
       0.102585524 -0.094038285 -0.10018205 0.05565819
0000a0 ef b9 4a 3e 3d e5 68 3e 31 33 e9 bd c0 06 0b 3e
       0.1979749 0.22743697 -0.11386717 0.13576794
0000b0 4a 98 1a 3e 29 58 4a 3e ef 44 2e bc 3f f7 04 be
       0.15097156 0.19760193 -0.010636552 -0.12984942
0000c0 f8 46 d4 bc 41 c2 3d 3e 24 ab 1a 3e 15 e7 8c bd
       -0.025912747 0.18531133 0.15104347 -0.06880013
0000d0 30 e2 4d bd 75 75 81 3e 1f 98 19 be 73 9b 44 3e
       -0.050264537 0.25284925 -0.14999436 0.19199924
0000e0 22 43 23 3e 76 0f 8b bc 97 33 36 be af e1 ac bd
       0.15943578 -0.016975146 -0.17793117 -0.08441483
0000f0 df b6 3e 3e 6c f7 35 bd 56 35 42 3e 08 77 43 3e
       0.18624447 -0.044425413 0.18965659 0.19088376

fc2.weight f4 [1, 64]
000000 6e 25 20 3e cb 90 e9 bd 42 3e 6f bd 02 63 a2 3d
       0.15639278 -0.1140457 -0.058408983 0.079290405
000010 a3 4e a1 bd ee ec 49 3e 40 38 8c 3e 49 e3 65 bd
       -0.07876327 0.19719288 0.27386665 -0.05612496
000020 7f 42 00 3e 0c c9 03 3e ed be de bb 6c 19 e0 3d
       0.12525366 0.12869662 -0.0067976625 0.10942349
000030 fa 7a 12 3e eb a2 0e 3e b4 cb 65 be fc c7 a1 3c
       0.14304724 0.13929336 -0.22440988 0.01974868
000040 a6 90 88 3c ee 63 6e bd 78 47 24 be 1e 1c 02 be
       0.016670536 -0.05820077 -0.16042888 -0.12706038
000050 b1 6a 6b bd 58 a4 d8 3d 8d ba 61 3e ca 49 81 bd
       -0.057474796 0.10578221 0.2204382 -0.06312902
000060 1d 1f f0 3d 29 27 2e 3e 26 64 e0 3d 93 ac 66 be
       0.117246844 0.17007126 0.10956602 -0.2252677
000070 10 63 eb bd 90 19 ac 3d e7 53 65 be 13 9b 2a be
       -0.11493504 0.08403313 -0.22395287 -0.16660719
000080 df 36 f0 bc 71 93 b5 bc 4c 65 03 be 89 56 ae 3e
       -0.02932304 -0.022165032 -0.1283161 0.34050396
000090 59 3a 0c 3e d7 9a 9d bb 39 44 09 3c 6b 72 56 3e
       0.13694133 -0.004809718 0.008378082 0.20942084
0000a0 5d bd 1b 3e fb fc 05 3e 6a 88 ef bd 72 70 25 3e
       0.15208955 0.13084786 -0.11695941 0.16156176
0000b0 79 84 45 3e 43 b9 c5 3d 24 e5 9d bd 2a e4 75 bb
       0.19288816 0.096544765 -0.07709721 -0.003752003
0000c0 fb 82 46 bd 48 59 34 3e 16 c1 2d 3e a6 94 06 be
       -0.048464756 0.17612183 0.16968188 -0.13142642
0000d0 e3 c9 ca bd 9f 46 21 3e 11 66 82 bd e3 65 08 3e
       -0.09901788 0.15749596 -0.06367124 0.13320117
0000e0 54 e0 bf 3d 81 a4 49 3d 3b d8 9b bd 4b 47 3e bd
       0.09368959 0.04922915 -0.07609602 -0.04645471
0000f0 a8 dd 5b 3e 6e a6 3f be 1e 0d 1b 3e de 64 9f 3e
       0.21471274 -0.18715832 0.15141723 0.31131643

exp_avg f4 [64]
000000 e7 b2 f4 bc ea 5b 9d bd ba bc a8 31 b9 93 fa bb
       -0.029870464 -0.07683547 4.9108992e-09 -0.0076470044
000010 d4 1b 88 3e 8b 18 e5 bd 52 f3 ff 3b a9 40 8f 3c
       0.2658373 -0.11186322 0.0078109885 0.017486887
000020 e3 9d 1c bf 74 3e ce bb b8 7f e6 bc 6b 9b a5 3b
       -0.61178416 -0.006294066 -0.028137073 0.0050539277
000030 8f 42 02 3e b9 7d 72 bd e5 3c 28 bc 67 3e bf bb
       0.12720703 -0.05920193 -0.010268425 -0.0058362964
000040 f8 23 ec 3d 66 85 8f bc de 2e 75 3d bc 1e de bb
       0.11530298 -0.017519664 0.05985915 -0.006778566
000050 22 12 53 3f 16 45 1a 3c 2c 46 23 be 38 48 98 bd
       0.82449543 0.009415885 -0.15944737 -0.0743565
000060 87 40 cc 3d e6 7b 90 35 19 85 53 bc 8e a3 d5 bd
       0.09973245 1.0764895e-06 -0.012910151 -0.10431586
000070 e6 d7 8f bc e2 6d 50 3d 86 4d 4f bd 04 e3 fa bb
       -0.017559003 0.050886042 -0.05061104 -0.007656457
000080 23 fd ff 3c c6 ba f7 3d 57 cf 75 bd 27 71 84 bc
       0.031248635 0.12096171 -0.060012188 -0.016167236
000090 59 69 29 bc 21 0f 06 bc 8b d2 f8 bd 54 10 24 3d
       -0.010340058 -0.008182318 -0.12149533 0.040054634
0000a0 73 0c 17 bd d3 42 b9 bc 11 9a 19 bd 04 57 6b be
       -0.036877107 -0.022614872 -0.037500445 -0.22982413
0000b0 40 c1 93 3e a7 8b e9 3e 31 a3 b0 bc 1e 0a a0 bd
       0.28858376 0.4561436 -0.02156219 -0.0781443
0000c0 cb af 96 bc c7 eb 89 bd 72 df 8f 3d 4a b0 b0 3f
       -0.018394371 -0.06734424 0.07025041 1.3803799
0000d0 95 f6 7e 3e 3f a6 f7 bc 6d e7 63 3d 3c 9c d8 3e
       0.24898751 -0.03023064 0.055640627 0.42306697
0000e0 50 bf 7f bd ec 55 57 bd 0e cd 2e bc b0 1a 6e bc
       -0.06243831 -0.052572176 -0.010669006 -0.01453273
0000f0 60 79 b5 bc 66 d7 cf 3d 86 32 fc 3d d1 09 7c bf
       -0.022152603 0.10148506 0.12314324 -0.9845248

exp_avg_sq f4 [64]
000000 8c c5 e4 39 eb 18 80 3b 45 02 aa 32 c7 7b c0 38
       0.00043634733 0.0039092205 1.9791637e-08 9.178329e-05
000010 31 0d 9b 3d 2c 61 25 3f ee 55 2b 3c 03 6b e2 3b
       0.075708754 0.646014 0.010457499 0.0069097294
000020 56 65 e1 3e 1b 19 7c 38 66 27 13 39 70 53 ce 39
       0.44022626 6.0104863e-05 0.0001403369 0.00039353548
000030 bc 13 0b 3c 9a 92 97 39 89 3b ec 38 c4 66 57 38
       0.008488592 0.0002891019 0.00011264446 5.1355702e-05
000040 40 a7 ec 3c 71 34 d3 38 b4 6f a5 3b f8 34 b0 39
       0.028888345 0.00010071032 0.0050487164 0.000336088
000050 f1 79 b8 3f d7 0c 81 3a 0c 1c 87 3b bf f0 82 3a
       1.4412214 0.0009845746 0.0041232165 0.0009989961
000060 57 a2 cd 3b 0b 52 f6 36 04 08 16 3b eb bc 07 3c
       0.006275456 7.3409224e-06 0.0022892961 0.008284788
000070 c8 81 ef 38 f6 4f f4 3c 67 71 f0 3a e4 78 b1 37
       0.00011420582 0.029823285 0.0018344343 2.1156338e-05
000080 11 f5 ac 3d 8b d5 fb 3c 01 fc a4 3b 50 93 89 38
       0.0844518 0.030741474 0.005034924 6.560108e-05
000090 e1 8e 8c 38 10 b1 62 38 8c b2 39 3c f3 20 60 3a
       6.7023335e-05 5.40475e-05 0.011334073 0.00085498317
0000a0 0f 6a 5a 3a c1 45 d3 3a 6b 45 b4 3b 20 e0 61 3f
       0.0008331844 0.0016118811 0.0055014393 0.8823261
0000b0 6c b8 15 3e 4f 80 b7 3d 08 d0 fd 3a 61 dd 3d 3b
       0.14621133 0.0896002 0.0019364366 0.0028971063
0000c0 47 3a 07 3a e5 b0 e2 3a a9 7e 8a 3c e2 1e 83 3f
       0.00051585253 0.001729515 0.0169061 1.02438
0000d0 b1 e2 af 3e b7 81 bd 3b 46 fa 84 3c d0 1c ce 3e
       0.3435264 0.0057832855 0.01623262 0.40256357
0000e0 bb f0 8e 3b f1 f3 e6 3d 19 56 07 39 c3 ea 5b 3a
       0.0043621934 0.11276997 0.00012906677 0.0008389169
0000f0 6a 7d 26 39 88 7b f3 3b 95 3e 2d 3c 71 d2 75 40
       0.00015877714 0.0074304976 0.010574003 3.8409693
