code/model_best.pth.tar (torch, 181322 bytes, 37 tensors)

conv1.bias f4 [64]
000000 94 95 f3 be 0f e0 3c 3f e2 b7 a6 bd a4 ed 4b be
       -0.47575057 0.73779386 -0.081405416 -0.19914871
000010 10 6d e2 be d1 7a 2a 3f 81 9d 4d be 67 6a 9f be
       -0.44223833 0.6659365 -0.20079614 -0.31135866
000020 15 ee b0 3d fb e6 0a bf 7d 94 27 3c ae c1 ef be
       0.086391605 -0.542587 0.010228273 -0.46827453
000030 b6 01 76 3d 7b c5 37 be e0 eb 58 bf 57 73 c0 be
       0.060060225 -0.17946427 -0.84734917 -0.37587997
000040 06 71 8f 3e d3 e0 28 3e fb 68 86 bf cd 69 10 be
       0.28015918 0.16492014 -1.0500787 -0.1410286
000050 56 9e 03 3e ab dd 5c 3c 91 74 a4 be d3 d1 03 bf
       0.12853369 0.013480584 -0.32120183 -0.5149204
000060 12 be 2e bf 73 41 f9 3c c9 86 a3 be 46 6d 59 bf
       -0.68258774 0.030426716 -0.3193877 -0.84932363
000070 0a b0 23 bf 1e 42 85 bf e8 bf 0b bf b1 e2 ab 3e
       -0.6394049 -1.0410802 -0.545897 0.3357139
000080 c8 fc 7a bf 1f 8a 99 be 85 3d e9 3d 4f f8 05 be
       -0.98041964 -0.2998819 0.11388687 -0.13083003
000090 6e 81 bc bf fa 02 91 be bd 6b 1d bf ae 2d b4 bf
       -1.4726999 -0.28322583 -0.6149252 -1.407644
0000a0 54 c0 c1 be 49 98 9d bf 36 15 84 3e 5a aa e5 3d
       -0.37842047 -1.2312099 0.25797433 0.112141326
0000b0 7d 82 ee bd a0 52 84 3d d2 4d 6d 3f 65 21 c1 3c
       -0.116459824 0.06461072 0.9269687 0.023575494
0000c0 00 00 00 00 e5 a5 4b be 43 f2 3f bd 69 f6 be be
       0.0 -0.19887502 -0.0468619 -0.3729737
0000d0 d0 aa 79 3d fc bc e7 bd 0b 08 2f bf 1f 85 13 3e
       0.060953915 -0.11315343 -0.6837165 0.1440625
0000e0 d5 fa 67 be 1e 96 ab be 80 12 b6 3d 96 1e fe 3d
       -0.22654279 -0.33512968 0.08890247 0.124081776
0000f0 e7 d5 05 bd 2e 6d 77 be 62 04 bb bd 36 86 12 3d
       -0.032674696 -0.24162742 -0.09131695 0.035772525

conv1.lin.weight f4 [64, 7]
000000 80 eb f1 bc c1 f7 24 3e 27 a5 3a bc 80 d2 ad 3e
       -0.02953124 0.16110136 -0.011391914 0.3394966
000010 5d 9f b9 bd f3 69 2f 3d c6 3b 77 be 96 24 90 3e
       -0.09063599 0.04282565 -0.24143896 0.28152913
000020 4e d0 17 be 11 d7 5f bd fc 2a cb 3d ee 26 88 3a
       -0.14825556 -0.054648463 0.09920308 0.0010387579
000030 7e 1d 19 be 51 78 24 3e 6f df 65 be 0b 92 54 bc
       -0.14952657 0.16061522 -0.22448514 -0.0129742725
000040 95 0c 97 be 46 b6 30 3e 3d 47 98 3e d3 cd f2 bd
       -0.29501787 0.17257032 0.2974185 -0.11855664
000050 66 50 6e bd bc 8f 54 be e1 67 83 ba 39 f6 fd be
       -0.058182143 -0.20757955 -0.0010025465 -0.49601915
000060 67 ef 83 3e f7 eb 62 be 70 65 dd 3c 02 74 d6 3d
       0.25768587 -0.22160326 0.027025908 0.104713455
000070 e3 f1 14 bd c5 f9 7a be 0e 18 15 be 03 a7 41 3e
       -0.036363494 -0.24509342 -0.14559957 0.18911366
000080 ab d1 89 bd 9c 87 06 3d 2b 95 c3 be ea f6 1e 3e
       -0.06729444 0.03284417 -0.38199744 0.15523878
000090 dc c1 55 3d 39 19 c0 3d 2b 8b c2 be da e1 6d be
       0.05218683 0.09379811 -0.37996802 -0.23230687
0000a0 b2 b0 a5 3e cb 4e 94 3d 44 f2 10 3e 1e c3 70 3d
       0.3236137 0.07241591 0.14154917 0.05877983
0000b0 56 02 dd 3d cb 12 95 bd ec fd a5 be 79 9f 16 bc
       0.10791461 -0.07278975 -0.3242029 -0.009193295
0000c0 99 5d ef 3c 09 fc 99 bd 93 5d 97 be bc c9 97 3d
       0.029219436 -0.07518775 -0.2956358 0.07411525
0000d0 7f 00 17 be 49 87 1e be 95 47 4d 3e c5 9c 2d 3e
       -0.14746283 -0.15481295 0.20046838 0.16954334
0000e0 96 d0 3f bf f2 0a 66 bb 6e b1 cc bd 02 3a 6d 3d
       -0.7492765 -0.0035101739 -0.099947795 0.05791665
0000f0 54 1b c5 3d 9f e7 26 be 5c 87 a9 be cc 62 df be
       0.09624353 -0.16299294 -0.33111084 -0.43630064
000100 69 d2 98 3e 31 04 5d 3d 1c 9f eb bb 6d 32 90 bd
       0.2984803 0.053959075 -0.007190598 -0.07040868
000110 46 97 57 be f8 b7 40 3d 72 aa 6e 3e 50 19 1c 3e
       -0.210538 0.047050446 0.23307207 0.15244031
000120 1a c6 1d bc 17 5b fc 3d ef 4e 07 be b1 51 76 be
       -0.009629751 0.123220615 -0.13213705 -0.240546
000130 be d7 ec bc 1c 8a 68 3e ce e5 d2 3d 6e 3b d0 3c
       -0.028911468 0.22708935 0.10297738 0.025418963
000140 c2 72 10 be 70 6e 23 ba a8 d2 fa 3d 48 8e 69 be
       -0.14106277 -0.0006234413 0.12247211 -0.22808182
000150 2d 51 a1 3d 52 ac 47 bc 17 48 d1 be b5 d6 0f be
       0.07876811 -0.01218708 -0.40875313 -0.14046748
000160 ab e0 96 3e 87 dd 1e be 99 a3 10 3e a2 ee a2 3e
       0.29468283 -0.15514193 0.14124908 0.31822687
000170 35 c7 18 3e 96 5e 52 bd 4d 41 61 3e 2f 3d 20 be
       0.14919741 -0.051359735 0.21997567 -0.1564834
000180 3c 57 a1 be 67 f8 da bc 8b 89 cf 3d d5 8e 8b 3e
       -0.31511867 -0.026729776 0.10133656 0.2725741
000190 d4 7c a9 3e e3 59 db 3c 73 70 a1 be 41 05 a7 bd
       0.3310305 0.02677626 -0.31531104 -0.08155299
0001a0 60 de 01 be 9f 23 06 bf 6d 61 78 be f7 1b f2 be
       -0.12682486 -0.52398103 -0.24255915 -0.4728696
0001b0 a9 3d 7e 3d 59 38 0c 3d 4f 11 fa 3d 50 4b ec bc
       0.062070522 0.034233425 0.122103326 -0.028844506
0001c0 7b 30 ef bc 81 2e b6 be 24 fa 28 be 4f 73 b0 bd
       -0.029197922 -0.35582355 -0.16501671 -0.08615743
0001d0 41 e7 e1 3c ce 94 57 3d b2 a9 af 3e 24 bb 8a be
       0.02757609 0.052632146 0.34309155 -0.27095902
0001e0 39 34 b3 bd 0a b8 65 3e 0b 22 17 3e 75 7c bd bd
       -0.08750195 0.22433487 0.1475908 -0.09252254
0001f0 6e 62 01 3d ba 04 f1 bb ee b6 4c 3e a2 8f 16 3e
       0.03158801 -0.0073553 0.19991657 0.14703229
000200 08 8f 4a 3e 15 a4 07 3e 1a 20 7e bc e9 0c 12 bd
       0.19781125 0.13246186 -0.015510583 -0.035656843
000210 ef e4 30 be 19 72 14 be de 87 6e 3d a2 f8 2b 3d
       -0.17274831 -0.1449665 0.05823504 0.04198516
000220 4b 9d 1e 3d b3 18 35 bc 3d b5 16 bf d5 6e 75 bd
       0.038724225 -0.011053252 -0.588703 -0.05992015
000230 ed d9 d0 bc cc 8e 0d bf af 77 82 bd c2 7a f0 bd
       -0.02549454 -0.55296016 -0.06370484 -0.11742164
000240 0d ff 3a be a2 fd 9c 3b 2a 2c 2a 3e 70 50 74 be
       -0.18261357 0.0047909776 0.1661841 -0.2385881
000250 5c 6c 81 3c db 86 5a 3d 1c b7 14 3c 7e ed 7e bc
       0.01579874 0.053351264 0.00907686 -0.015559552
000260 1e bf 90 be 5c 30 bf be 94 82 02 bf 8c ad 84 be
       -0.2827081 -0.37341583 -0.50980496 -0.25913656
000270 40 ab a3 be 88 84 96 bc 76 92 e2 3d 8f 2b 6b 3d
       -0.3196659 -0.018373743 0.110630915 0.057414588
000280 fc 1e 94 bd a6 c2 1c be ab 17 a6 ba 97 59 bb 3e
       -0.07232472 -0.15308627 -0.0012671849 0.3659179
000290 08 1c 65 3d c0 0d 91 be a9 63 4a bd eb a4 a4 3d
       0.055934936 -0.28330803 -0.04941145 0.08039268
0002a0 e4 37 e3 3c d7 76 93 be 5c 23 dc be c0 8e 09 bd
       0.027736612 -0.28801605 -0.42995727 -0.033583403
0002b0 a4 d9 85 bd 13 ac f8 3d 9e 14 d4 3c f2 62 09 3e
       -0.06535652 0.121421956 0.025888737 0.13416651
0002c0 f9 3f 49 3e 8c ee 25 3e ba 5f b2 3e d0 5b 1b 3e
       0.1965331 0.1620428 0.3483866 0.15171742
0002d0 94 8b 28 3e 26 77 b1 3d 03 80 ad 3d 5d a0 aa 3c
       0.16459495 0.08665304 0.08471682 0.02082842
0002e0 2f e0 a2 be c0 56 be 3e a7 54 09 3e ec 55 0d be
       -0.31811664 0.3717556 0.13411199 -0.13802308
0002f0 85 03 e0 bd 2a 78 83 3e 8c 94 2f 3d 43 bc 92 3d
       -0.10938171 0.25677615 0.042866275 0.07164814
000300 2b 84 67 3e b1 87 ec be d5 de e1 bd 28 d8 fe 3c
       0.22609012 -0.46197274 -0.1102883 0.03110893
000310 1b 6f 86 bc a9 2c 53 3e 0b be 27 3e c8 d2 83 be
       -0.016410401 0.20622505 0.1638109 -0.2574675
000320 74 c5 3e 3e ae 10 f5 bd ce 3c c5 bd 7f dd b3 be
       0.1863001 -0.11966072 -0.09630738 -0.35129926
000330 97 12 74 3d ea e0 69 be 11 44 67 3e d1 20 13 3e
       0.05958804 -0.22839704 0.22584559 0.14367987
000340 33 37 6c bd 85 66 42 be 42 45 7f 3e e1 76 73 3d
       -0.05766983 -0.1898442 0.24928764 0.059439544
000350 67 7c 81 be 4b a6 65 3e b5 3f 0a be f6 2e 56 be
       -0.25290224 0.22426717 -0.13500865 -0.20916352
000360 40 6c 1d 3d b3 04 a1 3e 8f 89 0d 3e 9a 92 61 bd
       0.038433313 0.31448898 0.13822006 -0.05507145
000370 2a 93 1a 3d 71 a7 04 bd 2f b9 18 bd b0 d9 5d be
       0.037738003 -0.032386247 -0.03728598 -0.21665072
000380 28 e7 80 3e 65 40 6c 3c 93 43 5b 3d 30 0e 12 3e
       0.25176358 0.01441965 0.05353124 0.14263225
000390 6a f7 3f be e9 12 b7 bd b2 f1 75 3d df a2 38 3d
       -0.18746725 -0.08939154 0.06004495 0.0450772
0003a0 9b a3 25 be 69 14 2a be bd c0 6b 3e 7d da 57 bc
       -0.16175692 -0.16609348 0.23022743 -0.01317465
0003b0 b9 2a 4d be 4d d8 c5 be a8 8d 8b 3d 48 9e d3 3e
       -0.20035829 -0.38641587 0.06814128 0.41331697
0003c0 68 64 97 3e 73 e1 8c bd 25 55 07 be 21 1a f3 3b
       0.2956879 -0.068789385 -0.13216074 0.0074188863
0003d0 78 ab 00 be 5f 75 cf 3e 05 36 c8 bd 5f 8e f8 bc
       -0.1256541 0.40519235 -0.097759284 -0.030341325
0003e0 c0 a2 70 3e 75 04 0b be e1 21 99 bd ca c5 77 3d
       0.23499584 -0.13575919 -0.07477165 0.06049136
0003f0 2b 89 01 3e 5d 5f c1 3d f6 c6 10 3e 01 bd 29 bc
       0.12649982 0.09442017 0.14138398 -0.010360003

conv2.bias f4 [64]
000000 4a 51 75 3e 0e 09 0f bf 2e da 07 be 87 f2 65 bf
       0.2395679 -0.5587319 -0.13266823 -0.8982319
000010 6f da 03 3e 6c 11 c6 be 7f 07 00 bf c8 de 59 be
       0.12876295 -0.38685167 -0.5001144 -0.2127639
000020 ec e9 b0 bd c3 53 0b bf 2d 08 53 bf 7d 0b 87 bf
       -0.08638367 -0.54424685 -0.8243435 -1.0550381
000030 23 68 c7 be 98 b2 93 bf 9e 1b 14 bf b1 86 d8 bd
       -0.38946638 -1.1538877 -0.5785464 -0.10572565
000040 60 8c 92 be d1 31 0b bf bf ca 98 be e9 5d 04 3e
       -0.28622723 -0.5437289 -0.29842183 0.12926449
000050 1b 4d 15 bf 5d ad 13 bf fa c3 6f bf ef 64 00 bf
       -0.5832078 -0.57686406 -0.9365841 -0.5015401
000060 89 4e bb be 4e 9a 07 bf da d4 1f bf 1e 20 8b be
       -0.36583355 -0.52969825 -0.6243416 -0.2717294
000070 dc bd 39 3e ad 60 06 bf f6 cc 41 bf 39 59 3f be
       0.18138832 -0.52491266 -0.7570337 -0.1868638
000080 24 6b a9 3e 42 48 65 be ec d3 95 be c4 f1 5f bf
       0.33089554 -0.22390845 -0.29263246 -0.8747828
000090 14 16 cc be 4a fa 34 bf d9 8c 32 bf 60 61 09 bf
       -0.39860594 -0.7069441 -0.69746166 -0.5366421
0000a0 34 b1 d5 be 27 f9 0f bf 5c 87 71 bf 0d 30 87 bf
       -0.41736758 -0.5623955 -0.94347167 -1.0561539
0000b0 0c 21 a6 bc b6 f5 39 be 1b 37 31 bf c9 ef af be
       -0.02027943 -0.18160138 -0.6922471 -0.3436263
0000c0 b7 92 30 be cb ea 4f be fc 55 99 bd 3c 3b 19 bf
       -0.17243467 -0.2030441 -0.07487103 -0.5985601
0000d0 1c 22 47 bf 6b 95 c4 bd 2e b2 47 be f4 37 18 bd
       -0.7778642 -0.09598812 -0.19501564 -0.037162736
0000e0 95 f0 6a bf a9 ab 5f bf a8 9d c7 3c 70 d3 26 be
       -0.9177335 -0.8737131 0.024367169 -0.16291595
0000f0 34 ad 51 be ce 61 24 be 42 ee ce 3d ef 48 1c bf
       -0.20476228 -0.16052935 0.10104038 -0.6104879

conv2.lin.weight f4 [64, 64]
000000 cd 1d 62 bc 04 e9 32 3d 80 a6 d0 be 78 14 30 3e
       -0.01380105 0.043679252 -0.4075203 0.17195308
000010 a5 9a 56 be e6 07 a5 bd db 3e e6 bc a0 da b7 3d
       -0.2095743 -0.08058147 -0.028106144 0.08977246
000020 8b 7a 2d be a8 f7 9f 3e dc f3 54 3c ff 9f 89 3d
       -0.16941278 0.31243634 0.012997594 0.0671997
000030 14 b4 44 3c 12 9c cf bd a8 27 d3 bc 5c a3 97 3c
       0.012005825 -0.1013719 -0.025775746 0.018510513
000040 7b 7b d6 bd 47 62 64 3c 86 16 c5 bd 93 69 fd 3c
       -0.10472771 0.013939447 -0.09623437 0.03093413
000050 0f be 58 bf 50 63 f1 bd dd d0 aa bc 77 d2 cf bc
       -0.84665006 -0.117865205 -0.020851547 -0.025368912
000060 f4 ec 35 be cf 3d 4f be d1 70 93 be 1f a1 60 bb
       -0.17766172 -0.20238422 -0.2879701 -0.0034275723
000070 9d 44 9d 3c e6 71 c0 be 8e a8 05 bf b7 6e b8 3c
       0.019197756 -0.37586898 -0.5221032 0.02251373
000080 03 7b 2d bc 80 dc 82 bd 6a 6b fc bd bb 93 45 be
       -0.01058841 -0.06389713 -0.12325175 -0.19294636
000090 8b 8a 90 be 2e aa 1a 3d d1 af 23 bd 91 03 ad bc
       -0.282307 0.037759952 -0.039962593 -0.021119865
0000a0 6e 1f e6 3d 4a e4 eb bd c8 1a 93 bd 98 48 cf 3c
       0.112364635 -0.11518152 -0.071828425 0.02530317
0000b0 7e 2f 34 bf e8 e1 56 3c 08 51 a7 3d 8d ad 20 3d
       -0.7038497 0.013115384 0.08169752 0.03922801
0000c0 da ab dd bd 53 bb b4 be 83 33 6c bd c9 2e c6 bd
       -0.10823794 -0.35299167 -0.057666313 -0.09676892
0000d0 9b d6 c7 be cf ef 98 bf 82 0a 52 be e0 ee ad 3d
       -0.39030918 -1.1948184 -0.20511821 0.084928274
0000e0 2c 87 35 bd cc 1a 13 3e 5b ff 56 3b 0a 30 05 be
       -0.044318363 0.14365691 0.0032806012 -0.13006607
0000f0 a1 44 18 3e 4b 04 fb 3d 11 e4 c0 be 96 09 8d bd
       0.1486993 0.12256678 -0.37674 -0.06886594
000100 d7 6d 43 3e dd da f0 bc f6 6d e3 be 54 8f d4 bd
       0.1908487 -0.029401237 -0.4441983 -0.103789
000110 b1 1a 2d be d9 98 89 3d 2a dc 8b bf 76 20 0a 3e
       -0.16904713 0.067186065 -1.0926564 0.13488945
000120 e3 78 73 bd 6e 36 85 be 57 93 42 3e ae e0 82 bd
       -0.05944146 -0.2601809 0.19001518 -0.063905105
000130 84 4d 52 bf 93 eb 2d 3d aa 23 7e 3d 64 a4 cd bd
       -0.8214953 0.04246099 0.06204573 -0.10041121
000140 48 f2 18 3d 5d ea dc 3d 91 c9 85 3e c7 72 14 be
       0.037340432 0.10786889 0.26130345 -0.14496909
000150 27 ae 02 3e 7f e6 c7 3d be b4 f3 bd a3 75 ca 3d
       0.12761746 0.097607605 -0.11899708 0.09885719
000160 d7 29 ab bd 23 71 25 3e 5c 8d 2d 3e b2 ef 55 3c
       -0.0835759 0.1615644 0.16948456 0.013057636
000170 c9 87 00 3e 8f 27 b2 be 36 7a bc bd f8 8d 04 3e
       0.12551798 -0.34795806 -0.092029974 0.12944782
000180 ca 52 0f 3e ba ef cb bd 19 04 9e 3d 6b 9d 03 3e
       0.13996425 -0.099578336 0.07715625 0.12853019
000190 12 50 96 be ed 27 1d 3e 6d 53 9e 3d 54 8d ad 3c
       -0.29357964 0.15347262 0.07730756 0.021185555
0001a0 01 e6 08 bf 56 8a 7a 3e c7 7b 30 3d 04 b8 1e 3e
       -0.5347596 0.24466833 0.043086793 0.15499884
0001b0 05 8e f4 3d f1 bc 94 3d a5 c3 cb 3c 96 f7 fc bd
       0.119411506 0.072626 0.024873564 -0.12351911
0001c0 5f 83 89 3e 59 88 b1 bd ea 8a e8 3d 13 7a 1c 3e
       0.2685804 -0.086685844 0.11354621 0.15280943
0001d0 1b 69 28 be c0 0f aa 3c a0 0b d3 3d ec 7c 9a 3d
       -0.16446345 0.020759463 0.10304952 0.07543358
0001e0 61 34 10 3e e4 4a 68 3d 42 d4 ee 3d ff be 30 3e
       0.14082481 0.056712046 0.11661579 0.17260359
0001f0 16 74 2e bf 60 11 11 3d 77 0a ac bd fe be 9e be
       -0.68145883 0.03541696 -0.084004335 -0.3100509
000200 b9 d5 1a 3e bf 78 35 bf b5 72 ff bc 5b 19 3d 3e
       0.15120591 -0.7088737 -0.031182626 0.18466704
000210 ce be bd bd 15 5e 48 be c7 03 5e bd 65 a0 c9 be
       -0.09264909 -0.1956714 -0.05420282 -0.39380184
000220 57 22 b3 bd 59 b1 13 3e cc 59 22 be 78 23 8f bd
       -0.08746784 0.14423122 -0.15854567 -0.06989187
000230 8a 45 6d bd 3d c9 a1 be 0a f7 d3 3d e3 d0 a7 bd
       -0.057927646 -0.31598845 0.10349853 -0.08194139
000240 29 7e 07 bf a9 41 49 3d 94 e9 71 bd d0 13 13 be
       -0.5292688 0.049134884 -0.059060648 -0.14363027
000250 bc 43 85 bd 58 b3 31 be dd ab bb bc 54 79 9d 3d
       -0.0650706 -0.1735357 -0.0229091 0.07689157
000260 ee 7b 15 be 9b 8c e0 bd f8 02 61 3e 6d 8c fc 3c
       -0.14598057 -0.10964318 0.21973789 0.030828679
000270 42 e7 1c 3e f3 40 9e 3c 1e 38 e2 be a8 b1 c9 bd
       0.15322593 0.01931808 -0.4418344 -0.09848338
000280 2b 1d e6 bd 2b c3 d1 bd 78 f1 0a 3d 16 1e a5 3d
       -0.11236032 -0.102423035 0.03392169 0.08062379
000290 ca 5c 85 be a2 d5 8e 3d 21 2f bc bd 5e 82 f7 bc
       -0.26047355 0.06974341 -0.091886766 -0.030213531
0002a0 79 31 1b be 53 73 a5 bc fb 6a 1a 3e 3f 4a 06 3d
       -0.15155591 -0.020196592 0.15079872 0.03278565
0002b0 e6 45 b1 be 5c 3a bd 3c 6e a0 96 3e 94 76 bc be
       -0.3462364 0.023099117 0.29419273 -0.36809218
0002c0 2d d7 2d be 82 59 ee bd 5d 21 9b 3e c3 25 5a 3d
       -0.16976614 -0.11638166 0.30298892 0.05325867
0002d0 25 f1 91 be a9 cb e6 bd 0d ba 71 3b 47 ce 46 3d
       -0.2850429 -0.11269314 0.0036884577 0.048536565
0002e0 df 84 7d be a2 5e 41 bd 21 8f 0d 3e 62 16 4e bd
       -0.24757718 -0.04720939 0.1382413 -0.050314315
0002f0 c4 76 a4 3d e2 11 4f bd 20 21 e0 be 93 83 21 3e
       0.08030465 -0.050554164 -0.43775272 0.15772848
000300 bc 81 41 bd cc 3b 68 3d 15 57 dc bd 63 ad 6d be
       -0.047242865 0.05669765 -0.10758797 -0.23210673
000310 08 ef c2 3d 93 c9 4b 3d 69 2a 08 bc c1 64 df be
       0.09518248 0.049752783 -0.008310893 -0.43631557
000320 f4 16 63 bd 4d a5 64 be bb 99 9d bd 94 f4 fc bd
       -0.05544181 -0.22328682 -0.076953374 -0.12351337
000330 48 06 df 3b 15 61 f8 bd a6 af 2f 3e be be 2b 3d
       0.0068061687 -0.12127892 0.17156848 0.041929953
000340 fe e3 e3 be a5 7b b3 3d ba 70 25 3e 4c 1c 94 be
       -0.44509882 0.08763818 0.16156283 -0.2892784
000350 a6 ad e4 3d fb 38 c3 3d 6d 5e 48 3d a1 bd 05 3e
       0.11165933 0.095323525 0.048918176 0.13060619
000360 13 e9 11 bf b3 d7 bd 3d 3b bd 18 be 0b 32 cf 3d
       -0.5699627 0.09269657 -0.14915936 0.10116967
000370 5c d1 8e be 61 fe 06 bd 59 5b 08 bf 23 de ca be
       -0.27894104 -0.03295744 -0.53264385 -0.39622602
000380 8b 6d a9 3d 0c 05 ef 3d 79 47 d0 3d 78 ac 06 3c
       0.08272847 0.116708845 0.10169882 0.008219831
000390 44 54 c6 3d 27 30 47 bc 7d 07 20 3e 08 0e 2c 3e
       0.09684041 -0.0121574765 0.15627857 0.16802227
0003a0 71 9d c3 3d ef 02 02 3e 36 d3 aa bb 5e 1f 07 3e
       0.09551514 0.12696432 -0.0052131666 0.1319556
0003b0 89 93 56 3d 9b 73 2d be d2 85 2b 3e 6d 2b 0a 3e
       0.052386794 -0.16938631 0.16750267 0.13493128
0003c0 4e b3 d4 3e 66 23 b3 be b5 fe a3 bc 7c 02 96 3d
       0.4154305 -0.34987944 -0.020018915 0.073246926
0003d0 21 24 1f 3e fb 05 6f bb e0 65 d9 3d 73 ff 6c be
       0.15541126 -0.003647207 0.10615134 -0.23144321
0003e0 d0 9d 62 be a4 69 46 be 98 6d 04 3e 48 0e 61 3d
       -0.22130513 -0.19376236 0.12932432 0.05494526
0003f0 9e df f3 3d 2e ed 4e 3d 51 3a 76 be ff 08 81 be
       0.11907886 0.05051916 -0.24045683 -0.25202176

bn1.weight f4 [64]
000000 61 c5 08 3f b6 fe 72 3f 12 b8 8a 3f e2 df 8d 3f
       0.53426176 0.9491991 1.0837424 1.1083949
000010 46 ba 5f 3f f1 a8 19 3f f5 52 00 40 08 19 03 40
       0.87393606 0.6002341 2.0050633 2.0484028
000020 6f 43 8c 3f ab 81 a7 3f 98 d3 df 3f 90 86 e5 3f
       1.0958079 1.3086447 1.7486448 1.793169
000030 79 fe 65 3f 7b 90 d7 3f 99 74 27 3f 0a 63 50 3f
       0.8984142 1.6840967 0.6541229 0.8140112
000040 56 71 a7 3f e4 45 ff 3e ad d5 07 3f b3 ba 89 3f
       1.3081462 0.4985801 0.5306042 1.0760101
000050 f0 fb 98 3f dd 21 25 3f 71 30 57 3f 00 ad fc 3e
       1.1951885 0.64504796 0.8405829 0.4935074
000060 de d9 ae 3f 70 c3 03 3f 86 a0 51 3f 47 0d 3c 3f
       1.3660238 0.5147009 0.81885564 0.7345776
000070 e6 90 a5 3f 78 3f 87 3f dd 0d d8 3f 70 34 c6 3f
       1.2934844 1.0566244 1.6879231 1.5484753
000080 a1 8c 29 3f 01 b2 60 3f ee e1 17 3f 69 e1 f8 3e
       0.6623021 0.8777161 0.59329116 0.48609474
000090 58 32 80 3f fb b4 dc 3f 43 42 2a 3f a3 5c 22 3f
       1.0015364 1.7242731 0.6650736 0.634226
0000a0 13 d1 90 3f c3 d1 fb 3e 65 5c 1f 3f 19 a9 8c 3f
       1.1313804 0.49183473 0.6225036 1.0989105
0000b0 01 ce b5 3f 6b 98 87 3f 6c 31 31 3f 1f 0d a2 3f
       1.4203492 1.0593389 0.69216037 1.2660254
0000c0 00 00 80 3f 0b d8 85 3f a6 6e 0d 3f d6 31 cb 3e
       1.0 1.0456556 0.5524696 0.3968646
0000d0 83 3d 8e 3f c9 24 ab 3f 38 26 06 3f eb 7d ae 3f
       1.1112522 1.3370601 0.5240207 1.3632177
0000e0 b9 22 ad 3f 50 5c b5 3f 6c 5b 6c 3f 12 26 7b 3f
       1.3526222 1.4168797 0.92327 0.98104966
0000f0 46 98 86 3f 64 43 4a 3f 0a 8f ac 3f 04 e7 af 3f
       1.051522 0.7900908 1.3481152 1.3742375

bn1.bias f4 [64]
000000 1d 99 61 bf 38 cd a5 3d 4a de aa be 0a 49 3d ba
       -0.8812426 0.08095783 -0.33372718 -0.00072206615
000010 09 da df be 70 9b 9f be 0c 8a b0 3e 3d c3 35 3e
       -0.43721035 -0.31173277 0.3448032 0.17750259
000020 c2 11 79 3e 97 d6 3c 3e d3 93 59 3e 68 c3 1f 3e
       0.2432318 0.18441235 0.21247797 0.15601885
000030 40 41 43 3e 63 6f 59 3e 85 73 80 bf 49 2e 08 bf
       0.1906786 0.21233897 -1.0035254 -0.53195626
000040 b6 45 59 3e ed 8c 5c bf d8 b9 a5 bf 1e 31 04 3f
       0.21217999 -0.86152536 -1.294734 0.51637447
000050 14 e2 ab 3e 3e 5a 0c bf 98 e8 94 be 66 8e 83 bf
       0.3357092 -0.548252 -0.29083705 -1.0277832
000060 1c b3 d3 3e 77 45 1e bf 39 bb 69 be 5c c2 7b bf
       0.41347587 -0.61824745 -0.22825326 -0.98343444
000070 71 36 c7 3d 1c 9a 4c be 69 16 85 3e eb ef 1a 3e
       0.09727181 -0.19980663 0.2599366 0.15130584
000080 bb 82 5d bf 93 fc bb be ed 70 0b bf 1a ca 53 bf
       -0.86527604 -0.36716136 -0.54469186 -0.8273026
000090 06 9e 25 bf 02 b4 a5 3d d7 7e 61 bf e6 e4 9d bf
       -0.6469425 0.080909744 -0.8808417 -1.2335479
0000a0 0b f6 89 be ba 7e 73 bf c8 68 c3 bd d5 78 6f be
       -0.26945528 -0.95115244 -0.0954147 -0.23385938
0000b0 21 42 01 3e ff 58 d3 3d 3f 52 3e bf ef 75 1c 3e
       0.12622882 0.10319709 -0.7434425 0.15279363
0000c0 38 06 15 bf 02 65 8a 3e db 2d 65 bf dd e5 65 bf
       -0.58212614 0.27030188 -0.89523095 -0.8980387
0000d0 41 d7 86 3e 5f 24 8f 3e 12 4b 4c bf 18 10 87 3e
       0.263361 0.27957436 -0.7980205 0.26379466
0000e0 02 d8 33 3e cb 41 31 3e 9d 2c d7 bd 35 9e 57 bd
       0.17562869 0.17310254 -0.10506556 -0.052641112
0000f0 93 38 2c 3e f6 f6 04 bf 3f ce 6b 3e 4b 4a a9 3e
       0.16818456 -0.5193933 0.23027895 0.33064494

bn1.running_mean f4 [64]
000000 21 bb 5a 3f 92 cd b3 3f 5a 51 c7 3e 4a 9a 90 3e
       0.85441786 1.404711 0.38929254 0.28242713
000010 f7 bc 07 3d 69 02 d3 3f 0f cd c1 3d 6f 3f 15 3f
       0.033139195 1.648511 0.0946294 0.58299917
000020 92 ac 4b 3d 19 3d 61 3d 6a fd 47 3e fc 93 a6 3e
       0.049725123 0.054989908 0.19530264 0.32534778
000030 7f ec 02 3f 6c 36 80 3e 95 45 c5 3e ef b7 02 3d
       0.51142114 0.2504152 0.3852965 0.031913694
000040 4a ae 9b 3f 74 41 37 3f 17 ed 7d 3f e6 62 08 3c
       1.2162564 0.7158425 0.99189895 0.0083243605
000050 6f 87 4b 3e 39 ee c6 3b 3c 1f f3 3c eb a5 e8 3e
       0.19875883 0.006070879 0.02967798 0.45439085
000060 f9 e4 93 3c be 87 c1 40 ad dc 10 3f 9a 87 80 3e
       0.018053519 6.04782 0.56586725 0.25103456
000070 96 73 76 3e c6 ce d9 3d 64 07 0b 3e 6f 44 02 3f
       0.2406753 0.10635142 0.13577038 0.5088567
000080 48 ce f8 3e a8 ff a9 3c 4d 19 a3 3f 0d d0 8b 3f
       0.4859488 0.02075179 1.2742096 1.0922867
000090 a8 04 0b 3e fe 1e ad 3e 9e 8f 67 3e 60 87 47 3f
       0.13575995 0.33812708 0.2261338 0.7794094
0000a0 f8 7e 0d 3f c2 2d 75 3f fe 97 90 3f fc 7d 59 3d
       0.55271864 0.95772946 1.1296384 0.053098664
0000b0 bf a6 00 3d e2 29 00 3f 1b 4e 95 3f bc af 86 3e
       0.03140902 0.5006391 1.1664461 0.2630595
0000c0 00 00 00 00 23 ed 4c 3c b2 23 00 40 28 68 a3 3f
       0.0 0.01250771 2.0021787 1.2766161
0000d0 e0 25 ee 3d 83 bb 17 3e e4 4a 17 40 70 1c fb 3e
       0.11628318 0.14817624 2.363946 0.49045134
0000e0 82 5a 32 3f 65 86 e2 3e e3 e3 1d 3d 80 e5 92 3d
       0.69669354 0.4424316 0.038547408 0.0717268
0000f0 12 5b b4 3d 30 42 cc 3b 1f cd 54 3e 34 15 20 3f
       0.08806433 0.006233476 0.20781372 0.62532353

bn1.running_var f4 [64]
000000 fb 5a a6 41 8c 98 8e 40 d8 14 fd 3f 7b ed 28 40
       20.794424 4.4561214 1.9771986 2.6394947
000010 c9 6f 88 3e 85 e8 90 41 5b f9 80 3e 42 06 be 40
       0.26647785 18.113535 0.25190243 5.938264
000020 af 96 ef 3c 46 81 80 3e 1f 65 81 3f 2e b3 79 40
       0.029246656 0.25098628 1.0108985 3.9015613
000030 f5 a5 cd 3f d3 93 e4 3f 0d bd a0 40 66 c4 4a 3d
       1.6066271 1.7857612 5.0230775 0.049503706
000040 04 d1 da 40 dd 22 95 40 5e 7c 80 41 76 db 41 3c
       6.8380146 4.660506 16.060726 0.011832109
000050 ba 25 8a 3e 68 86 8e 3a 73 19 56 3d 07 4d 8f 40
       0.26981908 0.0010873796 0.052270364 4.4781528
000060 9c 0a 19 3d 33 68 9e 43 78 f4 06 41 e2 5c f5 3f
       0.037363634 316.81406 8.434685 1.916897
000070 b7 99 a2 3f 96 87 80 3f 06 f2 33 3f 49 ed 52 40
       1.270316 1.0041378 0.70291173 3.2957327
000080 68 09 8e 40 73 b6 bb 3d 60 d5 a0 41 07 5c 7e 41
       4.438648 0.09165659 20.104187 15.897468
000090 fa 82 2a 3f ba 30 8f 40 39 10 8d 3f c5 b1 41 41
       0.66606104 4.474698 1.1020576 12.105901
0000a0 2b 1c 7f 40 3c 99 87 41 4e f6 40 41 47 f5 b6 3b
       3.9860942 16.949821 12.060133 0.0055834386
0000b0 12 d7 72 3d 5f 80 70 40 ad 9e 85 40 a5 43 3f 3f
       0.05928714 3.7578351 4.1756196 0.7471259
0000c0 04 00 00 00 dd 38 f4 3b 9b c8 2b 42 25 03 ac 41
       6e-45 0.0074530677 42.945904 21.501535
0000d0 cc 1c 2e 3e d5 a3 b2 3e c0 0a 59 42 e6 ad 27 40
       0.17003173 0.3489062 54.260498 2.619989
0000e0 a2 c3 d8 40 3a d7 50 40 19 2c eb 3b 56 a5 02 3c
       6.773881 3.2631364 0.0071768877 0.0079739895
0000f0 9d 89 83 3e 9b db 60 3b f1 10 00 3f ea 51 2d 40
       0.25690928 0.0034310583 0.5002585 2.7081246

bn2.weight f4 [64]
000000 3b 1c 8a 3f c2 26 82 3f c2 ae 84 3f 89 ca 8b 3f
       1.0789865 1.0168078 1.0365832 1.0921184
000010 3d e2 90 3f 77 67 87 3f b0 38 88 3f fa d1 78 3f
       1.1319042 1.057845 1.06423 0.971954
000020 60 26 89 3f 5e fa 95 3f c7 3e 8b 3f a2 3d 9a 3f
       1.0714836 1.1717031 1.0878533 1.2050059
000030 d7 e0 85 3f 5b 1d 96 3f 26 87 93 3f 02 42 2b 3f
       1.0459241 1.1727709 1.1525619 0.66897595
000040 61 ab 94 3f 8f 54 92 3f 11 5b 92 3f 93 04 6b 3f
       1.1614801 1.1432055 1.1434041 0.91803855
000050 80 e6 8c 3f 4f 80 81 3f 66 66 86 3f 61 3b 8e 3f
       1.1007843 1.0117282 1.05 1.1111871
000060 a1 6f 8a 3f d3 d5 95 3f a2 36 9a 3f 2b c6 88 3f
       1.0815316 1.1705879 1.2047923 1.0685476
000070 f5 f9 75 3f a1 fe 74 3f 35 c4 8c 3f 37 94 82 3f
       0.9608453 0.9570103 1.0997378 1.0201482
000080 fd 5e 72 3f 8e c3 7d 3f ea cb 83 3f 1c e3 8e 3f
       0.9467619 0.9912652 1.0296605 1.1163058
000090 00 1f 8f 3f 18 f7 95 3f cb 1a 8c 3f da 0c 89 3f
       1.1181335 1.1716032 1.0945677 1.0707047
0000a0 61 f3 95 3f d0 43 8e 3f 44 f2 8c 3f 7c 48 8f 3f
       1.1714898 1.1114445 1.1011434 1.1193995
0000b0 fc 72 85 3f 72 a4 79 3f 5e a0 90 3f ee 2b 91 3f
       1.0425715 0.9751655 1.129894 1.1341531
0000c0 a7 06 8b 3f 0b 83 82 3f 5d 8a 8a 3f 6f ba 99 3f
       1.0861405 1.0196241 1.0823475 1.201002
0000d0 34 5c 86 3f 97 11 82 3f 64 91 71 3f 03 ca 87 3f
       1.0496888 1.0161618 0.94362473 1.0608524
0000e0 7e ae 91 3f 9e 23 90 3f 95 2d 76 3f 55 1a 8e 3f
       1.1381376 1.126087 0.961633 1.1101786
0000f0 fc 9a 7c 3f 28 07 8b 3f 8e 5d 66 3f 24 6b 88 3f
       0.9867399 1.0861559 0.89986503 1.0657697

bn2.bias f4 [64]
000000 5f 03 bf bd c3 d7 d2 3c 0f 2e 88 be 28 59 9b be
       -0.09326815 0.025737649 -0.2659764 -0.30341458
000010 d9 fc a0 be 6c 18 4f be 61 7a a4 3d d7 25 b2 3e
       -0.31442907 -0.2022416 0.080311544 0.34794495
000020 00 90 c2 bd 81 6a d3 bd 92 9e 82 be b1 76 2f be
       -0.09500122 -0.103230484 -0.25511605 -0.17135121
000030 71 cb 4e be 7f 96 8c be e8 2d cc bb b8 21 a0 bd
       -0.20194794 -0.2745857 -0.0062310584 -0.07818931
000040 0f bc c2 3e f8 14 3b be a0 c2 54 be 80 7a 19 3e
       0.38034102 -0.18269718 -0.20777369 0.14988136
000050 2f a0 08 be 5c 26 cc be 4f 0d 77 be 52 e1 85 bc
       -0.13342355 -0.39873016 -0.2412617 -0.016342793
000060 52 cd 44 be 03 43 16 be 42 ba 56 be 11 93 40 be
       -0.19218948 -0.14674 -0.20969489 -0.18806101
000070 9d b1 2d 3e 10 42 cd 3d 9d e6 4c be 35 dc 26 bd
       0.16962285 0.10022366 -0.20009847 -0.04073735
000080 f3 55 34 bd d5 9d f5 3e cf 51 49 be e8 9c 49 be
       -0.04402728 0.4797198 -0.19660114 -0.19688761
000090 70 fc 32 be b9 ee 4d be 98 e5 3e be 9f 61 e2 3c
       -0.1747911 -0.20110597 -0.1864227 0.02763444
0000a0 bb ea 4f be e1 78 39 be 15 04 50 be 41 08 97 be
       -0.20304386 -0.18112518 -0.20314057 -0.29498485
0000b0 55 d0 23 be c9 94 7a 3e f5 07 bf 3d 73 bd 4a be
       -0.15997441 0.2447082 0.093276896 -0.19798832
0000c0 a2 e3 89 3e 92 55 80 3e 44 69 af 3a 2b 6b de 3e
       0.26931483 0.25065285 0.0013382812 0.43441138
0000d0 fc 6b 63 be ea db c2 3e d8 1f a1 3e 35 a0 46 3e
       -0.22209162 0.38058406 0.31469607 0.19397052
0000e0 ad 4d 7b be bf d6 8e be 5c 22 c0 be d2 1a 8b 3e
       -0.2454135 -0.27898213 -0.37526214 0.271689
0000f0 04 0c d8 bd 73 f3 06 be a5 7e 03 3e 2f 25 8f be
       -0.10549167 -0.13178806 0.1284128 -0.27958056

bn2.running_mean f4 [64]
000000 93 0d d4 3f 8e 3e de 3d 68 42 9d 3e 58 30 0b 3c
       1.6566643 0.10851775 0.30714726 0.008495413
000010 e3 78 b7 3f 32 87 a9 3c c3 37 3c 3e b3 08 ad 3f
       1.4333767 0.020694349 0.18380646 1.351828
000020 32 40 54 3e 30 a5 a0 3c fd 16 32 3c 95 16 02 3c
       0.20727614 0.019610018 0.010869739 0.007939954
000030 7c 59 d1 3d 4e 53 18 3c c0 47 e2 3c ec 4d e6 3e
       0.10222146 0.009297205 0.027622104 0.44981325
000040 ca 8e 73 3e 07 0e ca 3c 38 02 da 3c 5b 75 be 3f
       0.23784938 0.024664892 0.026612386 1.4879564
000050 b6 66 2a 3c 8a 6a 21 3d f2 29 ee 3b eb 54 e7 3c
       0.010400465 0.039408244 0.007268184 0.028238734
000060 e6 84 66 3d c6 a0 d1 3c da ae 04 3d c1 f4 78 3c
       0.056279086 0.025589358 0.032393314 0.015195073
000070 b6 17 c9 3f 78 79 a2 3d 0c f1 14 3c 82 cb c7 3c
       1.5710361 0.079333246 0.009090673 0.024389032
000080 a2 02 e1 3f 3f 7e 8f 3f 46 c5 15 3d 8d c1 e8 3b
       1.7578928 1.1210402 0.036565088 0.007103151
000090 9f c3 04 3d ec 48 53 3c 25 6e 27 3c cd 37 f8 3d
       0.03241312 0.012895804 0.010219132 0.12120018
0000a0 f5 ed dc 3c d4 a6 03 3d df 0f e9 3b 78 02 0c 3c
       0.026968936 0.03214152 0.0071124877 0.0085455105
0000b0 67 3d 75 3f 7b 53 20 3e f5 33 83 3d cc e0 d4 3c
       0.9579682 0.15656845 0.064063944 0.025986098
0000c0 60 a0 51 3e 93 f6 9a 3f dc 3d 56 3f 2f 34 78 3d
       0.20471334 1.2106498 0.8368814 0.06059664
0000d0 e3 29 0a 3c 0d 70 03 40 7d 97 57 3e 11 52 fa 3f
       0.008432838 2.053714 0.21053882 1.9556295
0000e0 e3 76 00 3c d7 2b 09 3c 12 85 4a 40 53 eb 1f 40
       0.007840845 0.008372269 3.164372 2.498738
0000f0 e2 f6 48 3f 87 79 74 3d 47 c1 a1 3f e1 38 6a 3c
       0.78501713 0.05968621 1.2637109 0.014295788

bn2.running_var f4 [64]
000000 67 b1 94 3f 7b 41 39 3f ed 62 db 3e 4e 3d 18 3d
       1.1616639 0.7236554 0.42848912 0.03716784
000010 84 0e 94 3f 90 a6 be 3c 29 66 96 3f 7d 1f 84 3f
       1.156693 0.023272783 1.1749927 1.032211
000020 30 b6 73 3e bb ed 19 3e c9 b6 52 3d 16 63 01 3d
       0.23799968 0.15032093 0.05144385 0.031588636
000030 74 f8 e0 3e aa 0b 1f 3d de 5d 93 3e 50 de 36 40
       0.43939555 0.038829483 0.28782552 2.8573189
000040 60 73 aa 3f 50 08 6c 3e 07 87 4c 3d 1f 00 9d 3f
       1.331646 0.23050046 0.04993346 1.2265662
000050 38 40 2f 3d 1b f3 1f 3e a8 83 de 3c 7b 74 5f 3e
       0.042785853 0.15620081 0.027162388 0.21821778
000060 a5 6e a1 3e d0 ac f7 3d 19 73 ce 3e ca 40 3c 3d
       0.31529728 0.12093508 0.40322188 0.045960225
000070 44 5a 81 3f 65 e7 e4 3e f7 a4 10 3d ec 35 4e 3d
       1.0105672 0.4470779 0.035313573 0.050344393
000080 c5 2a 83 3f 33 42 2d 3f de 29 b5 3d ab dd e0 3c
       1.0247427 0.67679137 0.08845876 0.02744945
000090 63 99 e0 3d 0e 3f 8b 3d 75 ec 2a 3d de e6 76 3f
       0.10966756 0.06799136 0.04172941 0.96446025
0000a0 14 85 a6 3d a9 3f 57 3e 74 eb c3 3c a3 2f f8 3c
       0.081308514 0.21020378 0.023915984 0.030296152
0000b0 4c f7 3b 3f e7 88 09 3f 60 79 c2 3e 8a 9c fa 3d
       0.7342422 0.5372452 0.37983227 0.12236889
0000c0 16 ec 89 3f e6 db 35 3f e9 14 e8 3f 29 dd cb 3e
       1.0775173 0.71038663 1.8131381 0.3981717
0000d0 6d 84 15 3d ca f7 95 3f 5a 18 05 40 83 7d c3 3f
       0.036503244 1.1716244 2.0796113 1.5272678
0000e0 86 22 08 3d b8 f5 0c 3d 46 e6 1d 40 4c 94 d2 3f
       0.03323605 0.034414023 2.4671798 1.6451507
0000f0 b4 64 48 3f c7 2f b9 3e 6c 02 60 3f a7 a9 57 3d
       0.7827866 0.36169264 0.87503695 0.052652027

fc1.weight f4 [64, 135]
000000 e6 97 a1 bd 01 29 46 bd 54 9d 3d be d4 a2 5d 3e
       -0.078903005 -0.048378948 -0.18517047 0.21644145
000010 9f db a1 3d 9b a7 8e 3c 42 52 8e 3c 53 53 92 3b
       0.079032175 0.017413905 0.017373208 0.0044654994
000020 b8 75 bc 3c bd 2e ab 3c bf 4d 8b 3b 58 4d 98 3d
       0.023005351 0.02089631 0.0042512114 0.07436627
000030 24 a5 0a be 53 d5 c4 3d f0 74 79 bd a0 29 8b be
       -0.13539559 0.09611001 -0.060902536 -0.27180195
000040 b1 46 eb 3d fd ea 3e bf eb 45 3a bf cc b8 ed 3d
       0.11488093 -0.74577314 -0.72762936 0.11607513
000050 ca d5 d9 be 31 83 ca 3d 08 0d e5 3d 04 ca 8e 3d
       -0.4254592 0.09888304 0.11184126 0.06972125
000060 4f 52 db 3b 6f 5c 52 bc 19 ea 85 be 0b 05 16 bf
       0.0066931616 -0.012839421 -0.26155165 -0.58601445
000070 ec 40 ea 3d d9 bc 84 bd 70 37 e3 3c b4 2f 01 be
       0.11438164 -0.06481332 0.027736396 -0.12615854
000080 07 a3 78 bd 13 24 08 bd 2e 8f 40 3d a6 2b aa 3d
       -0.06070235 -0.033237528 0.047011547 0.083091065
000090 2d 58 01 bb d3 73 52 be 17 bd b6 be a3 0b ac 3c
       -0.0019736395 -0.20551996 -0.3569114 0.021001643
0000a0 04 7c 46 3d 5f 77 9b bd f5 f6 8b 3c 6c 97 c0 3c
       0.048458114 -0.075911276 0.017085532 0.023509704
0000b0 22 65 da be 4e 97 d5 bc 27 d0 16 3d 74 70 1b 3e
       -0.42655283 -0.026073124 0.036819603 0.15179616
0000c0 1a 95 2f 3d e4 74 0a bc bb 8b 4d 3e db 37 4b 3d
       0.042866804 -0.00845072 0.20072834 0.049613815
0000d0 7d af da 3d 05 49 63 be 39 ef 0d 3e 1b e3 b5 3d
       0.10678003 -0.22195823 0.13860787 0.088812076
0000e0 f1 fb 58 be 64 99 9c bc fe ea 87 bb e6 2f 1f bf
       -0.21189858 -0.019116111 -0.0041478863 -0.6218246
0000f0 6c f7 a5 be e9 4d 1e bd fc a6 16 bf 7a 2c 25 bd
       -0.3241533 -0.03864852 -0.5884855 -0.04032562
000100 f0 a4 24 bf 20 5b e1 3a 5b 6c 7c 3e 8c 29 b5 be
       -0.64314175 0.0017193295 0.2465071 -0.3538326
000110 98 93 9b 3e a9 25 f4 be 07 b9 59 bd fc 00 36 3d
       0.30386043 -0.47684982 -0.05315497 0.044434533
000120 62 83 46 be 2d 0d 14 3d f6 f1 c6 3d 9e 94 3e 3d
       -0.19386056 0.036145378 0.09714119 0.04652845
000130 55 27 9e 3d 0a 16 16 be 86 b0 4c bc ea f8 9c bc
       0.07722346 -0.14656845 -0.012493258 -0.01916166
000140 3d a7 e8 bb 70 f8 92 3d 47 02 d8 3d 34 ad 31 bd
       -0.0071000145 0.07176292 0.10547309 -0.04337807
000150 89 ca f5 3d 0e 0b a3 bc c2 0e b8 3d 60 69 8e be
       0.12001521 -0.019902732 0.0898719 -0.2781477
000160 0b 23 8c bd e6 5b 77 bc 9f 35 93 3d 45 5d 7e 3d
       -0.068426214 -0.015097594 0.07187962 0.062100668
000170 7c 0e fa 3d 53 40 e0 bc cd 22 91 bd 72 e1 0b 3c
       0.12209794 -0.027374422 -0.07086716 0.008537637
000180 fa d1 5b bd 38 dd dc 3d a9 b1 e6 3d d9 fe f7 bd
       -0.053667046 0.10784382 0.11264355 -0.12109155
000190 11 d2 33 3d 69 23 2e 3d 08 8e da 3d 7c 3f 3b bd
       0.043901507 0.04251424 0.106716216 -0.04571484
0001a0 6f 39 75 3c e0 66 68 bd aa 13 16 3e 27 3d 69 bd
       0.0149673065 -0.056738734 0.14655939 -0.056943085
0001b0 a9 ef 04 3e df fc 4f 3d ba 24 5d be ae 8b c5 3d
       0.12982048 0.050778266 -0.21596041 0.096457824
0001c0 a5 5f d5 3d b7 ae 0e bd 0e 6f 80 3d b9 0d 45 3d
       0.10418633 -0.03483459 0.06271182 0.04810879
0001d0 57 fa 96 3d 48 f7 b2 be 27 9d 8e 3c a3 f0 62 be
       0.07371967 -0.34954286 0.01740892 -0.22162108
0001e0 1f d8 1f 3e c1 f4 84 3c 4b fb 14 be e8 6d 98 bc
       0.15609787 0.016229989 -0.14548986 -0.018607095
0001f0 15 b3 ce 3d e2 be 0e be 43 28 15 3e 33 23 f1 3d
       0.10092751 -0.13940004 0.1456614 0.11774292
000200 3f a7 be 3d b6 0b eb bd 65 35 e6 3b 98 25 ab 3d
       0.093092434 -0.11476843 0.007025408 0.0835678
000210 b3 ec f2 3b bd de 0d 3d 86 08 3a 3d 57 a1 29 be
       0.0074134707 0.034636248 0.045418285 -0.16565453
000220 0a 8e 06 bd 1d 75 90 bd d2 9f 46 3e a1 41 a9 3d
       -0.032850303 -0.070535876 0.19396904 0.08264471
000230 4d c1 5e bc 30 6e 24 3c ce ec b8 bd 53 fb df bb
       -0.013595891 0.010036036 -0.09029542 -0.00683538
000240 73 ac 38 3d 31 df 7a 3d 7d b5 a8 3d 5b 92 80 bd
       0.045086335 0.06124801 0.08237741 -0.06277915
000250 42 8a 05 3d 0c c5 57 be 1e 7d 38 bf 3d 87 db bd
       0.032602556 -0.21071261 -0.72065914 -0.10719154
000260 8c ae b4 3c df 27 03 bf f2 ee e6 bd fb d3 6b 3d
       0.022055887 -0.51232713 -0.11276044 0.057575207
000270 0e 55 7d bc e7 ba 5b bd 37 0c 96 bd 48 e6 11 bd
       -0.015462173 -0.05364504 -0.073265485 -0.035620004
000280 bd 42 95 bd b5 17 75 bc 0d 3f 14 bf 0f 1d 5c 3d
       -0.0728812 -0.0149592655 -0.5790871 0.05373865
000290 1a 57 a6 3b d7 9a 3d be a0 24 f3 bd 5e 21 6f bc
       0.0050763013 -0.18516098 -0.1187222 -0.014595358
0002a0 65 41 da bd 54 9d 49 be c2 03 f0 3d a8 3a 1f 3e
       -0.10657004 -0.19688922 0.11719467 0.1554972
0002b0 91 a1 f9 3d f4 e6 e4 be 51 54 e9 3b 42 40 bc 3d
       0.121890195 -0.44707453 0.007120647 0.09191944
0002c0 c2 1c d2 3b e1 27 8a 3c 7c f6 a8 bc 34 04 16 bf
       0.0064121196 0.016864719 -0.020625345 -0.58600163
0002d0 ce c0 2e bd b2 d8 05 be 97 2a 76 bc 11 8d ab bd
       -0.04266434 -0.13070944 -0.015024803 -0.08376516
0002e0 ef 12 4e bc aa 8e 06 3e 9d 16 39 be b0 bd 89 3d
       -0.012577756 0.1314036 -0.18075033 0.06725633
0002f0 d3 7a 46 be 7f a1 e6 bc 86 19 3e 3d 03 0e bb be
       -0.19382791 -0.02815318 0.04641106 -0.36534128
000300 f2 34 a0 3d 70 92 fb bc ff 4d 18 bf 78 3c 26 bf
       0.078225985 -0.030709475 -0.5949401 -0.6493602
000310 9f b9 40 bd 17 63 cf 3d 48 a9 90 3d 3f a2 fd 3d
       -0.047052022 0.10126322 0.07063538 0.123844616
000320 bc 4f 9d bb 4f e0 17 3e 0a 1e 4f 3e 63 ff 86 3e
       -0.004800765 0.1483166 0.20226303 0.2636672
000330 15 df 18 be b7 e5 bd 3d a8 03 1a 3e d2 63 e4 be
       -0.14928849 0.0927233 0.15040457 -0.44607407
000340 2c d2 9f 3d 4d 57 c9 3b 45 8a 12 3d 02 61 12 3d
       0.07803759 0.0061444403 0.035776395 0.035737045
000350 2d 04 ea bd 8d 60 7d be 7e 26 a4 3d e9 eb 13 3e
       -0.11426578 -0.24743862 0.08015154 0.14445461
000360 60 48 f4 3c 6a e9 df 3d 99 28 12 bd 11 53 fc 3d
       0.029819667 0.10933192 -0.03568325 0.12320531
000370 5f 9f 61 bc 2b de a0 3d 2c a1 55 3c e1 cf f7 3d
       -0.013770907 0.07854875 0.013038915 0.12100197
000380 65 42 1f 3e 11 e4 27 3c 03 fc 60 3d 16 9a 8a bc
       0.15552671 0.010247246 0.054927837 -0.016919177
000390 b1 06 12 3d 12 44 91 3d 81 99 01 bd ea 49 9d bb
       0.035650913 0.070930615 -0.031640533 -0.004800071
0003a0 24 af 66 3d 08 35 09 3d 55 ad 60 be ba e7 95 3b
       0.05631937 0.03349784 -0.21941121 0.004574743
0003b0 e0 23 43 bd 05 a9 47 3c dc 3c e9 bd f5 1f 4a be
       -0.047641635 0.0121862935 -0.11388561 -0.19738753
0003c0 d7 71 7e bc 21 b9 41 3a 29 0a 17 3d 9f 1b a8 3d
       -0.015530071 0.0007389952 0.036874924 0.08208393
0003d0 9c a7 c3 3d 91 db 93 be 08 01 b9 3d f5 05 33 3d
       0.09553453 -0.28878453 0.090334 0.043706853
0003e0 3e 92 5a 3d ca 46 02 3b ba f7 28 3e bf d5 4b 3d
       0.053362124 0.001987862 0.1650075 0.04976439
0003f0 a3 fb d8 be 03 1a aa 3d 2f 74 84 be dc fc c1 bd
       -0.42379484 0.083057426 -0.2586989 -0.09472057

fc1.bias f4 [64]
000000 06 ee c6 be 76 ec 7d be f5 20 1f bf 76 16 2c bf
       -0.38853472 -0.24797234 -0.62159663 -0.6722177
000010 2a b4 8b 3e fc 78 7a 3e 59 cc 02 be 97 c2 1e 3e
       0.27285892 0.24460214 -0.12773265 0.15503918
000020 c9 ff bf be 16 47 8a be a8 d6 0c bf bd 77 11 be
       -0.37499836 -0.2700736 -0.5501504 -0.14205833
000030 73 60 0d 3e 1a a9 9b 3e be 96 58 3e 64 af fb be
       0.13806324 0.30402452 0.21151254 -0.4915725
000040 09 84 30 3e b1 29 a9 3d 38 02 8a 3d ad b5 4e 3e
       0.17237867 0.08259905 0.067387044 0.20186491
000050 63 09 d9 3c aa 3d 47 bd d3 c0 6f be 91 bc 3a bf
       0.026493734 -0.04864279 -0.234134 -0.7294398
000060 1d e8 ed be f8 8d f2 be 85 32 34 bf 8d f0 80 3e
       -0.4646615 -0.4737394 -0.70389587 0.25183526
000070 22 27 0f 3d ac 00 be 3d f2 d7 41 bf 60 bf ec be
       0.03494943 0.09277472 -0.7572013 -0.46239758
000080 88 f2 45 be 60 4d 6d 3e 0f cf 6f bf 42 45 22 bf
       -0.193308 0.23174047 -0.9367532 -0.6338693
000090 34 53 b7 3e a3 07 d0 b9 4b 36 23 bf 71 7e d5 bd
       0.35805666 -0.0003967854 -0.6375472 -0.104245074
0000a0 3e 00 37 bf 4f 5d 3f bf b0 1c 9d 3e fb 2c a5 3d
       -0.71484745 -0.7475175 0.3068595 0.0806522
0000b0 e0 88 9e 3e 46 1b 8b bd 74 6a 5e 3e 49 c3 fb 3e
       0.30963802 -0.06792311 0.21720296 0.49172428
0000c0 3b c7 e9 3d e7 b1 81 be 05 f0 e1 3d 29 62 8a 3d
       0.11414953 -0.2533104 0.11032108 0.06757004
0000d0 05 cd 40 be 00 79 67 bd 76 76 31 be 1f 79 da 3d
       -0.18828209 -0.05651188 -0.17330346 0.10667633
0000e0 ab 0e f9 3c d8 25 18 3c b1 22 00 3e 62 9b 92 bd
       0.030402502 0.009286366 0.12513234 -0.07158543
0000f0 97 32 58 3e e0 6e 47 bf 4b 2a ae bd 02 8c 81 3e
       0.21113048 -0.77903557 -0.085041605 0.2530213

fc2.weight f4 [1, 64]
000000 59 12 6b 3e 8f 89 86 3e 5e dc 10 bf e6 b7 a5 3e
       0.22956218 0.26276824 -0.56586254 0.32366866
000010 1a 3d 01 bf 77 e8 15 bf 7c 44 5d 3e 20 5f f6 be
       -0.5048386 -0.5855784 0.21608156 -0.4811945
000020 2d 47 94 3e 4c fa 62 3e d0 dd 38 bf 3c 58 8d 3e
       0.28960553 0.22165793 -0.7221346 0.2760638
000030 fd 07 25 bf 28 ff b1 be 4c cd 41 3e 04 4d 83 3e
       -0.64465314 -0.3476498 0.18925971 0.25644696
000040 80 79 1b 3e 74 ac 19 3e 50 75 b9 be 1f a3 12 bf
       0.15183067 0.15007192 -0.36222315 -0.57280153
000050 eb c7 3f 3e ca 00 46 3e 74 bf 58 3e 6f 6c 48 bf
       0.18728606 0.19336239 0.21166784 -0.78290457
000060 8d 6d 07 bf 5b d6 89 3e 82 95 9b 3e 37 12 d2 be
       -0.52901536 0.26921353 0.30387503 -0.41029522
000070 6d 29 3a 3e 92 c9 49 3e da 95 51 bf e7 fe 96 3e
       0.18179865 0.19705799 -0.8186928 0.2949135
000080 80 6b 8c 3e 83 4d 2f bf 59 8f 13 bf 36 ea 0b 3f
       0.27425766 -0.6847765 -0.57640606 0.5465425
000090 02 10 cf be bf 7b 1a bf e1 ef 52 bf 9d 72 02 bf
       -0.404419 -0.6034507 -0.82397276 -0.50956136
0000a0 9d 5c 5b bf d4 04 3b bf 35 87 15 3e d0 b3 29 3e
       -0.8568819 -0.7305424 0.14602359 0.165725
0000b0 af 86 1b 3e 83 76 59 3e f0 bd 31 3e 08 4e a7 be
       0.15188096 0.21236615 0.17357612 -0.3267672
0000c0 a7 ea 40 3e d4 8f 65 3e c6 2b 20 bf 98 6e 71 3e
       0.18839513 0.22418147 -0.6256679 0.23577344
0000d0 dc ea 6d 3e de f3 68 3e e0 67 86 3e 65 54 2c 3e
       0.23234123 0.22749278 0.26251125 0.16829069
0000e0 23 34 24 bf aa b4 35 3e 41 9f 34 3e 67 1c 67 3e
       -0.64142054 0.17744699 0.17638876 0.22569428
0000f0 be 26 ca be 73 17 f2 be ee 2c 7e 3e f3 c1 1b 3e
       -0.39482683 -0.47283515 0.24821827 0.15210705

exp_avg f4 [64]
000000 25 85 de 3c 98 11 a6 3d 88 f2 6a 3e 18 2d 03 3e
       0.027163098 0.081088245 0.22944081 0.1281017
000010 2b dd 5c bd 94 85 16 ba bf 60 e3 be a8 75 47 be
       -0.05392186 -0.00057419506 -0.4440975 -0.19478476
000020 0a 25 07 40 3f 6d 11 be 56 5f 9c 3e d8 77 6f be
       2.1116357 -0.1420183 0.30541486 -0.2338556
000030 98 fb 1c bc cf 6b 57 bd 44 5a 4d 3d d0 3c 3a bd
       -0.009581469 -0.05259305 0.050134912 -0.04546815
000040 37 d5 0c 3f 00 31 8f bc ad 26 85 bc c3 1b e7 bd
       0.5501284 -0.01747942 -0.016253794 -0.11284592
000050 f3 ac 52 be 40 b1 a5 3f 15 64 d5 bd 50 8c 16 3c
       -0.20573787 1.2944717 -0.1041948 0.009188727
000060 48 2e 80 bd dc e0 6e af 05 02 53 bd 51 60 11 bb
       -0.062588274 -2.172586e-10 -0.051515598 -0.0022182653
000070 5e 15 2c bf 15 e8 29 3e 02 39 70 3f 37 b4 61 3f
       -0.67220104 0.16592439 0.93836987 0.8816561
000080 3b eb 7f 3c 84 8a 2d bc c1 10 ff bb 34 eb db ba
       0.015620048 -0.010592107 -0.0077839796 -0.001677847
000090 69 4f e4 3e 62 72 fe 3b 61 6f 1b 3e 90 3f 15 bc
       0.44591835 0.0077651003 0.15179206 -0.009109393
0000a0 5a 53 0a 3e 64 57 af 3b 05 5c 4e bd 41 3f 14 c0
       0.13508359 0.005350994 -0.050380725 -2.3163607
0000b0 5e ff d5 3c fa 7c 82 bd 51 10 a2 bc c5 f7 62 3e
       0.026122745 -0.06371494 -0.01978317 0.22164829
0000c0 00 00 00 00 27 1b ae 3e 41 a4 4b 3c 9f 84 67 3c
       0.0 0.3400509 0.012429298 0.01413074
0000d0 57 5c 0b be d2 48 7f bc 0b 0e 63 bb 05 1d 29 3e
       -0.13609444 -0.015581327 -0.0034645821 0.16514976
0000e0 93 61 67 bf d0 3e a2 3d b8 10 aa be 71 e6 89 bf
       -0.9038326 0.07922137 -0.3321588 -1.077345
0000f0 40 32 0f bd 20 7e d0 3e 8d 53 b1 be a3 92 e4 3d
       -0.03496003 0.40721226 -0.34634057 0.11160781

exp_avg_sq f4 [64]
000000 aa 13 d3 39 98 4f 9a 3b 50 c7 57 3c 48 49 78 3c
       0.00040259707 0.0047091953 0.013170078 0.01515419
000010 e5 b2 0a 3b 42 97 37 39 a7 6a 57 3d 48 fe 3e 3f
       0.0021163758 0.00017508588 0.052591946 0.7460675
000020 c1 36 af 3f f7 aa 05 3c 56 b5 08 3e 9e 40 ef 3b
       1.3688585 0.008158437 0.13350424 0.007301404
000030 f3 61 8e 3c f2 3f d6 3b d3 45 c1 3b 06 b3 43 3e
       0.01738069 0.0065383846 0.0058982163 0.19111261
000040 4c cb d0 3e 01 f1 3f 39 95 6a 49 3a 2a c5 bd 3c
       0.40780103 0.0001830496 0.00076834235 0.023165304
000050 b1 e3 91 3e 62 b3 80 3f f6 45 00 3c b9 e7 a2 39
       0.28494027 1.0054743 0.00782918 0.00031071695
000060 b5 38 28 3d 5e c7 84 21 19 b9 3d 3b bd d4 3b 3a
       0.041069705 8.99744e-19 0.0028949438 0.00071651844
000070 0b 66 1b 3f 3c 42 38 3c c8 28 e8 3e 44 01 b7 3d
       0.6070258 0.01124626 0.45343614 0.08935788
000080 26 0e e2 39 62 91 42 39 24 21 8e 38 6f 81 ff 38
       0.0004311662 0.00018555441 6.7772606e-05 0.000121834564
000090 1c 3e 7e 3e b5 dc b2 3b 30 81 ec 3c 4d 56 53 3a
       0.2482838 0.0054584392 0.028870195 0.0008061871
0000a0 42 02 cc 3c 3e a7 7a 38 b6 d7 7e 39 64 6c 5d 40
       0.02490342 5.97604e-05 0.00024303686 3.4597406
0000b0 fe 0d b4 3d 5d a4 40 3d 4a e3 9c 3a c9 be 62 3e
       0.08791731 0.04703175 0.0011969593 0.22143091
0000c0 00 00 00 00 11 4b 8d 3e 72 04 0b 39 97 25 47 39
       0.0 0.27596334 0.00013257729 0.00018992122
0000d0 54 14 dc 3e c4 88 86 3d 0a 4b 4f 38 2c 13 b1 3d
       0.4298426 0.06569055 4.942253e-05 0.08646235
0000e0 6d cf 9b 3f d1 05 63 3b 89 cd 73 3f 6f e0 34 40
       1.2172676 0.0034640918 0.95235497 2.8261983
0000f0 ec 54 9e 3c c2 69 fe 3d bb 32 09 3f 8f b4 22 3d
       0.019327603 0.124225155 0.53593034 0.039722975
