code/model_best.pth.tar (torch, 181322 bytes, 37 tensors)

conv1.bias f4 [64]
0.08735236 -6.35661e-05 -0.0023685037 -0.00014976098 -0.0017807108 0.08162321 -0.022027355 -8.676947e-05
0.0005772591 0.019229483 0.07652268 0.07828349 0.02797406 1.3204984e-05 1.0746499e-05 0.00029989268
-0.0341034 0.048468832 -0.0039549503 0.0318315 0.003349891 0.0033618324 0.054687154 0.00081860734
0.009753143 0.08387113 0.06820268 0.010235331 0.043843877 0.00016764045 0.008362364 0.024731966
0.040121395 0.023044389 0.014925723 0.008788606 1.1535586e-05 0.048709888 0.027095407 0.019552497
-0.00014069205 0.027850958 -0.044216275 -0.026523432 0.0066051916 0.013795194 -0.00010052414 0.03405174
-0.00088853744 0.004384603 0.020803833 -0.002830367 0.023064416 0.022469098 0.007601769 0.075634286
0.00013861383 0.066463426 0.08060929 0.0004222927 0.061048847 0.007251107 0.0503536 0.032585207
00000000: cbe5 b23d ca4e 85b8 e638 1bbb 2809 1db9
00000010: bd66 e9ba 122a a73d b672 b4bc 01f8 b5b8
00000020: 3453 173a 2687 9d3c ecb7 9c3d 1853 a03d
00000030: db29 e53c f98a 5d37 dd4b 3437 ea3a 9d39
00000040: 02b0 0bbd 4187 463d 8798 81bb bf61 023d
00000050: d889 5b3b 3052 5c3b a3ff 5f3d cf97 563a
00000060: a6cb 1f3c a1c4 ab3d d9ad 8b3d 17b2 273c
00000070: a395 333d a4c8 2f39 4c02 093c b19a ca3c
00000080: 5556 243d 96c7 bc3c 058b 743c 16fe 0f3c
00000090: f788 4137 0584 473d 30f7 dd3c 8f2c a03c
000000a0: bc86 13b9 b127 e43c 201c 35bd ab47 d9bc
000000b0: 5d70 d83b 3d05 623c 7dd0 d2b8 d679 0b3d
000000c0: bdec 68ba b7ac 8f3b cd6c aa3c ae7d 39bb
000000d0: 96f1 bc3c 1d11 b83c 4318 f93b 26e6 9a3d
000000e0: de58 1139 fa1d 883d 7c16 a53d 2b67 dd39
000000f0: 5b0e 7a3d b29a ed3b 943f 4e3d 1178 053d

conv1.lin.weight f4 [64, 7]
-0.050470613 -0.21251209 -0.19076687 0.04207575 0.18034185 0.0889663 0.3056166 -0.016034096
0.006066811 0.044031236 -0.21256174 -0.23071316 0.18123262 -0.00010216022 0.11673325 0.30402675
-0.24605718 0.19940689 0.051734433 -0.13642646 -0.13143918 -0.2613267 0.099625245 0.12189444
0.15051015 0.31462297 -0.11425298 -0.16698694 0.08659649 0.2460931 0.26896143 -0.0007941624
0.07550563 -0.27299547 -0.015707001 0.06677589 -0.19781558 -0.08099044 -0.07152144 0.26564488
0.14068371 0.2554999 -0.101033345 -0.050253555 -0.14528982 0.09899184 0.14264551 0.023346312
-0.2090326 -0.2693727 -0.03341479 -0.004654491 -0.19827631 0.16768205 -0.028946627 0.10973665
-0.009992992 0.17474796 -0.11636739 0.06167438 -0.20341757 0.2927635 0.09690478 -0.18888052
-0.054805905 0.06379595 0.23731297 -0.12134194 0.14452967 0.18675733 0.26670536 0.14970459
0.1438428 0.07773029 -0.06929909 -0.20958549 -0.12452444 -0.2211771 -0.141705 -0.12004434
0.1516299 -0.24214341 -0.10281644 -0.25022689 0.03398697 -0.15216216 -0.02651184 -0.26438504
0.10635806 0.15573877 0.045455657 0.13057043 -0.1307029 -0.30424002 -0.30626702 -0.28739372
0.053990103 -0.06683729 -0.11790518 -0.2199915 -0.15799823 0.036692604 0.22246361 0.001971829
-0.08022099 -0.05221254 0.14918017 -0.20944896 -0.13599986 0.13947365 -0.09283749 0.1312455
-0.023770502 -0.22395696 0.2205603 -0.03996709 -0.11901131 0.22404167 -0.27422884 0.21438722
0.3184201 -0.1470735 0.12961322 -0.11477127 0.07316929 0.27224556 -0.082210116 0.08008013
-0.05921243 -0.045286104 0.11078203 -0.2577715 0.04097693 0.20906688 -0.26549092 -0.07854335
0.16970791 0.09569032 0.35275343 0.040269777 -0.2216665 -0.058596097 0.08921965 -0.03821722
-0.22120672 -0.20882772 0.28451484 -0.050835144 -0.038329545 -0.26338172 -0.12999557 0.117458306
-0.10833271 -0.054060303 0.12333558 -0.020627452 0.21038812 0.23364794 -0.20096108 -0.25118485
0.063879415 -0.14802688 0.10439887 0.18199049 -0.08806757 -0.27492318 0.11958031 0.025501978
-0.018396778 0.1702462 -0.24037008 0.2195492 0.14245753 0.047318973 -0.17527397 -0.089059405
-0.062200088 0.06209948 0.106910676 -0.04659195 -0.14756408 -0.16752177 0.27358118 -0.26675177
-0.018562907 0.11004279 -0.17359877 -0.12376473 -0.14061765 0.10307516 -0.27947327 -0.23123044
-0.05541256 -0.016051007 0.06521881 -0.17178437 0.13268837 -0.0023788204 0.14153539 0.09892168
-0.0290947 0.27490196 0.25140354 0.040234108 -0.035229687 -0.20478918 -0.12935787 -0.097590275
0.13525002 -0.10492625 0.17280638 0.073295005 0.33757296 0.16499302 -0.19853719 -0.04720368
-0.08858179 -0.13076349 0.21994075 0.1588973 -0.30608287 0.20211121 -0.037236076 0.25582087
-0.20997702 -0.24775223 0.15402389 0.079024725 -0.056338117 0.1606938 0.12596425 0.027340287
0.040415775 -0.31279022 -0.0498285 0.24977326 -0.1651806 -0.15039977 -0.013499736 -0.06853912
-0.09566411 -0.12743734 -0.13009652 0.12066964 0.07415415 -0.3513205 -0.20606959 -0.03224594
-0.27002773 0.17129472 -0.20993395 0.12484763 -0.2583105 0.09629675 0.06494738 0.08196485
00000000: 46ba 4ebd c59c 59be 6458 43be 9f57 2c3d
00000010: 89ab 383e f733 b63d c779 9c3e f059 83bc
00000020: 19cc c63b 195a 343d c9a9 59be 1240 6cbe
00000030: 0b95 393e da3e d6b8 d811 ef3d 65a9 9b3e
00000040: 6af6 7bbe 5231 4c3e 7ce7 533d 61b3 0bbe
00000050: fe97 06be 9dcc 85be 5208 cc3d cba3 f93d
00000060: 551f 1a3e 4316 a13e 77fd e9bd a0fe 2abe
00000070: 8059 b13d d4ff 7b3e 50b5 893e 562f 50ba
00000080: b2a2 9a3d 10c6 8bbe f8ab 80bc ccc1 883d
00000090: 2b90 4abe 51de a5bd d579 92bd 9b02 883e
000000a0: 640f 103e e2d0 823e 92ea cebd acd6 4dbd
000000b0: dbc6 14be 3cbc ca3d aa11 123e c440 bf3c
000000c0: a40c 56be 38eb 89be f2dd 08bd b384 98bb
000000d0: f208 4bbe d8b4 2b3e 7a21 edbc 9cbd e03d
000000e0: a5b9 23bc 21f1 323e 0752 eebd 469e 7c3d
000000f0: b24c 50be 19e5 953e 0376 c63d e569 41be
00000100: 287c 60bd 73a7 823d 2c02 733e 1f82 f8bd
00000110: 96ff 133e 503d 3f3e 9b8d 883e 294c 193e
00000120: 874b 133e 0f31 9f3d aeec 8dbd 949d 56be
00000130: ab06 ffbd 407c 62be 1e1b 11be cfd9 f5bd
00000140: de44 1b3e 71f4 77be 6d91 d2bd bd1d 80be
00000150: ec35 0b3d 66d0 1bbe 5c2f d9bc 7a5d 87be
00000160: 41d2 d93d fc79 1f3e b62f 3a3d 41b4 053e
00000170: fbd6 05be 59c5 9bbe 08cf 9cbe 4525 93be
00000180: ba24 5d3d fde1 88bd 4578 f1bd 7445 61be
00000190: 4aca 21be fc4a 163d 80cd 633e cd39 013b
000001a0: e74a a4bd d1dc 55bd b0c2 183e ca79 56be
000001b0: 8c43 0bbe 2ed2 0e3e 9521 bebd 3865 063e
000001c0: 5bba c2bc f954 65be 8fda 613e 88b4 23bd
000001d0: 34bc f3bd 2e6b 653e b967 8cbe 5388 5b3e
000001e0: f607 a33e 709a 16be 54b9 043e 330d ebbd
000001f0: c8d9 953d c563 8b3e c75d a8bd 0d01 a43d
00000200: bc88 72bd ec7d 39bd b0e1 e23d a0fa 83be
00000210: 6dd7 273d a115 563e 6dee 87be 56db a0bd
00000220: e9c7 2d3e 49f9 c33d 199c b43e ecf1 243d
00000230: 8bfc 62be 7602 70bd cbb8 b63d a989 1cbd
00000240: 0484 62be efd6 55be eeab 913e 8338 50bd
00000250: 71ff 1cbd f8d9 86be 8f1d 05be fb8d f03d
00000260: 8add ddbd 566e 5dbd 5d97 fc3d e7fa a8bc
00000270: fc6f 573e 6841 6f3e bec8 4dbe 4d9b 80be
00000280: 36d3 823d 5c94 17be 13cf d53d b75b 3a3e
00000290: c55c b4bd bbc2 8cbe 86e6 f43d 86e9 d03c
000002a0: d7b4 96bc 0555 2e3e 9323 76be 81d1 603e
000002b0: 63e0 113e 8ad1 413d 057b 33be c764 b6bd
000002c0: 85c5 7ebd 065c 7e3d fcf3 da3d 33d7 3ebd
000002d0: 0a1b 17be d48a 2bbe d512 8c3e b093 88be
000002e0: 3d11 98bc 1d5e e13d e0c3 31be 5d78 fdbd
000002f0: 13fe 0fbe 1219 d33d 1f17 8fbe acc7 6cbe
00000300: 48f8 62bd 677d 83bc 7191 853d 3ee8 2fbe
00000310: 76df 073e fce5 1bbb a7ee 103e 7397 ca3d
00000320: 0258 eebc f3bf 8c3e f7b7 803e 85cc 243d
00000330: 014d 10bd 41b4 51be 6476 04be 69dd c7bd
00000340: fb7e 0a3e 93e3 d6bd 28f4 303e b11b 963d
00000350: 5dd6 ac3e eef3 283e 554d 4bbe a558 41bd
00000360: 5f6a b5bd dde6 05be 2638 613e f9b5 223e
00000370: e5b6 9cbe 3ef6 4e3e db84 18bd f4fa 823e
00000380: 3704 57be c3b2 7dbe 70b8 1d3e b7d7 a13d
00000390: ccc2 66bd ea8c 243e c6fc 003e bdf8 df3c
000003a0: 038b 253d 0a26 a0be f818 4cbd 90c4 7f3e
000003b0: 1a25 29be 6602 1abe ff2d 5dbc 3d5e 8cbd
000003c0: 8beb c3bd ef7e 02be 0638 05be a521 f73d
000003d0: 22de 973d 48e0 b3be e803 53be 5214 04bd
000003e0: 1341 8abe e267 2f3e edf8 56be 1db0 ff3d
000003f0: 4641 84be 3b37 c53d 2203 853d 30dd a73d

conv2.bias f4 [64]
0.014676646 0.0036525219 0.05077018 0.06795662 0.033029076 -0.033340354 0.070898995 -0.0044219247
-0.053565543 0.046312507 0.02630561 -0.03889576 0.04989577 -0.015362464 0.060657043 0.06061641
-0.026986508 0.053821497 -0.00080100045 -0.029347053 0.002264398 0.052835297 -0.0022410399 -0.032546226
-0.01996601 0.021758724 -0.003724381 0.07428207 -0.0032355313 -0.025259761 -0.033020087 0.039138332
0.07324092 0.07592157 0.061746396 0.07098582 0.07439972 0.05182437 0.033057693 0.05534441
-0.021268828 -0.010289657 0.026330804 0.07307838 0.076605074 0.013305501 0.04772129 0.057200115
0.028552247 0.053940356 0.00449579 0.05694654 0.056057524 0.05670167 0.05056973 0.049116153
0.07835421 0.024560168 0.055463962 0.002756466 0.016329143 0.056505308 0.008918315 0.024778085
00000000: 5176 703c 265f 6f3b 64f4 4f3d d72c 8b3d
00000010: 7f49 073d e58f 08bd 7e33 913d cbe5 90bb
00000020: 8b67 5bbd 2fb2 3d3d dd7e d73c 2951 1fbd
00000030: 825f 4c3d d8b2 7bbc 8573 783d ea48 783d
00000040: cf12 ddbc ee73 5c3d 3bfa 51ba 3b69 f0bc
00000050: 4b66 143b d369 583d 69de 12bb 314f 05bd
00000060: c28f a3bc 5a3f b23c bf14 74bb 3321 983d
00000070: 350b 54bb 8fed cebc 1240 07bd 844f 203d
00000080: 56ff 953d c57c 9b3d cae9 7c3d 0361 913d
00000090: e15e 983d ca45 543d 8167 073d d2b0 623d
000000a0: f73b aebc f395 28bc b3b3 d73c 1eaa 953d
000000b0: 1fe3 9c3d 51ff 593c 6677 433d ab4a 6a3d
000000c0: 67e6 e93c 90f0 5c3d 6c51 933b c640 693d
000000d0: 939c 653d 0340 683d 3522 4f3d 052e 493d
000000e0: 2c78 a03d 6832 c93c 2e2e 633d d3a5 343b
000000f0: b2c4 853c 1c72 673d 201e 123c 69fb ca3c

conv2.lin.weight f4 [64, 64]
0.05786756 0.07599004 -0.13833609 -0.15146874 0.027395884 0.10624213 0.1405685 -0.07665599
0.08531099 0.0024660416 -0.22726423 -0.055825695 0.01483965 -0.008135915 -0.09919137 -0.008828055
0.12985115 0.18121506 -0.15057212 0.09127943 -0.05272414 0.18347128 -0.06560514 0.20611806
-0.15505227 -0.14018165 -0.08141671 -0.056986094 -0.12526415 -0.049812496 0.09669001 0.21517996
0.12650707 0.046119437 0.083893284 0.20607167 -0.14254262 0.1919563 -0.11974022 -0.033264127
-0.20822628 -0.10755048 0.16661479 -0.17267413 0.14274734 -0.08856943 -0.17513794 0.049736246
-0.08567369 0.16728617 0.1240577 -0.08474976 0.08626746 0.042408288 -0.19922644 -0.07444118
-0.10949522 0.03750137 -0.20638646 -0.17268114 0.10907327 -0.13789535 0.018350229 0.031550396
-0.07326094 -0.14109333 -0.12969285 0.19469132 0.043889217 -0.2025948 -0.18922852 0.063639745
-0.1179134 0.16355701 -0.14129902 0.02846747 -0.06819194 0.13739567 0.09870846 -0.08871744
-0.17337967 0.121405035 -0.072745726 -0.13431242 -0.040286962 0.17212784 -0.11286429 0.11808454
-0.14145602 0.071370535 0.014734876 0.13611841 -0.143496 -0.052693088 0.11539202 -0.16024017
-0.17893106 0.20654333 0.0076822955 0.15924457 -0.08031436 -0.078295365 0.08613384 -0.05529632
0.16037478 -0.07265007 -0.078463905 -0.2020907 -0.11809924 0.06496909 -0.075277865 0.0022199003
-0.19031802 -0.18711597 0.20453584 -0.17265296 -0.068354115 0.008871568 0.13027403 -0.1603173
-0.07912172 0.20852561 0.15509261 0.11437463 0.19802059 0.05173681 0.20436852 -0.15764013
0.033791807 0.16166434 -0.02970023 -0.13102376 -0.0730556 0.022481246 0.021659331 -0.011885011
-0.19285123 0.14489146 -0.20320149 -0.09548804 -0.01714761 0.12379809 0.0072239074 0.11240522
-0.054523308 -0.11109511 0.23564418 0.14053103 -0.021680327 -0.04502343 -0.11585482 -0.003333204
0.088408016 0.015765978 -0.05028093 0.16308904 0.16410597 0.048847362 -0.07488932 0.17247203
0.12873931 -0.09666578 -0.004794223 -0.12989832 0.024052482 0.017196434 -0.15048794 -0.06577455
-0.12640652 0.106032975 -0.09920355 -0.015398172 0.061864138 0.09346571 -0.029203216 0.025091093
-0.12982027 -0.089909665 -0.010891684 0.17644455 -0.15733944 0.052946363 0.10550643 0.12529808
-0.16430014 -0.14651163 0.033477273 -0.111190766 -0.21620491 0.11688995 0.061353583 0.19390206
0.058012187 0.04758421 0.12193828 -0.16309297 -0.117775954 -0.123149976 -0.14005592 0.16306897
0.11329653 -0.035126224 -0.0061226124 0.040961437 0.18011284 -0.12311695 0.12767825 0.048350997
-0.10198046 0.020748775 -0.0977516 -0.18522877 -0.19576953 0.10854564 0.11139002 0.0915931
-0.18683521 -0.23255973 -0.24873951 0.09612819 0.044199426 -0.113008104 0.06813502 0.2260572
0.15249658 -0.11513487 -0.025630493 0.16127153 -0.04863557 0.20032461 -0.068833284 0.013712291
-0.08002651 -0.10621096 0.12482392 -0.22112721 -0.049053337 -0.032304954 -0.080478884 -0.17966476
0.025035158 -0.051081177 0.13605297 0.27604437 -0.16705883 0.019186212 -0.10026282 0.15117756
0.10892781 -0.28312206 -0.07627933 0.18673094 -0.034593157 -0.097158134 0.18506601 0.23948666
00000000: 8906 6d3d aba0 9b3d faa7 0dbe 9f1a 1bbe
00000010: 556d e03c 7995 d93d 30f1 0f3e d1fd 9cbd
00000020: 87b7 ae3d 509d 213b f4b7 68be 7ca9 64bd
00000030: 0122 733c 804c 05bc d824 cbbd 8ca3 10bc
00000040: b3f7 043e 7190 393e 942f 1abe b6f0 ba3d
00000050: 45f5 57bd e5df 3b3e fd5b 86bd 9d10 533e
00000060: 06c6 1ebe c78b 0fbe cebd a6bd 406a 69bd
00000070: 3f45 00be 3008 4cbd 6905 c63d 2358 5c3e
00000080: 128b 013e bce7 3c3d 3ed0 ab3d 7404 533e
00000090: b1f6 11be 3190 443e 5c3a f5bd f73f 08bd
000000a0: 4539 55be 6d43 dcbd 119d 2a3e 7dd1 30be
000000b0: 5c2c 123e e463 b5bd 5c57 33be 3cb8 4b3d
000000c0: b075 afbd 114d 2b3e f711 fe3d 4891 adbd
000000d0: feac b03d 50b4 2d3d 0402 4cbe 9e74 98bd
000000e0: 083f e0bd 099b 193d f956 53be 53d3 30be
000000f0: ce61 df3d 7034 0dbe 3853 963c fd3a 013d
00000100: d509 96bd c57a 10be 34ce 04be 295d 473e
00000110: 2ec5 333d 0375 4fbe 1fc5 41be 8e55 823d
00000120: 957c f1bd 7d7b 273e b1b0 10be 9d34 e93c
00000130: 37a8 8bbd 73b1 0c3e a927 ca3d 7db1 b5bd
00000140: 718a 31be 34a3 f83d b6fb 94bd 3289 09be
00000150: f103 25bd 4842 303e 6525 e7bd 4fd6 f13d
00000160: d9d9 10be b72a 923d 8d6a 713c a062 0b3e
00000170: 9ef0 12be b5d4 57bd a752 ec3d 0016 24be
00000180: b439 37be 1880 533e c4bb fb3b 0211 233e
00000190: db7b a4bd 5259 a0bd f066 b03d 657e 62bd
000001a0: 4939 243e 8fc9 94bd afb1 a0bd ddf0 4ebe
000001b0: 04de f1bd 840e 853d 482b 9abd bf7b 113b
000001c0: bae2 42be 549b 3fbe d871 513e f0cb 30be
000001d0: 3efd 8bbd 0e5a 113c 8e66 053e 382a 24be
000001e0: 910a a2bd bd87 553e 99d0 1e3e 3f3d ea3d
000001f0: e9c5 4a3e fae9 533d fb45 513e 6a6c 21be
00000200: 4769 0a3d 568b 253e e64d f3bc 182b 06be
00000210: 2d9e 95bd 972a b83c e96e b13c 59b9 42bc
00000220: cb7a 45be 6d5e 143e 0d14 50be 3c8f c3bd
00000230: 2579 8cbc da89 fd3d 87b6 ec3b b534 e63d
00000240: d553 5fbd d585 e3bd b54c 713e 5ee7 0f3e
00000250: f19a b1bc 7d6a 38bd 4b45 edbd e271 5abb
00000260: 430f b53d a727 813c 60f3 4dbd d000 273e
00000270: 650b 283e 2c14 483d 925f 99bd 829c 303e
00000280: 3dd4 033e b5f8 c5bd db18 9dbb 1104 05be
00000290: b609 c53c 89df 8c3c 8319 1abe cfb4 86bd
000002a0: b670 01be d127 d93d 3b2b cbbd 9d48 7cbc
000002b0: 4065 7d3d f36a bf3d 953b efbc d68b cd3c
000002c0: 9bef 04be 8f22 b8bd 0973 32bc e1ad 343e
000002d0: 971d 21be 49de 583d c113 d83d 244e 003e
000002e0: 4c3e 28be 2507 16be 771f 093d fcb7 e3bd
000002f0: d264 5dbe 0064 ef3d e54d 7b3d 438e 463e
00000300: 309e 6d3d a9e7 423d c7ba f93d d801 27be
00000310: 8534 f1bd 0e36 fcbd d26a 0fbe 8dfb 263e
00000320: 0308 e83d 84e0 0fbd 32a0 c8bb 2ec7 273d
00000330: 806f 383e bd24 fcbd 16be 023e b20b 463d
00000340: 22db d0bd 56f9 a93c fe31 c8bd 9cac 3dbe
00000350: cf77 48be 2d4d de3d 7320 e43d 2a95 bb3d
00000360: bb51 3fbe 2324 6ebe 92b5 7ebe dbde c43d
00000370: 750a 353d cb70 e7bd 608a 8b3d 8a7b 673e
00000380: 1028 1c3e d5cb ebbd 0af7 d1bc 5d24 253e
00000390: 1736 47bd e521 4d3e 77f8 8cbd 84a9 603c
000003a0: f0e4 a3bd 2285 d9bd afa3 ff3d 2c6f 62be
000003b0: 27ec 48bd 3352 04bd 1dd2 a4bd 0afa 37be
000003c0: 8816 cd3c 7f3a 51bd 7851 0b3e b055 8d3e
000003d0: 7811 2bbe 672c 9d3c 9856 cdbd 4ace 1a3e
000003e0: 8b15 df3d 60f5 90be 5638 9cbd 6536 3f3e
000003f0: 8eb1 0dbd d8fa c6bd f281 3d3e fe3b 753e

bn1.weight f4 [64]
1.0278773 1.0389887 0.95127153 1.0358529 1.0185797 1.0366596 0.9918536 1.065626
0.9992721 0.94623905 0.991263 0.9601942 1.0555865 0.9409934 1.0337727 1.0668503
1.038635 0.9963592 1.0722703 0.9990911 1.0027896 0.99552256 0.97012544 1.0545338
0.944398 0.95733774 0.95729434 0.96325254 1.0162342 1.0105277 0.99828166 1.0460931
1.025613 0.96788055 1.0014856 1.0768471 1.0484056 1.0566963 1.0330361 0.94242454
1.0204215 1.0459656 1.066583 0.96553606 1.0047874 0.97298014 1.0077126 0.9997028
1.0526359 1.024572 0.9685601 1.0778997 1.0134484 1.0471331 1.0175406 0.954344
1.0159906 0.9580426 0.98845726 1.0165323 0.9543126 1.0208312 1.0411453 1.0577701
00000000: 7c91 833f 95fd 843f 8886 733f d496 843f
00000010: d260 823f 43b1 843f 1eea 7d3f 6f66 883f
00000020: 4cd0 7f3f b93c 723f 69c3 7d3f 49cf 753f
00000030: 751d 873f f2e4 703f aa52 843f 8d8e 883f
00000040: fef1 843f 6611 7f3f 2740 893f 6fc4 7f3f
00000050: 695b 803f 91da 7e3f 245a 783f f7fa 863f
00000060: 11c4 713f 1614 753f 3e11 753f b897 763f
00000070: f613 823f f958 813f 638f 7f3f 61e6 853f
00000080: 4947 833f 05c7 773f ae30 803f 20d6 893f
00000090: 2832 863f d341 873f 873a 843f bc42 713f
000000a0: 2c9d 823f 33e2 853f cb85 883f 5f2d 773f
000000b0: e09c 803f 3a15 793f bafc 803f 86ec 7f3f
000000c0: c6bc 863f 2d25 833f 8ef3 773f 9ef8 893f
000000d0: adb8 813f 7508 863f c53e 823f e34f 743f
000000e0: fb0b 823f 4842 753f 890b 7d3f bb1d 823f
000000f0: d54d 743f 99aa 823f 4044 853f 0365 873f

bn1.bias f4 [64]
0.064889625 0.061304707 0.03837058 0.067275226 0.06568581 0.07209563 -0.011778953 0.076069176
0.06888451 0.05149703 -0.0770289 -0.075776756 0.07654813 0.06711063 0.079453684 0.075999625
0.028594224 0.07283394 0.07789017 0.023512622 0.029659485 0.062937 0.02028393 0.009964323
0.0376804 -0.032097537 -0.07618531 -0.029170498 0.072312824 0.06845262 0.046359207 0.07667202
0.061835896 0.06737519 0.06770859 0.07574279 0.06511216 0.07652853 0.073973924 0.05720916
0.06659122 0.06932825 0.077528134 0.04056659 0.05281583 0.05154297 0.051712018 0.050950147
0.062357377 0.07946488 -0.002428093 0.07165906 0.06215702 0.07917823 0.07037979 -0.066433966
0.055320688 -0.0664627 -0.080969885 0.06771337 0.055314355 0.057813976 0.07648855 0.07295063
00000000: dae4 843d a51a 7b3d 782a 1d3d 98c7 893d
00000010: 4886 863d e0a6 933d 82fc 40bc 28ca 9b3d
00000020: 5213 8d3d 8dee 523d 54c1 9dbd d830 9bbd
00000030: 44c5 9c3d 4c71 893d 9db8 a23d b1a5 9b3d
00000040: 6f3e ea3c f629 953d e284 9f3d 8b9d c03c
00000050: 73f8 f23c 1de5 803d 7c2a a63c 6641 233c
00000060: c356 1a3d b578 03bd 0b07 9cbd f8f6 eebc
00000070: bf18 943d e330 8c3d 27e3 3d3d 3806 9d3d
00000080: a347 7d3d 01fc 893d cdaa 8a3d 091f 9b3d
00000090: 8659 853d fdba 9c3d a47f 973d 2754 6a3d
000000a0: fa60 883d f8fb 8d3d 12c7 9e3d 2729 263d
000000b0: 6955 583d b91e 533d fbcf 533d 1ab1 503d
000000c0: 736a 7f3d 7cbe a23d a420 1fbb fcc1 923d
000000d0: 5c98 7e3d 3228 a23d 4823 903d 880e 88bd
000000e0: f297 623d 991d 88bd 8ad3 a5bd 4fad 8a3d
000000f0: 4e91 623d 59ce 6c3d 07a6 9c3d 2467 953d

bn1.running_mean f4 [64]
1.5329437 0.14267196 0.25930738 0.527449 0.45893735 1.8107451 0.07551493 0.3675019
1.0860174 1.3192073 0.18456037 0.056054413 0.43585187 0.016595656 0.13481873 0.3742684
0.23614453 1.7875686 0.11413201 1.7507961 0.301191 0.032194257 0.31819886 0.22860454
0.44067714 0.06449566 0.080531634 0.028538102 2.4898152 0.052189946 0.5026973 1.3679007
0.8764334 0.100336455 0.15706126 0.20118776 0.49099457 0.25471634 1.7381705 0.32767564
0.67934644 0.83703357 0.09502114 0.1636275 0.6013043 0.800945 0.2549945 1.0975499
0.19462423 0.54879045 1.1403421 0.16234863 0.77200544 0.55206484 0.6396372 0.072048254
1.1043906 0.04397054 0.13755286 2.1640923 0.13498896 1.14268 1.3876941 0.4908505
00000000: 8037 c43f 9918 123e f0c3 843e e606 073f
00000010: d6f9 ea3e 7fc6 e73f 92a7 9a3d 3629 bc3e
00000020: 9e02 8b3f c9db a83f 65fd 3c3e 5099 653d
00000030: fa27 df3e 9df3 873c ec0d 0a3e 1ca0 bf3e
00000040: dfcf 713e 0ccf e43f 0bbe e93d 161a e03f
00000050: b535 9a3e 20de 033d f6ea a23e 4f17 6a3e
00000060: 6fa0 e13e 4d16 843d c5ed a43d bdc8 e93c
00000070: 2259 1f40 20c5 553d c5b0 003f 5f17 af3f
00000080: f05d 603f 337d cd3d abd4 203e 2a04 4e3e
00000090: a463 fb3e 2e6a 823e 5f7c de3f 1ac5 a73e
000000a0: a6e9 2d3f d547 563f 729a c23d f88d 273e
000000b0: 14ef 193f bb0a 4d3f a48e 823e 847c 8c3f
000000c0: 934b 473e 887d 0c3f bbf6 913f b83e 263e
000000d0: 26a2 453f 1f54 0d3f 43bf 233f 098e 933d
000000e0: ac5c 8d3f 741a 343d a8da 0c3e 7d80 0a40
000000f0: 8c3a 0a3e 5743 923f f69f b13f c250 fb3e

bn1.running_var f4 [64]
20.671066 0.92682195 2.6355155 5.3278174 5.1531425 29.914995 0.24665818 2.531057
17.800755 19.381033 0.7551275 0.08575576 2.339432 0.039283484 0.83482003 3.1629462
2.1637087 41.49583 0.46136972 37.04713 2.5339444 0.14765653 1.9077967 1.394892
4.368773 0.039143447 0.17775875 0.055071287 65.74867 0.2265786 5.967876 25.190908
7.7597814 0.6802924 0.50866014 1.1747972 4.503583 0.5607657 30.830557 2.7801878
9.434788 7.7080154 0.45751932 1.4735261 8.193779 11.0748 1.7211654 15.1159115
1.3428942 4.149068 17.289288 0.8851582 10.591186 3.4964805 5.7889867 0.20520318
16.518412 0.03308728 0.2219756 62.9749 0.5312988 17.064636 17.944777 5.832359
00000000: 585e a541 3444 6d3f 49ac 2840 7b7d aa40
00000010: 8be6 a440 e951 ef41 f693 7c3e d6fc 2140
00000020: f267 8e41 5b0c 9b41 0950 413f b7a0 af3d
00000030: 41b9 1540 b8e7 203d c4b6 553f b66d 4a40
00000040: 347a 0a40 bbfb 2542 a738 ec3e 4330 1442
00000050: 252c 2240 4633 173e af32 f43f d28b b23f
00000060: fdcc 8b40 e154 203d 6406 363e 6e92 613d
00000070: 527f 8342 3804 683e d7f8 be40 fb86 c941
00000080: 2150 f840 a527 2e3f 8d37 023f c15f 963f
00000090: 5a1d 9040 578e 0f3f fba4 f641 99ee 3140
000000a0: e4f4 1641 10a8 f640 f93f ea3e 819c bc3f
000000b0: b819 0341 6132 3141 264f dc3f c6da 7141
000000c0: f5e3 ab3f 2ac5 8440 7650 8a41 ba99 623f
000000d0: 7f75 2941 56c6 5f40 613f b940 c820 523e
000000e0: b525 8441 8786 073d 924d 633e 4ce6 7b42
000000f0: 3303 083f 6084 8841 e78e 8f41 afa2 ba40

bn2.weight f4 [64]
1.0559378 0.99602944 1.0215061 1.0616573 1.0374295 1.0332512 1.0579699 1.0651665
1.0137221 1.0745007 1.0646996 1.0365 1.0490404 0.9993784 1.0483731 1.010888
1.0254468 1.0306756 1.0302011 1.0351901 1.0685227 1.0090983 0.98671603 1.0219256
1.047222 1.0135385 0.9867549 1.0375526 1.0333251 1.0357842 1.0013009 1.0421916
1.0461925 1.0481118 1.0225744 1.0594772 1.0670365 1.0776062 1.0565807 1.0392811
1.0530272 1.009855 1.0116413 1.0453418 1.04168 1.0336431 1.0529902 1.034793
1.0276394 1.067059 0.9738994 1.0112175 1.0726117 1.045522 1.0691527 1.0653826
1.0293967 1.0705929 1.048278 1.023444 1.0549164 1.0510901 1.0562462 0.9673457
00000000: f828 873f c9fb 7e3f b6c0 823f 63e4 873f
00000010: 7dca 843f 9341 843f 8f6b 873f 6057 883f
00000020: a5c1 813f 3d89 893f 1448 883f 08ac 843f
00000030: f546 863f 43d7 7f3f 1731 863f c764 813f
00000040: d741 833f 2eed 833f a1dd 833f 1c81 843f
00000050: 5ac5 883f 222a 813f 6c99 7c3f 75ce 823f
00000060: 5f0b 863f a1bb 813f f89b 7c3f 86ce 843f
00000070: ff43 843f 9494 843f a12a 803f 8966 853f
00000080: a3e9 853f 8728 863f b8e3 823f f39c 873f
00000090: a794 883f 00ef 893f 093e 873f 2a07 853f
000000a0: 98c9 863f ee42 813f 767d 813f c3cd 853f
000000b0: c555 853f 6b4e 843f 62c8 863f 1974 843f
000000c0: b089 833f 6495 883f 7951 793f 936f 813f
000000d0: 574b 893f aad3 853f ffd9 883f 755e 883f
000000e0: 45c3 833f 3009 893f f92d 863f 3700 833f
000000f0: 8007 873f 1f8a 863f 1333 873f f8a3 773f

bn2.bias f4 [64]
0.06951225 -0.00268983 0.05585568 0.07115432 0.06324465 0.0743197 0.0755846 0.07461953
0.07313031 -0.06766122 0.07337286 0.06890322 0.07207908 0.044813544 0.07257848 0.051239103
0.06905472 0.06986942 -0.0120843295 0.066310614 0.06517159 0.049353074 0.011970246 0.066931866
0.07377556 0.060381375 0.016579237 0.06649331 0.076267436 0.07000209 0.05781999 0.06947148
0.07069574 0.07469711 0.05794914 0.07332024 0.07789654 -0.072437756 0.071455225 0.072032675
0.0716668 0.055054538 0.049880534 0.069313966 0.07221472 0.07020899 0.073075406 0.052925505
0.06716052 -0.074304976 0.01776518 0.06517699 -0.07045378 -0.07356451 -0.070391096 0.068853475
0.07172907 0.074278705 0.057933565 0.05406601 0.073279016 0.068312064 0.068734944 0.017781394
00000000: 705c 8e3d dc47 30bb edc8 643d 5bb9 913d
00000010: 6986 813d ed34 983d 19cc 9a3d 20d2 983d
00000020: 58c5 953d f791 8abd 8344 963d 221d 8d3d
00000030: 329e 933d 688e 373d 07a4 943d 18e0 513d
00000040: 906c 8d3d b317 8f3d 5afd 45bc dccd 873d
00000050: af78 853d 7326 4a3d da1e 443c 9313 893d
00000060: a417 973d 7652 773d 2ed1 873c a52d 883d
00000070: 1a32 9c3d 415d 8f3d a7d4 6c3d 1047 8e3d
00000080: eec8 903d ccfa 983d 145c 6d3d ec28 963d
00000090: 3988 9f3d 3f5a 94bd 1e57 923d de85 933d
000000a0: 0bc6 923d de80 613d 884f 4c3d 7bf4 8d3d
000000b0: 50e5 933d bbc9 8f3d 8fa8 953d 6ac8 583d
000000c0: 748b 893d 352d 98bd 4888 913c 847b 853d
000000d0: 124a 90bd fda8 96bd 3529 90bd 0d03 8d3d
000000e0: b1e6 923d 6f1f 983d bf4b 6d3d 5274 5d3d
000000f0: 4f13 963d 32e7 8b3d e8c4 8c3d 49aa 913c

bn2.running_mean f4 [64]
0.29215854 0.23524915 0.26857555 0.34751198 0.2584292 0.20475215 0.35661694 0.28859964
0.17817183 0.4851274 0.25365254 0.19764584 0.2704693 0.18232341 0.33910367 0.42153776
0.18301225 0.32103136 0.32760036 0.20084037 0.29145372 0.5270821 0.17276806 0.20703839
0.2186712 0.21237357 0.1764904 0.46547523 0.27979386 0.1937301 0.18239664 0.31873548
0.39731216 0.3763482 0.40568465 0.27242473 0.37668875 0.5917902 0.29278842 0.28072083
0.26320764 0.25717562 0.20286304 0.39231834 0.46269572 0.27339247 0.31168678 0.37764165
0.29431897 0.50915265 0.1847817 0.44706896 0.57176757 0.5317738 0.61266017 0.35606474
0.34284744 0.25211468 0.26255983 0.23628506 0.26430795 0.29781905 0.28504318 0.21795174
00000000: ce95 953e 27e5 703e bc82 893e 17ed b13e
00000010: d550 843e 8caa 513e 7f96 b63e 55c3 933e
00000020: ad72 363e 9e62 f83e bfde 813e ac63 4a3e
00000030: f47a 8a3e fdb2 3a3e ff9e ad3e ccd3 d73e
00000040: 9067 3b3e 395e a43e 3cbb a73e 19a9 4d3e
00000050: 6c39 953e daee 063f 1cea 303e df01 543e
00000060: 58eb 5f3e 7578 593e e6b9 343e c552 ee3e
00000070: 2441 8f3e 2f61 463e 2fc6 3a3e 4c31 a33e
00000080: 806c cb3e b6b0 c03e e6b5 cf3e 417b 8b3e
00000090: 59dd c03e 907f 173f 5de8 953e a4ba 8f3e
000000a0: 27c3 863e 86ac 833e 54bb 4f3e f3dd c83e
000000b0: 74e6 ec3e 19fa 8b3e 6995 9f3e 3f5a c13e
000000c0: fab0 963e d457 023f 6a37 3d3e 39e6 e43e
000000d0: 5c5f 123f 5422 083f 4cd7 1c3f 1e4e b63e
000000e0: b389 af3e 2d15 813e 3e6e 863e b6f4 713e
000000f0: 5f53 873e bd7b 983e 2ef1 913e be2e 5f3e

bn2.running_var f4 [64]
0.844267 0.47393626 0.87489283 1.3634118 1.0976768 0.63029516 1.1281419 0.6746306
0.46428436 0.10712623 0.91692996 0.6010165 0.8476512 0.49168354 1.4840112 2.7088122
0.58507484 1.7432808 0.30934453 0.57013655 0.9146202 4.04759 0.48043737 0.89988595
0.667149 0.86866605 0.39346004 3.328831 1.0122979 0.7140501 0.61887026 1.6692882
2.1815243 1.8104516 2.5948572 1.3256611 1.5036265 0.15736097 0.98986435 1.4403149
0.8912863 1.2645769 0.757576 1.858274 2.4639606 0.8905149 0.7908706 1.8211926
1.172616 0.11460351 0.502407 3.1814535 0.15514444 0.12993129 0.15943016 1.3060585
1.6740108 0.7747192 0.71507865 0.92791677 0.90849656 1.106777 0.87610024 0.8625101
00000000: e221 583f c6a7 f23e faf8 5f3f 4784 ae3f
00000010: ac80 8c3f 065b 213f f466 903f 97b4 2c3f
00000020: aeb6 ed3e ff64 db3d ecbb 6a3f 38dc 193f
00000030: abff 583f f2bd fb3e 14f4 bd3f 2e5d 2d40
00000040: 77c7 153f d323 df3f 6862 9e3e 78f4 113f
00000050: 8d24 6a3f db85 8140 e3fb f53e ed5e 663f
00000060: 47ca 2a3f e660 5e3f 9873 c93e 910b 5540
00000070: fa92 813f fdcb 363f 486e 1e3f 3cab d53f
00000080: 189e 0b40 e1bc e73f 2412 2640 43af a93f
00000090: d576 c03f 3c23 213e c067 7d3f 3d5c b83f
000000a0: 572b 643f a8dd a13f 80f0 413f ecdb ed3f
000000b0: 88b1 1d40 c9f8 633f 7f76 4a3f d71c e93f
000000c0: 4818 963f 3fb5 ea3d bf9d 003f ef9c 4b40
000000d0: 2fde 1e3e b50c 053e a941 233e ed2c a73f
000000e0: fc45 d63f ff53 463f 650f 373f f48b 6d3f
000000f0: 3b93 683f deaa 8d3f 1b48 603f 76cd 5c3f

fc1.weight f4 [64, 135]
0.023939734 -0.039251044 0.080482334 0.05927279 -0.0345616 0.026140003 0.009148776 0.05979078
0.028771486 0.018687349 0.06215123 0.057994828 0.013396276 -0.0815261 0.04258385 0.008715839
0.09113109 0.024047673 0.016036224 0.12785685 0.034186274 0.055047996 0.016297115 -0.024468664
-0.05114707 0.039104946 0.052521486 0.06877086 -0.020279368 2.4373163e-05 0.06897498 -0.06267978
-0.023164444 -0.02347983 -0.08108458 -0.033650886 0.050780118 0.019447327 0.091382824 0.057485465
0.015605626 -0.0013658818 0.091305226 0.12691201 0.0067956247 0.089738406 -0.029128103 -0.059301782
-0.04243316 0.07299861 0.023814304 -0.021300875 -0.075291716 0.059295807 -0.017571133 -0.063527174
0.083273925 0.017126024 0.043964785 -0.054385602 0.1171057 -0.00951985 -0.0712229 -0.0364867
0.0050189947 -0.111986145 -0.010711505 -0.022707662 -0.07963007 0.095607646 -0.009204438 -0.029877126
-0.058309816 0.098741755 0.047688205 0.045524415 -0.05566309 0.034755964 0.0018936162 -0.006297155
-0.047426224 0.003012168 0.06929871 0.014223663 -0.059992045 0.069388844 -0.031783305 -0.023668181
0.04265091 0.01735799 0.014268592 0.122768946 -0.051650777 0.07756882 0.048055075 0.05717415
0.009176274 0.02050946 0.011634399 -0.01846351 0.108230405 0.01849656 -0.027071558 0.010309757
0.040458545 0.024696339 0.08073205 0.030081159 -0.020994138 -0.010023604 0.008107222 -0.04363868
0.029708631 0.0793728 0.10977197 0.110477775 -0.038494535 0.10964006 0.12525886 0.017219437
-0.11846615 -0.048000395 -0.050393905 -0.056407094 0.0035963636 -0.024041118 -0.008262662 0.03496619
0.03551364 0.02680493 -0.08206791 0.03995666 0.08338912 0.04488107 -0.023687059 0.05468091
-0.08098231 0.012586801 -0.024790416 0.045180894 -0.011013734 0.030399619 -0.012216298 0.021298992
0.031735398 0.0082755685 -0.09868577 0.01739793 -0.029260363 -0.029752027 -0.07962079 -0.061098337
0.12558939 0.0291123 0.0156443 0.06389903 0.0043994538 -0.030850343 0.054999527 -0.100859255
-0.077828616 -0.013791951 0.023285784 -0.10455038 0.047909714 -0.08095091 -0.0019604221 0.031942483
0.016436305 -0.019780701 -0.092653446 0.008529983 -0.10580801 -0.039657813 -0.10757528 -0.03005048
0.038212158 -0.062827595 -0.07462139 -0.10203302 0.0030152975 -0.032174043 0.031752143 0.003079408
0.0360536 0.06311901 -0.049798995 -0.011856487 0.02939273 0.030663501 -0.075641595 -0.010471678
-0.059000514 -0.031412516 -0.1049359 -0.07066079 -0.019020587 -0.011979525 0.012372763 -0.024404574
0.1336163 -0.057675183 -0.06391553 -0.04710863 -0.10768207 -0.059493452 -0.032096416 0.04525077
0.013777783 -0.102729395 0.034880675 -0.061688606 -0.06793448 -0.03800597 0.007979548 -0.024418604
-0.10281159 0.0037280207 0.009529488 0.014452048 -0.08082929 0.049692463 -0.048876576 -0.083016396
0.01675454 -0.032333206 0.011026755 0.04752101 -0.0049358867 0.0026040191 -0.038567822 0.013879829
0.008063705 0.051409323 -0.1063582 0.028505964 0.017821712 0.005498024 -0.028098453 -0.037097275
-0.077928044 0.043524366 -0.010759112 -0.021494428 0.025095241 -0.1067543 0.046046756 0.048626184
0.04700097 -0.04481009 0.032520637 -0.10269331 -0.008307603 -0.011552872 0.023709832 -0.0041535622
00000000: 431d c43c b4c5 20bd ecd3 a43d 06c8 723d
00000010: 7790 0dbd 8f23 d63c bfe4 153c 2de7 743d
00000020: 2eb2 eb3c 3616 993c 4a92 7e3d fc8b 6d3d
00000030: 0e7c 5b3c 28f7 a6bd 676c 2e3d e1cc 0e3c
00000040: f0a2 ba3d a0ff c43c 665e 833c e8ec 023e
00000050: e806 0c3d 027a 613d 8781 853c 8272 c8bc
00000060: 977f 51bd 822c 203d c520 573d bdd7 8c3d
00000070: eb20 a6bc f874 cc37 c142 8d3d 425e 80bd
00000080: 5cc3 bdbc c658 c0bc ac0f a6bd 83d5 09bd
00000090: d0fe 4f3d 0050 9f3c eb26 bb3d e175 6b3d
000000a0: bdae 7f3c 6307 b3ba 3cfe ba3d 39f5 013e
000000b0: d5ad de3b c5c8 b73d 0f9e eebc 6de6 72bd
000000c0: 65ce 2dbd 4c80 953d 3716 c33c 2c7f aebc
000000d0: 8b32 9abd 29e0 723d 56f1 8fbc 891a 82bd
000000e0: 858b aa3d e04b 8c3c 6b14 343d 70c3 5ebd
000000f0: 1dd5 ef3d 25f9 1bbc 50dd 91bd 1473 15bd
00000100: 6176 a43b fe58 e5bd 4f7f 2fbc 6b05 babc
00000110: 1715 a3bd f1cd c33d 36ce 16bc e0c0 f4bc
00000120: 46d6 6ebd 1e39 ca3d b554 433d cf77 3a3d
00000130: fbfe 63bd 455c 0e3d 3733 f83a 5d58 cebb
00000140: 0042 42bd cb67 453b 7bec 8d3d 5e0a 693c
00000150: 38ba 75bd bd1b 8e3d 362f 02bd c6e3 c1bc
00000160: b8b2 2e3d 5832 8e3c d0c6 693c 496e fb3d
00000170: c48f 53bd 67dc 9e3d 66d5 443d 712f 6a3d
00000180: 1558 163c 7403 a83c 359e 3e3c c940 97bc
00000190: e7a7 dd3d 1986 973c 2cc5 ddbc 41ea 283c
000001a0: dcb7 253d fa4f ca3c d856 a53d c36c f63c
000001b0: e6fb abbc 0b3a 24bc 27d4 043c 79be 32bd
000001c0: 845f f33c 358e a23d 20d0 e03d 2c42 e23d
000001d0: 72ac 1dbd f88a e03d dc43 003e c70f 8d3c
000001e0: 619e f2bd 109c 44bd d769 4ebd 200b 67bd
000001f0: f8b0 6b3b e1f1 c4bc 1e60 07bc b538 0f3d
00000200: c076 113d 0396 db3c 3813 a8bd 98a9 233d
00000210: eac7 aa3d 36d5 373d 5d0b c2bc 17f9 5f3d
00000220: 0eda a5bd df38 4e3c 4515 cbbc 9a0f 393d
00000230: f372 34bc 9f08 f93c de26 48bc 397b ae3c
00000240: fafc 013d 4096 073c c41b cabd 1b86 8e3c
00000250: 6eb3 efbc 86ba f3bc 3a10 a3bd 4042 7abd
00000260: 819a 003e eb7c ee3c 7a28 803c 7fdd 823d
00000270: 4b29 903b dcb9 fcbc 2f47 613d 4c8f cebd
00000280: 9c64 9fbd a3f7 61bc d4c1 be3c 821e d6bd
00000290: fa3c 443d 97c9 a5bd 6d7a 00bb 1fd6 023d
000002a0: 6ea5 863c 230b a2bc 17c1 bdbd 58c1 0b3c
000002b0: dfb1 d8bd 3b70 22bd 6e50 dcbd 6d2c f6bc
000002c0: 5a84 1c3d c1ab 80bd 19d3 98bd b0f6 d0bd
000002d0: 4c9c 453b eec8 03bd 890e 023d e5cf 493b
000002e0: f1ac 133d 8a44 813d 08fa 4bbd b641 42bc
000002f0: 06c9 f03c 0632 fb3c fbe9 9abd 6791 2bbc
00000300: 86aa 71bd 69aa 00bd a2e8 d6bd 9bb6 90bd
00000310: 10d1 9bbc c545 44bc 21b7 4a3c 1aec c7bc
00000320: b6d2 083e d03c 6cbd 25e6 82bd fbf4 40bd
00000330: 6b88 dcbd 68af 73bd 8877 03bd df58 393d
00000340: 36bc 613c ca63 d2bd 0adf 0e3d 31ad 7cbd
00000350: 3c21 8bbd 26ac 1bbd a6bc 023c 8609 c8bc
00000360: e28e d2bd cf51 743b 9221 1c3c 48c8 6c3c
00000370: d489 a5bd 538a 4b3d ce32 48bd 8004 aabd
00000380: d140 893c d36f 04bd 90a9 343c 64a5 423d
00000390: 38bd a1bb 31a8 2a3b 4bf9 1dbd 3968 633c
000003a0: a11d 043c 9592 523d 54d2 d9bd 5785 e93c
000003b0: d7fe 913c c528 b43b ba2e e6bc 50f3 17bd
000003c0: bd98 9fbd 9b46 323d fd46 30bc 1515 b0bc
000003d0: 8994 cd3c 00a2 dabd 869b 3c3d 402c 473d
000003e0: 1784 403d c98a 37bd 5c34 053d df50 d2bd
000003f0: 9d1c 08bc 4248 3dbc 1f3b c23c 9b1a 88bb

fc1.bias f4 [64]
0.049296375 -0.12168648 0.06866506 0.026951237 -0.11182014 -0.1229345 0.13674195 0.010018435
0.018284796 -0.09162262 -0.017750304 -0.018450435 0.08454699 0.12981598 -0.08649007 0.027667541
-0.10879383 0.14427894 0.015688576 0.14076838 0.11720182 -0.075181395 -0.057989173 -0.023807485
-0.0028222753 0.012956062 0.05404696 -0.012468223 -0.0988356 0.0530059 0.07289601 0.10935951
0.036738202 0.03135766 0.019278994 -0.07489988 -0.035070974 -0.092465855 -0.05852592 0.039438948
0.13254866 -0.015676357 0.118344665 0.13527998 0.009095311 -0.011346593 0.076696984 -3.078521e-05
0.0017395841 -0.050331198 0.041767832 -0.008225804 -0.008823747 0.0361594 -0.028137181 0.05566605
0.026709815 -0.044559795 0.09420083 -0.075937204 0.004622197 -0.07784653 0.0003347061 0.03331004
00000000: ffea 493d c336 f9bd 44a0 8c3d d7c8 dc3c
00000010: f501 e5bd 15c5 fbbd 1506 0c3e 5d24 243c
00000020: ffc9 953c a4a4 bbbd 1669 91bc 5e25 97bc
00000030: f926 ad3d 7bee 043e b521 b1bd 0aa7 e23c
00000040: 4dcf debd dcbd 133e 5485 803c 9625 103e
00000050: 8207 f03d b4f8 99bd 0e86 6dbd ea07 c3bc
00000060: ecf5 38bb aa45 543c 5860 5d3d 8547 4cbc
00000070: 526a cabd b71c 593d 814a 953d e1f7 df3d
00000080: cc7a 163d e470 003d fbee 9d3c 1c65 99bd
00000090: 95a6 0fbd bd5e bdbd e0b8 6fbd bc8a 213d
000000a0: d6ba 073e b46b 80bc b05e f23d d686 0a3e
000000b0: 8004 153c 0fe7 39bc 4f13 9d3d 5e1f 01b8
000000c0: c202 e43a 1628 4ebd bf14 2b3d 86c5 06bc
000000d0: 7a91 10bc e11b 143d f27f e6bc 1602 643d
000000e0: 8bce da3c 5584 36bd 5dec c03d f784 9bbd
000000f0: cc75 973b 006e 9fbd 7e7b af39 1c70 083d

fc2.weight f4 [1, 64]
0.039138064 -0.034379702 0.07372466 0.12082197 -0.035695735 -0.061144177 0.057496186 0.09821526
0.012715356 -0.01673466 -0.07629719 0.081966005 0.013936612 0.16198897 -0.0023646636 0.005287247
-0.08849339 0.15538166 0.07766883 0.14141858 0.12607089 -0.104210176 -0.10125373 0.16015112
0.047398835 0.15612829 0.06815062 -0.094399296 -0.038359422 0.05095285 0.15876423 0.040423915
-0.06541096 0.09591084 0.13927485 -0.0045854165 -0.040649325 -0.0029817102 -0.06989379 -0.03575752
0.12115825 0.14383717 0.10188625 0.15161924 0.12893799 0.006532165 0.16319048 -0.091297105
-0.09553626 -0.03835519 0.15912798 0.16483495 0.15265483 -0.082022786 -0.019014819 0.1552038
-0.085778154 -0.035424434 0.07273038 -0.019435123 0.16742201 -0.063784435 -0.065895796 0.1439326
00000000: 3c4f 203d bbd1 0cbd f4fc 963d 8271 f73d
00000010: b135 12bd 5172 7abd 1f81 6b3d 1525 c93d
00000020: 1254 503c 2017 89bc b341 9cbd cbdd a73d
00000030: 6356 643c 70e0 253e 79f8 1abb a440 ad3b
00000040: 063c b5bd 5f1c 1f3e d610 9f3d 08d0 103e
00000050: ba18 013e 256c d5bd 1e5e cfbd a8fe 233e
00000060: 4825 423d 18e0 1f3e 8d92 8b3d 6b54 c1bd
00000070: c51e 1dbd f0b3 503d 1793 223e 8c93 253d
00000080: 2ef6 85bd e76c c43d 119e 0e3e 4341 96bb
00000090: e87f 26bd cc68 43bb 7a24 8fbd 7a76 12bd
000000a0: d121 f83d 0d4a 133e bda9 d03d 1342 1b3e
000000b0: 5208 043e c60b d63b 681b 273e faf9 babd
000000c0: 84a8 c3bd 551a 1dbd 72f2 223e 7eca 283e
000000d0: 8c51 1c3e 90fb a7bd f7c4 9bbc bfed 1e3e
000000e0: 75ac afbd 3619 11bd aaf3 943d 6836 9fbc
000000f0: ad70 2b3e 6aa1 82bd 60f4 86bd 1163 133e

exp_avg f4 [64]
-0.011330954 -0.06650794 -0.016437152 -0.00046635777 -0.0025141865 -0.0046716016 0.08209045 -0.022742627
0.00523802 -0.007748322 -0.7153982 -1.2324934 -0.04894357 -0.045272954 0.11086479 0.035725135
0.052359797 -0.0021418636 0.19816142 -0.002318811 -0.009503341 -0.15434502 -0.3672446 0.025860045
-0.0076414235 -2.1444008 -0.61017764 -0.06427555 -0.00061600155 0.02708285 0.005859672 0.014672572
-0.049960636 -0.03830601 -0.01224616 -0.03686387 0.012869397 -0.06431759 -0.002496958 0.012631718
-0.013732181 0.011587299 -0.0036384359 -0.01128777 0.00030603865 -0.024568569 -0.01314686 0.0006814754
0.060025353 0.018760677 -0.00944921 -0.19078815 -0.006044572 -0.03249243 0.0050910623 -0.5323284
0.01439115 -3.1829722 -1.7070903 0.0030450872 -0.33668962 0.0016897457 -0.011374153 -0.067830145
00000000: 77a5 39bc 5135 88bd 35a7 86bc 7b81 f4b9
00000010: 0dc5 24bb 3c14 99bb 0a1f a83d bf4e babc
00000020: b2a3 ab3b a3e5 fdbb 5624 37bf 58c2 9dbf
00000030: 0e79 48bd 2270 39bd 140d e33d 8554 123d
00000040: 3a77 563d 825e 0cbb d4ea 4a3e 31f7 17bb
00000050: e7b3 1bbc 9f0c 1ebe 7c07 bcbe 72d8 d33c
00000060: e864 fabb dd3d 09c0 9a34 1cbf e6a2 83bd
00000070: 2a7b 21ba dadc dd3c 7e02 c03b 3a65 703c
00000080: 86a3 4cbd c3e6 1cbd 1ea4 48bc 92fe 16bd
00000090: 2ada 523c f1b8 83bd 01a4 23bb 44f5 4e3c
000000a0: f1fc 60bc a8d8 3d3c d372 6ebb 57f0 38bc
000000b0: d073 a039 0644 c9bc ed65 57bc 0aa5 323a
000000c0: 25dd 753d feaf 993c dcd0 1abc f85d 43be
000000d0: 8c11 c6bb c816 05bd edd2 a63b ad46 08bf
000000e0: dcc8 6b3c d1b5 4bc0 ef81 dabf 1690 473b
000000f0: 9562 acbe 757a dd3a a85a 3abc 88ea 8abd

exp_avg_sq f4 [64]
0.000118421594 0.021821745 0.0019508739 0.0004957923 0.0008653856 2.2274076e-05 0.02097878 0.007353549
0.0002331936 7.063716e-05 0.47276264 1.0073509 0.004969712 0.050977938 0.01321799 0.0060512656
0.008414957 1.5943122e-05 0.082619585 1.4421466e-05 0.0018539279 0.028964572 0.097173795 0.008118645
0.0020048555 3.9178238 0.47303268 0.16709717 9.590352e-07 0.013007815 0.0014147224 0.0006737179
0.0025117437 0.008902414 0.00738895 0.044824254 0.001538617 0.020383941 5.6411955e-06 0.0015748257
0.0005296011 0.00053211383 0.047165375 0.0029264062 0.0009840139 0.0006713642 0.0023055456 0.00013173545
0.015161485 0.001452584 5.965485e-05 0.112699 0.00010177286 0.0026536305 0.00072853814 0.22756253
0.00042159684 6.59544 2.4442923 6.161728e-05 0.0975719 0.00024770098 9.5600946e-05 0.0056238733
00000000: 1c59 f838 84c3 b23c 77b4 ff3a 0ff8 013a
00000010: 0bdb 623a 37d9 ba37 b1db ab3c 0af6 f03b
00000020: 6e85 7439 0923 9438 f20d f23e e0f0 803f
00000030: f7d8 a23b 3ece 503d 4590 583c b249 c63b
00000040: e3de 093c 98bd 8537 7534 a93d baf3 7137
00000050: 7fff f23a 1c47 ed3c 0e03 c73d 1104 053c
00000060: e563 033b a0bd 7a40 5731 f23e 851b 2b3e
00000070: 33b8 8035 bb1e 553c 356e b93a 719c 303a
00000080: 119c 243b 6edb 113c 011f f23b a399 373d
00000090: 6bab c93a 39fc a63c 8049 bd36 626a ce3a
000000a0: eed4 0a3a 8e7d 0b3a 7b30 413d f3c8 3f3b
000000b0: 07fa 803a 7dfe 2f3a a318 173b 7722 0a39
000000c0: e167 783c a264 be3a e835 7a38 bcce e63d
000000d0: e36e d538 88e8 2d3b 5efb 3e3a 2706 693e
000000e0: c509 dd39 d80d d340 496f 1c40 8638 8138
000000f0: c7d3 c73d dddd 8139 5e7d c838 7848 b83b

exp_avg f4 [64, 7]
0.72566724 -0.23542534 0.36983052 1.3664224 -0.60606354 -0.093317926 0.38689953 -1.0153271
0.5425854 -3.1813626 -3.2023892 1.4534959 -1.2407961 0.036175463 -0.49477652 0.87860507
0.614411 -0.23124652 -1.734685 -0.81634456 0.25668547 0.23059985 -0.097645596 0.5284024
-0.025986128 -0.021380125 0.20737386 -0.23901182 0.26046076 -0.25920865 0.71448374 0.16088386
0.029194506 0.58435583 -0.41457415 0.61905766 -0.11488862 0.18005757 1.0791152 -0.17625228
-0.1994844 0.40299094 -0.0529894 -0.158989 -0.26857153 2.556239 0.9564751 -1.5626423
1.9307294 2.285099 0.39556712 7.095358 4.2267175 5.5242934 5.29078 6.6218824
0.07642237 0.37120345 -0.73078406 0.21425879 0.12921517 -0.47625977 0.034630932 0.1727843
-0.19670025 -0.40169707 0.32162544 -0.8493593 -0.70085794 -0.16311666 0.7067211 -0.6353855
-0.5104812 0.3425446 -0.647572 0.742216 -0.9545243 -0.036831863 0.025737442 -0.009086497
0.8486532 0.010700423 0.12670821 0.0885955 3.1640947 -1.2532327 3.7325711 2.3965416
2.9878926 0.5153061 0.8285919 -1.8590671 -0.04154736 -0.0038693587 -0.028605344 -0.017287271
2.6754646 -1.1690043 -0.19234012 -0.28724846 0.47992846 0.44639537 -1.161516 2.269078
-2.8359053 2.1844776 4.5944943 2.9698598 6.1947827 0.9144401 5.9630737 10.0514555
0.31092715 0.12036436 1.6985108 -2.2640128 2.6282918 -0.011043465 0.4146887 0.19059803
0.057052705 -0.057925086 0.14802673 0.11924576 -0.1681112 -0.22275324 1.1325884 3.6358504
-0.5181355 7.8777394 -2.8528018 -0.15896189 9.8548565 0.10195429 -0.06393139 -0.086377494
0.2501877 0.03140379 -0.26092184 0.03919367 0.13749573 -0.40572435 -0.045198042 0.117322974
-0.97713006 -0.028974468 -0.72735554 0.0047665634 -0.06934174 -0.105338894 0.010217915 -0.25987637
-0.010386983 -0.02033473 -0.95699686 -1.2370894 -4.6489735 -0.71002644 -5.5215697 -2.7023356
-8.325535 -2.5812223 2.8995993 2.0474844 -0.11633529 3.1410072 -2.8079731 5.161009
0.028214876 1.391188 0.99721634 0.35766292 1.8513715 -0.23783402 1.8688613 0.022937395
0.24488957 -0.02854613 3.6057365 -0.026812496 0.7207663 0.48650175 0.64152956 0.12661703
1.0904083 1.1046773 -0.22583951 2.3699455 -0.37457582 -1.420787 -0.029289274 -0.3321213
-0.32363474 -0.6219719 -0.5882027 -0.422567 0.2929902 0.0019394229 -0.16328943 0.31893998
-0.22206691 -0.2715081 0.08310737 0.10343692 -0.037518363 -0.25295147 -0.041147072 0.24609779
-0.73686796 -0.5821954 -0.29538837 -0.16006145 -0.41669595 -0.18704781 -0.9306729 0.3572307
-0.74895746 0.94823164 -0.21871905 1.9200894 1.5004406 0.08586351 -1.0945657 1.0467777
0.42689455 -0.7492629 0.11962505 1.8780828 -1.4654672 -1.827783 -0.3943759 -0.060565274
-0.04388246 0.068865374 -0.06913486 -0.52493775 -0.17585315 -0.8276695 1.4418337 0.3396449
-2.8626087 -0.95678055 0.81070447 -2.700016 1.0577414 2.9548075 -8.395421 8.485478
2.5319407 -0.3076567 0.25156838 2.973041 1.5291259 0.25130308 3.7054603 2.7271636
00000000: 54c5 393f 5713 71be 6d5a bd3e eee6 ae3f
00000010: fb26 1bbf 781d bfbd b217 c63e 3df6 81bf
00000020: e0e6 0a3f 729b 4bc0 f2f3 4cc0 270c ba3f
00000030: 68d2 9ebf b92c 143d 5953 fdbe 43ec 603f
00000040: 0a4a 1d3f e3cb 6cbe 280a debf f5fb 50bf
00000050: 476c 833e 5e22 6c3e 6afa c7bd 6145 073f
00000060: dce0 d4bc 5f25 afbc d059 543e 84bf 74be
00000070: 1d5b 853e ffb6 84be 68e8 363f bdbe 243e
00000080: 5129 ef3c 5898 153f 1043 d4be 907a 1e3f
00000090: ba4a ebbd 0361 383e 7220 8a3f 7a7b 34be
000000a0: a345 4cbe d454 ce3e 6a0b 59bd 03ce 22be
000000b0: 3582 89be 6b99 2340 8ddb 743f aa04 c8bf
000000c0: 2422 f73f 103f 1240 c687 ca3e 2c0d e340
000000d0: 4541 8740 03c7 b040 124e a940 76e6 d340
000000e0: 5583 9c3d 610e be3e aa14 3bbf a866 5b3e
000000f0: fb50 043e 52d8 f3be 2ad9 0d3d 5eee 303e
00000100: ca6b 49be 3dab cdbe 17ac a43e 9c6f 59bf
00000110: 6d6b 33bf 0e08 27be adeb 343f a0a8 22bf
00000120: e5ae 02bf 0162 af3e 47c7 25bf de01 3e3f
00000130: b45b 74bf 02dd 16bd 54d7 d23c 88df 14bc
00000140: 5641 593f d450 2f3c ccbf 013e 8f71 b53d
00000150: 8780 4a40 ee69 a0bf 72e2 6e40 f060 1940
00000160: a239 3f40 1aeb 033f 991e 543f e9f5 edbf
00000170: 912d 2abd 1195 7dbb c155 eabc 099e 8dbc
00000180: d03a 2b40 efa1 95bf cff4 44be 3b12 93be
00000190: 2fb9 f53e ef8d e43e 8eac 94bf 9338 1140
000001a0: 797f 35c0 7bce 0b40 1906 9340 2f12 3e40
000001b0: a93b c640 bf18 6a3f 80d1 be40 c3d2 2041
000001c0: d831 9f3e 9781 f63d cd68 d93f 96e5 10c0
000001d0: ef35 2840 a6ef 34bc 1452 d43e 212c 433e
000001e0: 19b0 693d db42 6dbd 5294 173e 1f37 f43d
000001f0: 5825 2cbe 6d19 64be a8f8 903f c6b1 6840
00000200: 87a4 04bf 7116 fc40 4e94 36c0 e8c6 22be
00000210: 7ead 1d41 69cd d03d 76ee 82bd afe6 b0bd
00000220: 9a18 803e 43a1 003d 8c97 85be 8b89 203d
00000230: aecb 0c3e 1abb cfbe 9521 39bd 0747 f03d
00000240: 3225 7abf dd5b edbc f933 3abf d530 9c3b
00000250: 0b03 8ebd ebbb d7bd 0b69 273c 840e 85be
00000260: 2a2e 2abc 0595 a6bc bffd 74bf f258 9ebf
00000270: 64c4 94c0 4bc4 35bf b3b0 b0c0 11f3 2cc0
00000280: 6435 05c1 bf32 25c0 0993 3940 fc09 0340
00000290: 3241 eebd 4306 4940 d5b5 33c0 fc26 a540
000002a0: e222 e73c 7312 b23f 9249 7f3f 981f b73e
000002b0: bef9 ec3f c38a 73be d936 ef3f 34e7 bb3c
000002c0: 55c4 7a3e 93d9 e9bc 63c4 6640 e1a5 dbbc
000002d0: 2484 383f c216 f93e 483b 243f e5a7 013e
000002e0: 8092 8b3f 1166 8d3f 7942 67be 30ad 1740
000002f0: 67c8 bfbe 59dc b5bf 0ff0 efbc ce0b aabe
00000300: 74b3 a5be 8d39 1fbf 7494 16bf b45a d8be
00000310: d002 963e 3c34 fe3a 5835 27be 1a4c a33e
00000320: 8265 63be 1c03 8bbe 3234 aa3d bcd6 d33d
00000330: dbac 19bd db82 81be d589 28bd 0f01 7c3e
00000340: 61a3 3cbf c20a 15bf 253d 97be 26e7 23be
00000350: 2c59 d5be 7689 3fbe 9440 6ebf f1e6 b63e
00000360: adbb 3fbf 4fbf 723f e3f7 5fbe 7dc5 f53f
00000370: 700e c03f 35d9 af3d bb1a 8cbf d0fc 853f
00000380: ec91 da3e b2cf 3fbf fafd f43d 0465 f03f
00000390: 6e94 bbbf cbf4 e9bf a3eb c9be 4b13 78bd
000003a0: 18be 33bd 4a09 8d3d 9496 8dbd 5262 06bf
000003b0: d912 34be 26e2 53bf 028e b83f f0e5 ad3e
000003c0: fb34 37c0 92ef 74bf 548a 4f3f 10cd 2cc0
000003d0: 1264 873f 911b 3d40 a553 06c1 85c4 0741
000003e0: 510b 2240 2e85 9dbe 92cd 803e 4e46 3e40
000003f0: 66ba c33f ccaa 803e 4326 6d40 d989 2e40
